models/resnet26/resnet26-model-optimized.tflite (tflite, 419496 bytes, 28 tensors)

model/dense/MatMul i1 [10, 64] scale=0.0063959183 zero_point=0
000000 21 38 e7 e9 1b 11 d1 c7 fa f4 01 d8 fe e5 e3 12
       0.2110653 0.35817143 -0.15989795 -0.14710613 0.1726898 0.108730614 -0.30060816 -0.36456734 -0.03837551 -0.07675102 0.0063959183 -0.25583673 -0.012791837 -0.1726898 -0.18548164 0.11512653
000010 fd f6 bf e9 06 fd 37 fe 99 12 2b 11 13 1e c2 ec
       -0.019187756 -0.06395918 -0.41573468 -0.14710613 0.03837551 -0.019187756 0.3517755 -0.012791837 -0.65877956 0.11512653 0.27502447 0.108730614 0.12152245 0.19187754 -0.39654693 -0.12791836
000020 ec 0b b8 0f 2a 00 1c 07 1b 36 31 c9 1f fb 0e 2f
       -0.12791836 0.0703551 -0.4605061 0.09593877 0.26862857 0.0 0.17908572 0.04477143 0.1726898 0.3453796 0.3134 -0.3517755 0.19827347 -0.03197959 0.08954286 0.30060816
000030 02 15 c6 07 fc 18 13 e0 22 10 fe 19 f9 e2 97 10
       0.012791837 0.13431428 -0.37096328 0.04477143 -0.025583673 0.15350205 0.12152245 -0.20466939 0.21746123 0.10233469 -0.012791837 0.15989795 -0.04477143 -0.19187754 -0.67157143 0.10233469
000040 e6 10 ff 2d 19 07 ff 16 2b 1c 09 f2 1f 0d 32 2b
       -0.16629387 0.10233469 -0.0063959183 0.28781632 0.15989795 0.04477143 -0.0063959183 0.1407102 0.27502447 0.17908572 0.057563264 -0.08954286 0.19827347 0.08314694 0.3197959 0.27502447
000050 a9 0e f7 00 b4 42 2f 27 d9 a1 9c d1 14 09 ec 02
       -0.5564449 0.08954286 -0.057563264 0.0 -0.4860898 0.4221306 0.30060816 0.24944082 -0.24944082 -0.60761225 -0.6395918 -0.30060816 0.12791836 0.057563264 -0.12791836 0.012791837
000060 e3 dc 1a cb 10 f5 38 1c 41 b3 29 d4 be 0a ee 22
       -0.18548164 -0.23025306 0.16629387 -0.33898368 0.10233469 -0.0703551 0.35817143 0.17908572 0.41573468 -0.4924857 0.26223266 -0.2814204 -0.4221306 0.06395918 -0.11512653 0.21746123
000070 b9 f3 e3 0d b0 06 c3 e6 12 da 0f 0b f2 d8 16 0b
       -0.4541102 -0.08314694 -0.18548164 0.08314694 -0.51167345 0.03837551 -0.39015102 -0.16629387 0.11512653 -0.2430449 0.09593877 0.0703551 -0.08954286 -0.25583673 0.1407102 0.0703551
000080 d9 1d db 1a 12 ae 02 30 1b e4 1e 10 e6 e7 f1 12
       -0.24944082 0.18548164 -0.23664898 0.16629387 0.11512653 -0.5244653 0.012791837 0.3070041 0.1726898 -0.17908572 0.19187754 0.10233469 -0.16629387 -0.15989795 -0.09593877 0.11512653
000090 0e 1c 20 10 18 d4 d1 ea 30 1e 00 eb c1 f7 da c9
       0.08954286 0.17908572 0.20466939 0.10233469 0.15350205 -0.2814204 -0.30060816 -0.1407102 0.3070041 0.19187754 0.0 -0.13431428 -0.40294287 -0.057563264 -0.2430449 -0.3517755
0000a0 38 2d f1 08 26 10 f3 fd 24 34 2a e0 2a ea 16 1b
       0.35817143 0.28781632 -0.09593877 0.051167347 0.2430449 0.10233469 -0.08314694 -0.019187756 0.23025306 0.33258775 0.26862857 -0.20466939 0.26862857 -0.1407102 0.1407102 0.1726898
0000b0 f5 23 0a 02 ff d2 ce 0f 07 c5 cd 19 f8 00 e3 f1
       -0.0703551 0.22385713 0.06395918 0.012791837 -0.0063959183 -0.29421225 -0.3197959 0.09593877 0.04477143 -0.37735918 -0.32619184 0.15989795 -0.051167347 0.0 -0.18548164 -0.09593877
0000c0 e8 d6 f4 22 1c 22 eb d3 fc 08 04 ff 20 e0 11 de
       -0.15350205 -0.26862857 -0.07675102 0.21746123 0.17908572 0.21746123 -0.13431428 -0.28781632 -0.025583673 0.051167347 0.025583673 -0.0063959183 0.20466939 -0.20466939 0.108730614 -0.21746123
0000d0 f9 0e 21 f5 13 ff 18 ab f1 16 0a c3 f7 c2 14 0d
       -0.04477143 0.08954286 0.2110653 -0.0703551 0.12152245 -0.0063959183 0.15350205 -0.5436531 -0.09593877 0.1407102 0.06395918 -0.39015102 -0.057563264 -0.39654693 0.12791836 0.08314694
0000e0 18 fb 04 2c fd f1 12 05 d5 31 f4 31 f9 00 10 29
       0.15350205 -0.03197959 0.025583673 0.2814204 -0.019187756 -0.09593877 0.11512653 0.03197959 -0.27502447 0.3134 -0.07675102 0.3134 -0.04477143 0.0 0.10233469 0.26223266
0000f0 fb d3 0e fa 12 05 e0 ff 0b 23 df 08 22 32 15 e2
       -0.03197959 -0.28781632 0.08954286 -0.03837551 0.11512653 0.03197959 -0.20466939 -0.0063959183 0.0703551 0.22385713 -0.2110653 0.051167347 0.21746123 0.3197959 0.13431428 -0.19187754

model/conv2d_26/Conv2D i1 [64, 3, 3, 64]
000000 fc 13 f7 2e 18 28 48 1b 13 ef 9b dc dd e4 01 21
       -4 19 -9 46 24 40 72 27 19 -17 -101 -36 -35 -28 1 33
000010 05 9d 5d 02 fe b7 ed bf 13 16 1a 11 d0 be 25 06
       5 -99 93 2 -2 -73 -19 -65 19 22 26 17 -48 -66 37 6
000020 15 c9 cc f0 a6 0c 08 aa 2c b3 1c 02 f5 25 e1 57
       21 -55 -52 -16 -90 12 8 -86 44 -77 28 2 -11 37 -31 87
000030 fd fd ff da 4f f6 10 04 fb e6 4a 36 ee 19 51 9f
       -3 -3 -1 -38 79 -10 16 4 -5 -26 74 54 -18 25 81 -97
000040 2c 0b f1 2b 02 1e 2f 30 15 d2 ac c2 b5 d1 f0 18
       44 11 -15 43 2 30 47 48 21 -46 -84 -62 -75 -47 -16 24
000050 1c c7 44 d7 01 b3 d4 d0 0d df 05 35 e3 bd 19 09
       28 -57 68 -41 1 -77 -44 -48 13 -33 5 53 -29 -67 25 9
000060 17 d4 ce cd 97 ef 18 c5 15 c4 36 0d f9 25 b0 56
       23 -44 -50 -51 -105 -17 24 -59 21 -60 54 13 -7 37 -80 86
000070 f0 e4 f3 c4 3d 0b 13 ed e7 d5 5a 39 e6 45 3c c9
       -16 -28 -13 -60 61 11 19 -19 -25 -43 90 57 -26 69 60 -55
000080 1d f5 03 21 11 1b 3e 62 02 c4 95 c4 ce c5 b0 16
       29 -11 3 33 17 27 62 98 2 -60 -107 -60 -50 -59 -80 22
000090 07 e9 4a d2 fc db da da 14 ff ed 48 e2 ae 11 1c
       7 -23 74 -46 -4 -37 -38 -38 20 -1 -19 72 -30 -82 17 28
0000a0 2e c3 d9 e9 96 0d 35 e1 29 c5 3d 1c fc 37 d9 61
       46 -61 -39 -23 -106 13 53 -31 41 -59 61 28 -4 55 -39 97
0000b0 df ee eb b1 5b 13 04 00 f6 de 51 34 e8 39 5d d9
       -33 -18 -21 -79 91 19 4 0 -10 -34 81 52 -24 57 93 -39
0000c0 0e 1e d8 fe 2a 5f f7 d1 f4 cc b5 d5 02 de fb 36
       14 30 -40 -2 42 95 -9 -47 -12 -52 -75 -43 2 -34 -5 54
0000d0 06 a0 25 ed f3 e0 f1 b7 f7 51 05 0e cb db 53 1f
       6 -96 37 -19 -13 -32 -15 -73 -9 81 5 14 -53 -37 83 31
0000e0 08 c0 d1 d9 a8 f4 1c c4 13 a4 1e ef bc 00 d1 24
       8 -64 -47 -39 -88 -12 28 -60 19 -92 30 -17 -68 0 -47 36
0000f0 cc f4 ea 01 40 11 23 eb 22 db 29 3c dc ce 19 b9
       -52 -12 -22 1 64 17 35 -21 34 -37 41 60 -36 -50 25 -71

model/conv2d_25/Conv2D i1 [64, 3, 3, 64]
000000 e3 24 d8 e2 33 32 eb fb 5d f9 00 12 da cb 89 8c
       -29 36 -40 -30 51 50 -21 -5 93 -7 0 18 -38 -53 -119 -116
000010 10 d1 05 0d 08 a2 d2 f2 36 0b 22 32 ac fb 02 b7
       16 -47 5 13 8 -94 -46 -14 54 11 34 50 -84 -5 2 -73
000020 26 f8 87 78 fe 0d f2 1c ce f9 42 b1 2a 1f 49 cd
       38 -8 -121 120 -2 13 -14 28 -50 -7 66 -79 42 31 73 -51
000030 fc 35 11 1d 13 0e 20 d5 f6 0e d1 15 17 43 c8 ef
       -4 53 17 29 19 14 32 -43 -10 14 -47 21 23 67 -56 -17
000040 f5 30 e2 d4 2e 3f e6 d3 33 18 f2 0a f7 d8 d3 81
       -11 48 -30 -44 46 63 -26 -45 51 24 -14 10 -9 -40 -45 -127
000050 f7 aa 2c e1 e6 a1 01 14 06 06 22 23 b3 e1 13 cb
       -9 -86 44 -31 -26 -95 1 20 6 6 34 35 -77 -31 19 -53
000060 0f ce 91 3d 06 e5 d9 ee dc 19 f7 d4 42 22 51 c2
       15 -50 -111 61 6 -27 -39 -18 -36 25 -9 -44 66 34 81 -62
000070 1f 14 1f 18 d7 f2 e9 cb 28 18 c4 36 fd 2a e3 f8
       31 20 31 24 -41 -14 -23 -53 40 24 -60 54 -3 42 -29 -8
000080 e9 0a f1 09 61 43 fe ae 08 19 df 04 22 e9 e6 91
       -23 10 -15 9 97 67 -2 -82 8 25 -33 4 34 -23 -26 -111
000090 18 c8 43 e9 dd b3 f3 f0 f1 d1 15 04 d1 fb 26 db
       24 -56 67 -23 -35 -77 -13 -16 -15 -47 21 4 -47 -5 38 -37
0000a0 08 ec be 07 0b e6 ed f1 ff 33 ff ef 45 23 31 c3
       8 -20 -66 7 11 -26 -19 -15 -1 51 -1 -17 69 35 49 -61
0000b0 20 23 41 21 f0 10 bc e3 0c 0a 9f 38 cb fc dc f5
       32 35 65 33 -16 16 -68 -29 12 10 -97 56 -53 -4 -36 -11
0000c0 21 ef f4 e1 37 16 06 02 59 f0 eb 06 fe cd d3 8a
       33 -17 -12 -31 55 22 6 2 89 -16 -21 6 -2 -51 -45 -118
0000d0 e6 61 27 f1 e7 fa dd d2 ff 06 12 d9 c6 1e e7 c3
       -26 97 39 -15 -25 -6 -35 -46 -1 6 18 -39 -58 30 -25 -61
0000e0 03 36 d0 2b 20 01 45 07 e2 ff 42 08 1e d2 0c b0
       3 54 -48 43 32 1 69 7 -30 -1 66 8 30 -46 12 -80
0000f0 19 04 0c 15 dc dc 0f 22 03 cb d1 16 10 3c dc eb
       25 4 12 21 -36 -36 15 34 3 -53 -47 22 16 60 -36 -21

model/conv2d_24/Conv2D i1 [64, 3, 3, 64]
000000 fb e1 27 e7 e0 d7 32 be 0c e7 f9 06 24 2a de 32
       -5 -31 39 -25 -32 -41 50 -66 12 -25 -7 6 36 42 -34 50
000010 0f 0c 2b 22 f1 e6 9d 1a 03 0f e8 00 f7 9e f2 f3
       15 12 43 34 -15 -26 -99 26 3 15 -24 0 -9 -98 -14 -13
000020 e2 e2 1c 03 c5 f8 d2 d2 ea 33 06 09 d3 39 14 e5
       -30 -30 28 3 -59 -8 -46 -46 -22 51 6 9 -45 57 20 -27
000030 19 9d f1 fd 46 19 0e 7f c8 b1 01 e4 c8 04 27 ec
       25 -99 -15 -3 70 25 14 127 -56 -79 1 -28 -56 4 39 -20
000040 e5 d8 00 dc d1 da 1f da dc ed f6 d6 0f 4c f7 f8
       -27 -40 0 -36 -47 -38 31 -38 -36 -19 -10 -42 15 76 -9 -8
000050 fe 2d 12 04 18 29 be 0d f7 18 08 f8 00 ce db e8
       -2 45 18 4 24 41 -66 13 -9 24 8 -8 0 -50 -37 -24
000060 db e8 22 00 cf 1a e4 ef 07 2f ec 06 e6 34 20 0e
       -37 -24 34 0 -49 26 -28 -17 7 47 -20 6 -26 52 32 14
000070 19 d5 d9 0b 24 0d 26 47 cd ae 0c e8 e6 e2 f6 f1
       25 -43 -39 11 36 13 38 71 -51 -82 12 -24 -26 -30 -10 -15
000080 c3 d9 c8 11 d9 dd 0b e5 99 e1 ee ac 0f 6d ec 1d
       -61 -39 -56 17 -39 -35 11 -27 -103 -31 -18 -84 15 109 -20 29
000090 0c 48 18 e9 1e 10 d1 f8 10 34 f6 02 02 cb d4 e0
       12 72 24 -23 30 16 -47 -8 16 52 -10 2 2 -53 -44 -32
0000a0 f1 11 01 1f d9 ec f0 05 1e 2a e1 2c ee 12 09 f4
       -15 17 1 31 -39 -20 -16 5 30 42 -31 44 -18 18 9 -12
0000b0 07 e0 cc 2c 05 2e 2a 4f c9 b1 12 f9 0a fc 0d 06
       7 -32 -52 44 5 46 42 79 -55 -79 18 -7 10 -4 13 6
0000c0 2f ef 28 c9 24 dc 13 bf df f7 ea ee 51 2a be 50
       47 -17 40 -55 36 -36 19 -65 -33 -9 -22 -18 81 42 -66 80
0000d0 fc 05 f0 05 e8 0a ab eb d3 f4 c3 08 fc 8c f6 c1
       -4 5 -16 5 -24 10 -85 -21 -45 -12 -61 8 -4 -116 -10 -63
0000e0 0d d5 22 fe 07 d7 ff df e8 2f 1e 2d 06 0b 20 01
       13 -43 34 -2 7 -41 -1 -33 -24 47 30 45 6 11 32 1
0000f0 1b b1 48 0c 2f 1d 10 3a e6 da 07 f7 00 20 ed ea
       27 -79 72 12 47 29 16 58 -26 -38 7 -9 0 32 -19 -22

model/conv2d_23/Conv2D i1 [64, 3, 3, 64]
000000 f4 f4 d5 04 15 fc c6 e3 00 3b 04 07 a9 bf e8 f5
       -12 -12 -43 4 21 -4 -58 -29 0 59 4 7 -87 -65 -24 -11
000010 33 dd ee bc 4d a8 0c 90 fc de bc dd f6 ec e8 e0
       51 -35 -18 -68 77 -88 12 -112 -4 -34 -68 -35 -10 -20 -24 -32
000020 f6 22 cb f6 a0 03 e6 dd ac 03 e1 c4 1d df d2 00
       -10 34 -53 -10 -96 3 -26 -35 -84 3 -31 -60 29 -33 -46 0
000030 d2 fb 20 d9 f1 f5 fa ac de b8 00 e6 f5 ed fc 11
       -46 -5 32 -39 -15 -11 -6 -84 -34 -72 0 -26 -11 -19 -4 17
000040 eb 07 e0 1c 25 dd c0 d2 25 43 2a 15 d4 c8 de 06
       -21 7 -32 28 37 -35 -64 -46 37 67 42 21 -44 -56 -34 6
000050 1a 2a e3 f7 4c d0 04 af ee f2 0d cd e0 13 fc 0e
       26 42 -29 -9 76 -48 4 -81 -18 -14 13 -51 -32 19 -4 14
000060 1e 2b fb c2 f3 dc 00 cf a5 af fd 0d 16 4e c4 d1
       30 43 -5 -62 -13 -36 0 -49 -91 -81 -3 13 22 78 -60 -47
000070 0d 11 ea c4 1a f7 05 d2 d3 10 06 f6 01 f2 fc f7
       13 17 -22 -60 26 -9 5 -46 -45 16 6 -10 1 -14 -4 -9
000080 dd 14 c9 03 f3 05 c5 c4 0f 7f 35 fc f8 fd aa fc
       -35 20 -55 3 -13 5 -59 -60 15 127 53 -4 -8 -3 -86 -4
000090 42 4a db 17 23 f5 e5 c1 c4 ba 0b f4 f0 ff 3b ef
       66 74 -37 23 35 -11 -27 -63 -60 -70 11 -12 -16 -1 59 -17
0000a0 2c 41 0d e3 d1 0d da dc e2 ba 05 0a 0a f4 c0 c8
       44 65 13 -29 -47 13 -38 -36 -30 -70 5 10 10 -12 -64 -56
0000b0 f3 7c fe bd 03 f3 00 f9 e6 19 d6 bb fa 0f e3 d1
       -13 124 -2 -67 3 -13 0 -7 -26 25 -42 -69 -6 15 -29 -47
0000c0 3e ea 43 09 cd 3b cd e3 d4 fc c7 cc cd f4 f4 df
       62 -22 67 9 -51 59 -51 -29 -44 -4 -57 -52 -51 -12 -12 -33
0000d0 22 fe f4 d3 11 ed 04 d6 1c 04 0f 03 10 d2 0d e5
       34 -2 -12 -45 17 -19 4 -42 28 4 15 3 16 -46 13 -27
0000e0 d7 2b f7 4a d7 26 f0 9d d2 26 f4 f1 40 0c de 0b
       -41 43 -9 74 -41 38 -16 -99 -46 38 -12 -15 64 12 -34 11
0000f0 d0 c6 1c da 2a e9 f1 c3 00 d3 16 39 24 20 2f 0d
       -48 -58 28 -38 42 -23 -15 -61 0 -45 22 57 36 32 47 13

model/conv2d_22/Conv2D i1 [64, 3, 3, 64]
000000 70 e6 b7 12 50 0a fa 03 0e 0e e9 0e e6 27 f4 1b
       112 -26 -73 18 80 10 -6 3 14 14 -23 14 -26 39 -12 27
000010 15 e7 dc 1e f0 08 0a fe fc fb 2d 1e 0f 53 fa fa
       21 -25 -36 30 -16 8 10 -2 -4 -5 45 30 15 83 -6 -6
000020 18 f7 f8 f7 f3 c5 bf c4 00 36 14 07 fa d4 1e ec
       24 -9 -8 -9 -13 -59 -65 -60 0 54 20 7 -6 -44 30 -20
000030 04 f2 13 15 0b ff 1f ed f2 43 6d 2c 0d 27 12 13
       4 -14 19 21 11 -1 31 -19 -14 67 109 44 13 39 18 19
000040 7f 18 ea e5 fc 36 35 1a 01 f9 e4 d5 e4 fe f1 01
       127 24 -22 -27 -4 54 53 26 1 -7 -28 -43 -28 -2 -15 1
000050 13 0d ed 1e db 21 23 e6 f7 f3 28 10 3e 71 fa 01
       19 13 -19 30 -37 33 35 -26 -9 -13 40 16 62 113 -6 1
000060 de 0d ec 00 f9 f2 d9 c6 de 08 31 fb e2 b5 f5 f5
       -34 13 -20 0 -7 -14 -39 -58 -34 8 49 -5 -30 -75 -11 -11
000070 f7 f3 d1 2e fd 1b 10 e0 e2 2a 28 fd 02 3f 11 41
       -9 -13 -47 46 -3 27 16 -32 -30 42 40 -3 2 63 17 65
000080 49 4f ee de ed 35 4d 44 e9 d2 02 f5 f9 23 e9 e8
       73 79 -18 -34 -19 53 77 68 -23 -46 2 -11 -7 35 -23 -24
000090 ef f7 fa 4a da 02 31 d3 4f cb ee de 1c 55 e9 e7
       -17 -9 -6 74 -38 2 49 -45 79 -53 -18 -34 28 85 -23 -25
0000a0 c7 ff f9 1d fb 19 d4 e1 f4 f7 fa e9 2a b6 01 0f
       -57 -1 -7 29 -5 25 -44 -31 -12 -9 -6 -23 42 -74 1 15
0000b0 ee ac ab ec f4 33 06 ef f0 1e 03 ed 2a 22 11 4b
       -18 -84 -85 -20 -12 51 6 -17 -16 30 3 -19 42 34 17 75
0000c0 21 07 dc 10 4f fe 0e ea 17 0b f5 13 f4 15 f2 29
       33 7 -36 16 79 -2 14 -22 23 11 -11 19 -12 21 -14 41
0000d0 13 fa d0 f3 15 1d fc 28 2c fd 1b d3 09 26 18 ed
       19 -6 -48 -13 21 29 -4 40 44 -3 27 -45 9 38 24 -19
0000e0 0a 07 36 16 18 c3 93 e2 fa e2 04 48 02 c5 26 04
       10 7 54 22 24 -61 -109 -30 -6 -30 4 72 2 -59 38 4
0000f0 0b dc 3a d4 23 11 0d f0 fa 29 3b d9 0e fe f9 f2
       11 -36 58 -44 35 17 13 -16 -6 41 59 -39 14 -2 -7 -14

model/conv2d_21/Conv2D i1 [64, 3, 3, 64]
000000 03 03 5a 22 f5 24 2e 01 fb c9 cd f5 b6 d0 e9 b3
       3 3 90 34 -11 36 46 1 -5 -55 -51 -11 -74 -48 -23 -77
000010 48 f3 13 ee 22 f3 ea a0 fa f0 0b e1 18 0a c7 2c
       72 -13 19 -18 34 -13 -22 -96 -6 -16 11 -31 24 10 -57 44
000020 de 20 e2 1f 2b e7 cc f6 12 23 fd 0c ff ff 49 17
       -34 32 -30 31 43 -25 -52 -10 18 35 -3 12 -1 -1 73 23
000030 1d 08 ef 18 16 df 06 0e 39 d9 21 f0 e3 25 53 c6
       29 8 -17 24 22 -33 6 14 57 -39 33 -16 -29 37 83 -58
000040 fe ee 13 00 d5 14 24 04 ca f0 e7 ea ad da d1 d4
       -2 -18 19 0 -43 20 36 4 -54 -16 -25 -22 -83 -38 -47 -44
000050 ff 14 fd fa 12 1f f6 97 12 0c 0e 13 da 09 ee fd
       -1 20 -3 -6 18 31 -10 -105 18 12 14 19 -38 9 -18 -3
000060 c1 1e e0 33 dd e5 db ec fd 00 fc 06 f2 09 0c d0
       -63 30 -32 51 -35 -27 -37 -20 -3 0 -4 6 -14 9 12 -48
000070 0f 0b 98 1c 1d e9 ea ff 24 fc 58 d4 ea ff 20 e8
       15 11 -104 28 29 -23 -22 -1 36 -4 88 -44 -22 -1 32 -24
000080 03 b6 1d 00 aa f3 2a c5 ed d3 ce eb 97 07 de e3
       3 -74 29 0 -86 -13 42 -59 -19 -45 -50 -21 -105 7 -34 -29
000090 37 18 0f f2 3b 57 03 bd ff f7 3e 3e dd 1f ca fe
       55 24 15 -14 59 87 3 -67 -1 -9 62 62 -35 31 -54 -2
0000a0 e6 27 0a 3d 04 ef fd cf 03 78 e9 26 2a 53 45 ca
       -26 39 10 61 4 -17 -3 -49 3 120 -23 38 42 83 69 -54
0000b0 24 d7 9a 3a b6 14 b0 ed f3 0a e5 a9 11 1f 33 01
       36 -41 -102 58 -74 20 -80 -19 -13 10 -27 -87 17 31 51 1
0000c0 28 3f 4d 19 fc e8 07 f9 d8 f3 dd e1 06 a0 18 fe
       40 63 77 25 -4 -24 7 -7 -40 -13 -35 -31 6 -96 24 -2
0000d0 18 bd e2 c1 19 1f f7 f6 ef 01 bd e6 e7 f6 d4 ed
       24 -67 -30 -63 25 31 -9 -10 -17 1 -67 -26 -25 -10 -44 -19
0000e0 07 04 25 d4 05 ca c1 03 04 3e c8 17 fc 45 1e da
       7 4 37 -44 5 -54 -63 3 4 62 -56 23 -4 69 30 -38
0000f0 cd 20 3f 01 66 f0 d9 0a 3a d7 09 30 9c 2a 21 11
       -51 32 63 1 102 -16 -39 10 58 -41 9 48 -100 42 33 17

model/conv2d_20/Conv2D i1 [64, 1, 1, 32]
000000 28 e7 81 25 fb a8 07 be b6 a1 fe f8 c7 e9 2f 13
       40 -25 -127 37 -5 -88 7 -66 -74 -95 -2 -8 -57 -23 47 19
000010 81 24 f0 c7 0d fc db 9f da 9e e7 16 28 b0 33 ac
       -127 36 -16 -57 13 -4 -37 -97 -38 -98 -25 22 40 -80 51 -84
000020 bb e1 e9 a2 db ec f2 03 29 ff 15 96 81 0e 19 c9
       -69 -31 -23 -94 -37 -20 -14 3 41 -1 21 -106 -127 14 25 -55
000030 ed ef 00 8a 1e f1 f6 58 ba bc 10 f9 f1 02 e3 fd
       -19 -17 0 -118 30 -15 -10 88 -70 -68 16 -7 -15 2 -29 -3
000040 0d dc c9 ba 21 a9 83 46 12 08 0c 81 04 24 04 b7
       13 -36 -55 -70 33 -87 -125 70 18 8 12 -127 4 36 4 -73
000050 93 06 08 e2 e3 cd 12 db 2b e2 07 12 18 e0 e5 f1
       -109 6 8 -30 -29 -51 18 -37 43 -30 7 18 24 -32 -27 -15
000060 ac 18 f3 5e a3 e2 22 20 fb 1f bf 0a 25 ca e6 d9
       -84 24 -13 94 -93 -30 34 32 -5 31 -65 10 37 -54 -26 -39
000070 17 81 dd 3c 15 05 d0 e9 e7 31 d5 ec 8d f5 bd f7
       23 -127 -35 60 21 5 -48 -23 -25 49 -43 -20 -115 -11 -67 -9
000080 a6 eb 0c f1 1d cd d4 ef 13 81 fe 1a be ee 13 d1
       -90 -21 12 -15 29 -51 -44 -17 19 -127 -2 26 -66 -18 19 -47
000090 8a eb 01 a2 be cc 0a fc f6 a1 36 14 0d 2b d8 0a
       -118 -21 1 -94 -66 -52 10 -4 -10 -95 54 20 13 43 -40 10
0000a0 a2 0e 06 f3 d2 e1 ea 0b 1c 14 22 f2 05 e0 c3 81
       -94 14 6 -13 -46 -31 -22 11 28 20 34 -14 5 -32 -61 -127
0000b0 18 9d 18 df 4a 04 f5 1b c8 ca e8 dc be 0f cf e0
       24 -99 24 -33 74 4 -11 27 -56 -54 -24 -36 -66 15 -49 -32
0000c0 3a 81 ce e1 09 08 f7 53 ab ee e5 36 0f 3e 2f c0
       58 -127 -50 -31 9 8 -9 83 -85 -18 -27 54 15 62 47 -64
0000d0 d2 0b 22 5b 0f ac 04 92 1f e8 b2 18 c9 42 86 9f
       -46 11 34 91 15 -84 4 -110 31 -24 -78 24 -55 66 -122 -97
0000e0 e3 b7 d4 df 35 81 aa fa ac fe f6 bc 04 18 e2 00
       -29 -73 -44 -33 53 -127 -86 -6 -84 -2 -10 -68 4 24 -30 0
0000f0 d6 10 08 a1 e6 f1 40 d7 d1 c9 d8 dc 0d 52 11 b0
       -42 16 8 -95 -26 -15 64 -41 -47 -55 -40 -36 13 82 17 -80

model/conv2d_19/Conv2D i1 [64, 3, 3, 64]
000000 da d1 ff d6 ed 26 dc 0d c3 e5 ea 0c da f0 d5 02
       -38 -47 -1 -42 -19 38 -36 13 -61 -27 -22 12 -38 -16 -43 2
000010 c9 24 05 0e e9 ef da 1c 02 34 31 1d fd fa 09 0a
       -55 36 5 14 -23 -17 -38 28 2 52 49 29 -3 -6 9 10
000020 f6 ce f9 e0 ed f4 f7 c8 df fb ea 09 17 e7 c9 f4
       -10 -50 -7 -32 -19 -12 -9 -56 -33 -5 -22 9 23 -25 -55 -12
000030 38 15 f5 ff f1 f0 06 1c f0 14 e3 04 cb 0d 15 ca
       56 21 -11 -1 -15 -16 6 28 -16 20 -29 4 -53 13 21 -54
000040 f9 dc ce e9 da 1c f8 dd f3 00 f3 05 cd fb d5 08
       -7 -36 -50 -23 -38 28 -8 -35 -13 0 -13 5 -51 -5 -43 8
000050 c8 f0 08 eb 04 f6 d9 24 e5 3e 43 f9 fa cd 0a 38
       -56 -16 8 -21 4 -10 -39 36 -27 62 67 -7 -6 -51 10 56
000060 ee cf 00 f8 15 cd e2 cf c9 16 fd f8 fb d7 d6 fd
       -18 -49 0 -8 21 -51 -30 -49 -55 22 -3 -8 -5 -41 -42 -3
000070 30 1c ee e8 14 fa 06 ff de 1e ec f7 e0 f5 1e ef
       48 28 -18 -24 20 -6 6 -1 -34 30 -20 -9 -32 -11 30 -17
000080 e4 ea d8 c5 d6 41 f5 ec fb 0e 07 11 d5 e9 d1 fd
       -28 -22 -40 -59 -42 65 -11 -20 -5 14 7 17 -43 -23 -47 -3
000090 0f f3 17 da e4 08 b6 27 da 3d 2b e4 ed c4 26 03
       15 -13 23 -38 -28 8 -74 39 -38 61 43 -28 -19 -60 38 3
0000a0 e2 c2 05 f4 22 cc f0 f7 09 13 f1 00 ec fa 1e d3
       -30 -62 5 -12 34 -52 -16 -9 9 19 -15 0 -20 -6 30 -45
0000b0 3c 3f dd f5 45 0f 0f f9 cb 10 e8 f8 f2 08 2b 09
       60 63 -35 -11 69 15 15 -7 -53 16 -24 -8 -14 8 43 9
0000c0 09 ee 04 e0 cb d3 e0 f1 fc 07 08 44 de 1a fb 08
       9 -18 4 -32 -53 -45 -32 -15 -4 7 8 68 -34 26 -5 8
0000d0 f7 1d 2d 04 f9 ed d5 15 0d 39 0f 01 33 14 09 18
       -9 29 45 4 -7 -19 -43 21 13 57 15 1 51 20 9 24
0000e0 0e e7 fd f6 25 f2 ee fd 1b 04 1d 0b f2 e5 f8 ca
       14 -25 -3 -10 37 -14 -18 -3 27 4 29 11 -14 -27 -8 -54
0000f0 ef 13 0f de d2 f3 16 f5 08 e6 ce 00 db ee f4 f6
       -17 19 15 -34 -46 -13 22 -11 8 -26 -50 0 -37 -18 -12 -10

model/conv2d_18/Conv2D i1 [64, 3, 3, 32]
000000 e8 20 df 05 1e d7 fb dd 29 0a 17 ee 03 20 f0 d1
       -24 32 -33 5 30 -41 -5 -35 41 10 23 -18 3 32 -16 -47
000010 07 c8 0d 27 e2 d9 f7 1c dd e9 1f cd f1 1f bc 32
       7 -56 13 39 -30 -39 -9 28 -35 -23 31 -51 -15 31 -68 50
000020 2b 2b 1a e9 04 9c e1 09 09 03 48 da 03 f2 0b 8c
       43 43 26 -23 4 -100 -31 9 9 3 72 -38 3 -14 11 -116
000030 ff a6 14 1f d6 f0 c1 09 02 4f 0b 02 e4 53 b6 27
       -1 -90 20 31 -42 -16 -63 9 2 79 11 2 -28 83 -74 39
000040 2a 1a e0 eb 2b c8 f8 e4 16 1f 40 09 e4 a9 02 ab
       42 26 -32 -21 43 -56 -8 -28 22 31 64 9 -28 -87 2 -85
000050 f1 cd f2 09 fc f6 cb f5 18 2c 1a 15 f6 f5 ca 44
       -15 -51 -14 9 -4 -10 -53 -11 24 44 26 21 -10 -11 -54 68
000060 e0 45 f1 bb 0c b3 c1 ff 29 aa 1a f8 29 fd a3 c0
       -32 69 -15 -69 12 -77 -63 -1 41 -86 26 -8 41 -3 -93 -64
000070 0b 99 07 1c c0 28 d3 cf 04 25 fb f2 f8 3b a5 04
       11 -103 7 28 -64 40 -45 -49 4 37 -5 -14 -8 59 -91 4
000080 0e 20 17 c8 21 ba ad 33 f6 ba 31 ef 2f ea a5 81
       14 32 23 -56 33 -70 -83 51 -10 -70 49 -17 47 -22 -91 -127
000090 1c ad 13 17 d7 16 a4 c6 1c 4e 0e 1d 0c 5b 95 09
       28 -83 19 23 -41 22 -92 -58 28 78 14 29 12 91 -107 9
0000a0 1d 04 f6 ee fd e1 cc fb 04 ed 12 ef 2a a9 c3 c3
       29 4 -10 -18 -3 -31 -52 -5 4 -19 18 -17 42 -87 -61 -61
0000b0 02 c2 ec 13 f3 15 cd e0 2f 24 c7 0e 0b 06 d9 11
       2 -62 -20 19 -13 21 -51 -32 47 36 -57 14 11 6 -39 17
0000c0 db 51 ff b7 31 01 c6 cc 24 b6 f3 02 13 17 1d ee
       -37 81 -1 -73 49 1 -58 -52 36 -74 -13 2 19 23 29 -18
0000d0 18 09 eb 19 f8 24 ce 0c 06 3f e8 24 0e e2 dc f9
       24 9 -21 25 -8 36 -50 12 6 63 -24 36 14 -30 -36 -7
0000e0 1d 08 0f b1 29 e5 bb 08 1f c5 37 f6 30 fb 02 b1
       29 8 15 -79 41 -27 -69 8 31 -59 55 -10 48 -5 2 -79
0000f0 22 fd 04 e4 16 2b d1 1b 35 39 0f 40 19 43 e3 fd
       34 -3 4 -28 22 43 -47 27 53 57 15 64 25 67 -29 -3

model/conv2d_17/Conv2D i1 [32, 3, 3, 32]
000000 03 0e cf 3c cf fc 21 41 13 0e e0 0a 33 4d 46 0b
       3 14 -49 60 -49 -4 33 65 19 14 -32 10 51 77 70 11
000010 0f f0 1d 2f ee 13 2a 00 d6 f4 51 0f af b9 0b e3
       15 -16 29 47 -18 19 42 0 -42 -12 81 15 -81 -71 11 -29
000020 f6 fb d5 77 e1 47 29 32 45 f7 d7 f1 41 2e 3b ff
       -10 -5 -43 119 -31 71 41 50 69 -9 -41 -15 65 46 59 -1
000030 ea f8 e3 fe ea f0 fb d6 b1 fc 3a 08 d0 b1 f1 cf
       -22 -8 -29 -2 -22 -16 -5 -42 -79 -4 58 8 -48 -79 -15 -49
000040 eb fb 32 68 12 10 0b 29 23 30 e6 e3 56 d4 17 e6
       -21 -5 50 104 18 16 11 41 35 48 -26 -29 86 -44 23 -26
000050 23 0b c4 e1 ed 01 d6 a8 b4 0b 26 f8 ab d5 f3 ce
       35 11 -60 -31 -19 1 -42 -88 -76 11 38 -8 -85 -43 -13 -50
000060 eb 45 ea fd bc eb 15 0d c6 12 0d 12 06 ef 39 c9
       -21 69 -22 -3 -68 -21 21 13 -58 18 13 18 6 -17 57 -55
000070 23 ab 34 20 fc 06 23 43 c3 fe 21 dd 90 cb 06 c4
       35 -85 52 32 -4 6 35 67 -61 -2 33 -35 -112 -53 6 -60
000080 f1 27 fc 2d d1 ee 01 1f fe 0a f5 fb 18 d2 25 c5
       -15 39 -4 45 -47 -18 1 31 -2 10 -11 -5 24 -46 37 -59
000090 4b ce eb 49 0d e0 17 3d bb 11 09 e5 bc bd ea e6
       75 -50 -21 73 13 -32 23 61 -69 17 9 -27 -68 -67 -22 -26
0000a0 e2 58 23 1b cf d7 d9 ff dd 50 22 e9 2d b4 04 cc
       -30 88 35 27 -49 -41 -39 -1 -35 80 34 -23 45 -76 4 -52
0000b0 3a d6 24 fc 04 05 14 fa bf f5 0b cf b1 ee df dc
       58 -42 36 -4 4 5 20 -6 -65 -11 11 -49 -79 -18 -33 -36
0000c0 28 4f eb a6 ce f7 22 bb bf 07 28 d3 d4 9e 10 ca
       40 79 -21 -90 -50 -9 34 -69 -65 7 40 -45 -44 -98 16 -54
0000d0 30 d6 45 44 3f fd 27 50 b8 f5 dd e2 c8 e9 0b f0
       48 -42 69 68 63 -3 39 80 -72 -11 -35 -30 -56 -23 11 -16
0000e0 04 40 01 d3 b5 f5 27 dc c9 1b 04 e5 e5 a7 10 a1
       4 64 1 -45 -75 -11 39 -36 -55 27 4 -27 -27 -89 16 -95
0000f0 36 af 43 3d 42 f3 1c 58 9c f9 dc d9 de da 21 ee
       54 -81 67 61 66 -13 28 88 -100 -7 -36 -39 -34 -38 33 -18

model/conv2d_16/Conv2D i1 [32, 3, 3, 32]
000000 b0 10 3e ca e9 5b 46 38 50 c1 58 ed fa 44 f3 eb
       -80 16 62 -54 -23 91 70 56 80 -63 88 -19 -6 68 -13 -21
000010 f2 08 dc a8 4e 2d e1 10 24 f4 55 18 ea ff 1a 1a
       -14 8 -36 -88 78 45 -31 16 36 -12 85 24 -22 -1 26 26
000020 d9 fc 1b b6 fa 42 16 3a 0b a4 33 00 e0 ff 12 14
       -39 -4 27 -74 -6 66 22 58 11 -92 51 0 -32 -1 18 20
000030 f0 f6 d5 9a 1f 0a f7 d4 0a 04 25 27 ee e0 1a 14
       -16 -10 -43 -102 31 10 -9 -44 10 4 37 39 -18 -32 26 20
000040 87 d9 1f ab ef 45 df fb e3 c7 9a 07 1f 08 3b df
       -121 -39 31 -85 -17 69 -33 -5 -29 -57 -102 7 31 8 59 -33
000050 2f ea 0b b9 f7 59 0c a8 fa 21 1f e9 dc 95 e1 1a
       47 -22 11 -71 -9 89 12 -88 -6 33 31 -23 -36 -107 -31 26
000060 df d1 f7 b2 f0 f1 2e 25 27 a6 55 14 27 6b 1a f8
       -33 -47 -9 -78 -16 -15 46 37 39 -90 85 20 39 107 26 -8
000070 1e 11 d0 ae 2b 31 ff e4 41 1e 03 11 f5 10 dc f8
       30 17 -48 -82 43 49 -1 -28 65 30 3 17 -11 16 -36 -8
000080 10 a9 fb 95 f2 2e f4 07 1b 92 05 dc df b6 1b fc
       16 -87 -5 -107 -14 46 -12 7 27 -110 5 -36 -33 -74 27 -4
000090 d8 47 e6 81 ee 0d eb 02 d8 f8 e5 cf 2d d6 f6 f9
       -40 71 -26 -127 -18 13 -21 2 -40 -8 -27 -49 45 -42 -10 -7
0000a0 d4 91 e0 9d f8 f6 bf 4d e2 87 df cb 16 0f 62 9d
       -44 -111 -32 -99 -8 -10 -65 77 -30 -121 -33 -53 22 15 98 -99
0000b0 e6 fa 00 89 bc ea f5 e3 f5 e6 04 c9 24 c8 c2 d0
       -26 -6 0 -119 -68 -22 -11 -29 -11 -26 4 -55 36 -56 -62 -48
0000c0 fc f9 fd de 40 33 42 14 46 d9 3e e6 33 3a e4 3a
       -4 -7 -3 -34 64 51 66 20 70 -39 62 -26 51 58 -28 58
0000d0 1d 1e e4 d1 6a 40 16 ed ff 0f 0d da 2c 0c 07 3c
       29 30 -28 -47 106 64 22 -19 -1 15 13 -38 44 12 7 60
0000e0 0d c6 e6 d0 26 02 0b 25 38 d2 29 e4 1a c0 03 23
       13 -58 -26 -48 38 2 11 37 56 -46 41 -28 26 -64 3 35
0000f0 f2 46 e7 a9 38 d1 24 ff e8 e6 ed ea 4f 22 f6 23
       -14 70 -25 -87 56 -47 36 -1 -24 -26 -19 -22 79 34 -10 35

model/conv2d_15/Conv2D i1 [32, 3, 3, 32]
000000 cc c9 13 cc 08 06 b2 45 03 04 2b f8 3a a4 2c eb
       -52 -55 19 -52 8 6 -78 69 3 4 43 -8 58 -92 44 -21
000010 15 0c cf e8 1e 37 1c da 06 f2 09 d1 e9 46 fd f3
       21 12 -49 -24 30 55 28 -38 6 -14 9 -47 -23 70 -3 -13
000020 bf de 0d c8 da 13 c3 10 3c 0a 27 0f 4c 03 ed fb
       -65 -34 13 -56 -38 19 -61 16 60 10 39 15 76 3 -19 -5
000030 1b d7 b2 f5 f4 03 08 f8 50 12 e8 c8 0c 1d ff 06
       27 -41 -78 -11 -12 3 8 -8 80 18 -24 -56 12 29 -1 6
000040 cc 02 32 8e 19 f5 cb 9b f3 37 3f 0c 2e 07 ed 04
       -52 2 50 -114 25 -11 -53 -101 -13 55 63 12 46 7 -19 4
000050 97 c9 d4 d8 17 fd 01 da 6a 4c f9 d6 bc fd fc e3
       -105 -55 -44 -40 23 -3 1 -38 106 76 -7 -42 -68 -3 -4 -29
000060 d9 d7 1c f9 e5 ec d0 35 e5 ac ec fd 03 02 42 0f
       -39 -41 28 -7 -27 -20 -48 53 -27 -84 -20 -3 3 2 66 15
000070 53 25 fd e8 db dc c5 2b 17 b9 df c9 f5 ed eb 27
       83 37 -3 -24 -37 -36 -59 43 23 -71 -33 -55 -11 -19 -21 39
000080 e8 f0 21 03 88 e3 e5 23 18 c9 ea 08 39 3e 18 16
       -24 -16 33 3 -120 -29 -27 35 24 -55 -22 8 57 62 24 22
000090 42 06 bb ed b4 ba d9 0b 31 99 b5 d6 db b7 e3 2e
       66 6 -69 -19 -76 -70 -39 11 49 -103 -75 -42 -37 -73 -29 46
0000a0 f8 2e 2f c1 e2 c1 fd a2 d6 f1 1f 13 11 0e 2b 28
       -8 46 47 -63 -30 -63 -3 -94 -42 -15 31 19 17 14 43 40
0000b0 ec df d0 cc e0 d8 ec 29 61 fa d3 ce 96 dc c8 1f
       -20 -33 -48 -52 -32 -40 -20 41 97 -6 -45 -50 -106 -36 -56 31
0000c0 09 0d e5 f5 e7 de c7 2c c7 bc 2a ee cd 26 22 0b
       9 13 -27 -11 -25 -34 -57 44 -57 -68 42 -18 -51 38 34 11
0000d0 05 53 15 ec ac d4 f6 fd 2d d5 2b d5 ee bc ca 20
       5 83 21 -20 -84 -44 -10 -3 45 -43 43 -43 -18 -68 -54 32
0000e0 42 45 10 f9 98 f2 e6 7f e7 cb 14 b7 42 55 0e fb
       66 69 16 -7 -104 -14 -26 127 -25 -53 20 -73 66 85 14 -5
0000f0 12 11 d2 ec 8f ab ff 11 6f ec d2 da d4 cc b4 21
       18 17 -46 -20 -113 -85 -1 17 111 -20 -46 -38 -44 -52 -76 33

model/conv2d_14/Conv2D i1 [32, 3, 3, 32]
000000 fd 11 2d e4 c1 1b 08 0c 01 e7 1c 3e d2 22 bc 0f
       -3 17 45 -28 -63 27 8 12 1 -25 28 62 -46 34 -68 15
000010 4f fa c9 0c 2c 30 f1 2a 23 4f e5 11 fc 23 dd a7
       79 -6 -55 12 44 48 -15 42 35 79 -27 17 -4 35 -35 -89
000020 da 31 24 f5 bc 15 fa f9 50 c3 f0 12 37 45 b2 32
       -38 49 36 -11 -68 21 -6 -7 80 -61 -16 18 55 69 -78 50
000030 61 db bd fe 26 24 f2 1b 2e 1c b1 d4 de 0d cc d5
       97 -37 -67 -2 38 36 -14 27 46 28 -79 -44 -34 13 -52 -43
000040 e5 49 dc 11 ca fc 04 0d 61 c8 42 e4 72 2e f7 60
       -27 73 -36 17 -54 -4 4 13 97 -56 66 -28 114 46 -9 96
000050 51 ce f3 e6 fa 0a e6 e4 28 2b b7 b9 c6 39 02 39
       81 -50 -13 -26 -6 10 -26 -28 40 43 -73 -71 -58 57 2 57
000060 f2 24 24 09 c5 ec ea c0 3b eb 22 3c fd 2a b4 27
       -14 36 36 9 -59 -20 -22 -64 59 -21 34 60 -3 42 -76 39
000070 48 08 93 d4 06 19 f1 5f 34 f8 d1 cd 17 f0 ea ae
       72 8 -109 -44 6 25 -15 95 52 -8 -47 -51 23 -16 -22 -82
000080 ee 38 1a 0d a3 00 ea d4 48 fc 01 2a 11 3a e5 ff
       -18 56 26 13 -93 0 -22 -44 72 -4 1 42 17 58 -27 -1
000090 28 02 c5 ca c5 0c ea 5d 30 21 a1 c6 ec d7 d1 e2
       40 2 -59 -54 -59 12 -22 93 48 33 -95 -58 -20 -41 -47 -30
0000a0 e8 46 10 10 bd 14 e0 32 3b 19 23 1e 32 33 31 0f
       -24 70 16 16 -67 20 -32 50 59 25 35 30 50 51 49 15
0000b0 5e e6 f5 fa c8 22 e3 13 02 4f ac d8 ba 57 ed 00
       94 -26 -11 -6 -56 34 -29 19 2 79 -84 -40 -70 87 -19 0
0000c0 2a 0d 00 fb c9 b2 ec e2 5d d6 56 13 11 08 c9 da
       42 13 0 -5 -55 -78 -20 -30 93 -42 86 19 17 8 -55 -38
0000d0 24 32 c0 b5 07 23 21 43 2b 0e cb ca 51 17 ff 9d
       36 50 -64 -75 7 35 33 67 43 14 -53 -54 81 23 -1 -99
0000e0 0a 17 00 13 b5 e7 e9 ef 1f f0 19 0e fa 42 c9 e6
       10 23 0 19 -75 -25 -23 -17 31 -16 25 14 -6 66 -55 -26
0000f0 f2 09 da e5 13 f4 1e 40 03 f5 bc bd f9 1b f5 ac
       -14 9 -38 -27 19 -12 30 64 3 -11 -68 -67 -7 27 -11 -84

model/conv2d_13/Conv2D i1 [32, 3, 3, 32]
000000 2a 39 00 65 2c d0 e9 e8 69 2f ca 07 44 ef e4 f9
       42 57 0 101 44 -48 -23 -24 105 47 -54 7 68 -17 -28 -7
000010 dd 4a 24 10 e1 2f 03 05 fa c3 d3 06 e5 63 1e 18
       -35 74 36 16 -31 47 3 5 -6 -61 -45 6 -27 99 30 24
000020 24 2f 16 22 22 13 fb ca 26 e0 aa d1 fe 08 c6 19
       36 47 22 34 34 19 -5 -54 38 -32 -86 -47 -2 8 -58 25
000030 bf 35 c5 09 31 0e ee eb c8 c2 01 29 e1 05 2a c3
       -65 53 -59 9 49 14 -18 -21 -56 -62 1 41 -31 5 42 -61
000040 41 38 21 e6 34 3c 97 d1 d9 f5 a0 ad 01 f2 d7 02
       65 56 33 -26 52 60 -105 -47 -39 -11 -96 -83 1 -14 -41 2
000050 f7 4c d7 07 67 f9 20 0d b0 f1 e6 34 e0 46 35 bb
       -9 76 -41 7 103 -7 32 13 -80 -15 -26 52 -32 70 53 -69
000060 da f1 ed 2f 00 e2 07 fb 2b 1c af 13 36 b5 a5 d4
       -38 -15 -19 47 0 -30 7 -5 43 28 -81 19 54 -75 -91 -44
000070 d6 42 0b 1d db 11 d0 4b 07 e6 02 0b d6 1d 55 01
       -42 66 11 29 -37 17 -48 75 7 -26 2 11 -42 29 85 1
000080 cc d2 e1 19 21 f9 1a ec 0a d5 ad 0a f7 11 b1 e7
       -52 -46 -31 25 33 -7 26 -20 10 -43 -83 10 -9 17 -79 -25
000090 92 0c d7 3b 21 f4 bd 41 23 f7 59 15 cc dd 52 e7
       -110 12 -41 59 33 -12 -67 65 35 -9 89 21 -52 -35 82 -25
0000a0 aa bf f1 18 16 0d b1 e6 d1 ea b0 de f4 20 ee d2
       -86 -65 -15 24 22 13 -79 -26 -47 -22 -80 -34 -12 32 -18 -46
0000b0 ec 1c 04 01 33 fe f6 3a f5 2e 45 30 e2 cd 0a b1
       -20 28 4 1 51 -2 -10 58 -11 46 69 48 -30 -51 10 -79
0000c0 cb 9d f4 32 d0 db ff ed fa 09 cd 34 f0 f9 a8 cd
       -53 -99 -12 50 -48 -37 -1 -19 -6 9 -51 52 -16 -7 -88 -51
0000d0 cf 61 03 fd d3 37 eb 10 36 e9 39 f6 ba 31 13 13
       -49 97 3 -3 -45 55 -21 16 54 -23 57 -10 -70 49 19 19
0000e0 bd a9 f2 1b 16 fe 3a 2a ec df ca 28 ea 0f cf e9
       -67 -87 -14 27 22 -2 58 42 -20 -33 -54 40 -22 15 -49 -23
0000f0 a6 13 0e 1e 01 3a c4 f9 37 0a 4e 13 c1 e9 06 13
       -90 19 14 30 1 58 -60 -7 55 10 78 19 -63 -23 6 19

model/conv2d_12/Conv2D i1 [32, 3, 3, 32]
000000 4f 7f d3 ff b5 b3 3b 29 fd f6 26 ff ac df 2f 86
       79 127 -45 -1 -75 -77 59 41 -3 -10 38 -1 -84 -33 47 -122
000010 1e f2 1d e6 fe 34 56 37 cf dd 5e d1 03 23 d3 93
       30 -14 29 -26 -2 52 86 55 -49 -35 94 -47 3 35 -45 -109
000020 31 2b e3 19 e0 10 1c 3f 06 39 19 fd e2 1e 34 c5
       49 43 -29 25 -32 16 28 63 6 57 25 -3 -30 30 52 -59
000030 46 17 16 25 ed 17 38 07 0a f0 14 fa 0b 19 df 97
       70 23 22 37 -19 23 56 7 10 -16 20 -6 11 25 -33 -105
000040 10 41 e7 00 df 3d d1 04 02 0a 6d 0b 16 0e f6 d4
       16 65 -25 0 -33 61 -47 4 2 10 109 11 22 14 -10 -44
000050 5f 1c 05 3b d6 fc 35 36 0c d4 ca 1a 10 38 ca d1
       95 28 5 59 -42 -4 53 54 12 -44 -54 26 16 56 -54 -47
000060 4c 22 c1 4b e8 11 0c f0 eb eb 02 b4 cb de 19 c4
       76 34 -63 75 -24 17 12 -16 -21 -21 2 -76 -53 -34 25 -60
000070 11 d4 fd e4 ae f3 3f 24 cc b2 26 aa ef d4 08 e9
       17 -44 -3 -28 -82 -13 63 36 -52 -78 38 -86 -17 -44 8 -23
000080 43 ea cd 4c 11 25 07 06 cf 41 fa d0 be f0 3e 0a
       67 -22 -51 76 17 37 7 6 -49 65 -6 -48 -66 -16 62 10
000090 04 07 06 fa ce e4 03 ca e2 cf 02 f3 11 00 2d e9
       4 7 6 -6 -50 -28 3 -54 -30 -49 2 -13 17 0 45 -23
0000a0 40 18 ef 39 ff 2d 0e 27 f9 08 14 d2 cc f7 22 ed
       64 24 -17 57 -1 45 14 39 -7 8 20 -46 -52 -9 34 -19
0000b0 12 f9 44 0a d4 d1 2b e9 d3 d9 d6 15 f1 0f fe de
       18 -7 68 10 -44 -47 43 -23 -45 -39 -42 21 -15 15 -2 -34
0000c0 ea 30 9d 21 b5 f0 46 2f 03 fe ef ac 1b db eb cf
       -22 48 -99 33 -75 -16 70 47 3 -2 -17 -84 27 -37 -21 -49
0000d0 4d f6 f1 ef 99 e0 19 07 21 e0 e7 fe 23 da 09 f6
       77 -10 -15 -17 -103 -32 25 7 33 -32 -25 -2 35 -38 9 -10
0000e0 c5 f7 c5 31 db 12 4e f2 e3 6c 12 c0 d5 de 16 04
       -59 -9 -59 49 -37 18 78 -14 -29 108 18 -64 -43 -34 22 4
0000f0 fc 0c 1e 26 b0 d8 17 d2 06 ee ee f9 40 d2 30 f3
       -4 12 30 38 -80 -40 23 -46 6 -18 -18 -7 64 -46 48 -13

model/conv2d_10/Conv2D i1 [32, 3, 3, 32]
000000 4b 17 2d 51 d3 f4 88 36 fd ea c3 01 f7 1e e9 69
       75 23 45 81 -45 -12 -120 54 -3 -22 -61 1 -9 30 -23 105
000010 e3 f5 c6 5c d8 c3 e3 4a 36 d1 bd 3f 1d e7 16 29
       -29 -11 -58 92 -40 -61 -29 74 54 -47 -67 63 29 -25 22 41
000020 19 cc 17 1b f5 f4 b7 17 c8 00 06 e3 b0 2e dc 25
       25 -52 23 27 -11 -12 -73 23 -56 0 6 -29 -80 46 -36 37
000030 da 15 b5 28 e9 c9 f8 10 2b e4 b0 2f 0a dc 1f 2a
       -38 21 -75 40 -23 -55 -8 16 43 -28 -80 47 10 -36 31 42
000040 12 f6 10 36 45 fd e9 4a d0 45 34 16 00 25 e9 fc
       18 -10 16 54 69 -3 -23 74 -48 69 52 22 0 37 -23 -4
000050 03 01 dc 5c 35 e7 26 35 18 eb 18 25 db fa ff 20
       3 1 -36 92 53 -25 38 53 24 -21 24 37 -37 -6 -1 32
000060 3a d3 e0 ab af 28 ee cb 42 da 33 b5 03 41 0f e1
       58 -45 -32 -85 -81 40 -18 -53 66 -38 51 -75 3 65 15 -31
000070 38 06 24 e5 2d e5 ea 45 c8 09 d3 11 8d 81 f6 de
       56 6 36 -27 45 -27 -22 69 -56 9 -45 17 -115 -127 -10 -34
000080 22 d1 fe 9b d6 2d 18 04 de 03 21 90 c5 b2 c4 dc
       34 -47 -2 -101 -42 45 24 4 -34 3 33 -112 -59 -78 -60 -36
000090 42 03 0d f0 32 f6 0a 38 ac f6 da eb 96 eb fd a5
       66 3 13 -16 50 -10 10 56 -84 -10 -38 -21 -106 -21 -3 -91
0000a0 fb d5 21 14 03 32 1f 01 e0 f5 3e e0 c9 d4 b8 c8
       -5 -43 33 20 3 50 31 1 -32 -11 62 -32 -55 -44 -72 -56
0000b0 61 f6 db f6 66 e4 34 e8 da 1d 42 c4 d5 06 d9 e5
       97 -10 -37 -10 102 -28 52 -24 -38 29 66 -60 -43 6 -39 -27
0000c0 0b fa c9 be ad fe 0a b5 29 18 30 30 2a aa 07 ad
       11 -6 -55 -66 -83 -2 10 -75 41 24 48 48 42 -86 7 -83
0000d0 5c dd 42 8f 38 83 4b b9 b6 34 13 c9 a4 dc d3 ec
       92 -35 66 -113 56 -125 75 -71 -74 52 19 -55 -92 -36 -45 -20
0000e0 d0 f9 db db 1d f7 ff bb 28 12 19 2f d7 a6 04 a5
       -48 -7 -37 -37 29 -9 -1 -69 40 18 25 47 -41 -90 4 -91
0000f0 30 d7 4d c5 e9 a3 23 a0 8d 17 04 d9 e6 f6 f1 eb
       48 -41 77 -59 -23 -93 35 -96 -115 23 4 -39 -26 -10 -15 -21

model/conv2d_9/Conv2D i1 [32, 3, 3, 16]
000000 28 cd f4 a7 1c ed 12 fa eb f0 d9 f9 f1 0a 1d 0b
       40 -51 -12 -89 28 -19 18 -6 -21 -16 -39 -7 -15 10 29 11
000010 1b b1 ff 8f c0 fe cf f3 d8 e5 fc d0 f3 22 18 ec
       27 -79 -1 -113 -64 -2 -49 -13 -40 -27 -4 -48 -13 34 24 -20
000020 0d ec df cd e2 df fd 06 e1 0d fd f8 34 02 00 ec
       13 -20 -33 -51 -30 -33 -3 6 -31 13 -3 -8 52 2 0 -20
000030 19 c0 06 96 ff 18 df 03 c3 bd e8 a8 ab 12 14 02
       25 -64 6 -106 -1 24 -33 3 -61 -67 -24 -88 -85 18 20 2
000040 1e b7 dd 81 07 ea d6 e0 a9 cb e9 aa b0 16 0e fc
       30 -73 -35 -127 7 -22 -42 -32 -87 -53 -23 -86 -80 22 14 -4
000050 1b c0 f2 bc c8 e3 e4 f1 b7 da e7 d7 dd 1d fa cc
       27 -64 -14 -68 -56 -29 -28 -15 -73 -38 -25 -41 -35 29 -6 -52
000060 d7 09 19 bf e9 10 10 1c fc c3 13 c5 c1 e3 0e 1e
       -41 9 25 -65 -23 16 16 28 -4 -61 19 -59 -63 -29 14 30
000070 10 f0 ff b3 0e 15 da 07 df ce 12 a8 a0 19 0c 17
       16 -16 -1 -77 14 21 -38 7 -33 -50 18 -88 -96 25 12 23
000080 16 e2 e1 d3 06 d6 e0 0f e8 ee eb fe dd e8 ed 19
       22 -30 -31 -45 6 -42 -32 15 -24 -18 -21 -2 -35 -24 -19 25
000090 f5 f3 bd f9 0b 0c fc e7 15 0f f3 d6 10 1c ec 08
       -11 -13 -67 -7 11 12 -4 -25 21 15 -13 -42 16 28 -20 8
0000a0 ef de 85 b4 0e 3d cb e4 fe 04 d7 ca 25 24 f1 10
       -17 -34 -123 -76 14 61 -53 -28 -2 4 -41 -54 37 36 -15 16
0000b0 f2 ed b5 ce 01 18 f8 e2 0c 05 e4 f6 06 16 0d 15
       -14 -19 -75 -50 1 24 -8 -30 12 5 -28 -10 6 22 13 21
0000c0 e5 cf a0 b0 15 20 bc cb 00 f8 d2 bb 1b 02 ec 04
       -27 -49 -96 -80 21 32 -68 -53 0 -8 -46 -69 27 2 -20 4
0000d0 f6 d0 81 8e 15 2d ac ad e7 01 c3 a9 08 11 e2 22
       -10 -48 -127 -114 21 45 -84 -83 -25 1 -61 -87 8 17 -30 34
0000e0 eb de 81 b2 fa 21 b7 e8 f7 2a d8 d7 10 14 f1 0b
       -21 -34 -127 -78 -6 33 -73 -24 -9 42 -40 -41 16 20 -15 11
0000f0 0a f2 f1 e4 f3 11 cb e7 06 f8 d2 e5 1f f4 e2 09
       10 -14 -15 -28 -13 17 -53 -25 6 -8 -46 -27 31 -12 -30 9

model/conv2d_11/Conv2D i1 [32, 1, 1, 16]
000000 f0 ea e9 e8 e2 17 1f 09 00 81 e6 c5 85 24 e7 24
       -16 -22 -23 -24 -30 23 31 9 0 -127 -26 -59 -123 36 -25 36
000010 c6 27 1a f0 a7 e7 b0 b1 02 f9 22 81 09 03 5a 00
       -58 39 26 -16 -89 -25 -80 -79 2 -7 34 -127 9 3 90 0
000020 15 02 91 ce 1d 37 ad 81 03 f6 d0 02 1f 0e fc ff
       21 2 -111 -50 29 55 -83 -127 3 -10 -48 2 31 14 -4 -1
000030 d1 df 01 a9 91 81 cb ef 96 ef e7 0f 00 88 21 9b
       -47 -33 1 -87 -111 -127 -53 -17 -106 -17 -25 15 0 -120 33 -101
000040 59 e8 32 fb 28 d4 e2 ce f0 cd b3 66 62 81 f6 10
       89 -24 50 -5 40 -44 -30 -50 -16 -51 -77 102 98 -127 -10 16
000050 00 f8 04 a2 de db 77 d7 92 15 8e 08 da 9b e7 81
       0 -8 4 -94 -34 -37 119 -41 -110 21 -114 8 -38 -101 -25 -127
000060 e8 f1 03 f7 ca bf f9 20 1e ce f3 df 81 e6 a3 0d
       -24 -15 3 -9 -54 -65 -7 32 30 -50 -13 -33 -127 -26 -93 13
000070 0e 99 0a 2e 21 ec 08 1c d7 ef 0e 24 e5 81 ab 0e
       14 -103 10 46 33 -20 8 28 -41 -17 14 36 -27 -127 -85 14
000080 21 ef f7 e7 12 19 0e d4 b5 a0 15 81 f5 2e 49 04
       33 -17 -9 -25 18 25 14 -44 -75 -96 21 -127 -11 46 73 4
000090 0c fd da df 81 ce bb af e6 2d 0a e4 cd 0f 22 ce
       12 -3 -38 -33 -127 -50 -69 -81 -26 45 10 -28 -51 15 34 -50
0000a0 ec d2 81 f2 16 f2 ff ed f1 f0 e3 d0 98 29 c8 0e
       -20 -46 -127 -14 22 -14 -1 -19 -15 -16 -29 -48 -104 41 -56 14
0000b0 81 32 14 da f6 db c9 97 18 7d db 89 3a 16 44 fe
       -127 50 20 -38 -10 -37 -55 -105 24 125 -37 -119 58 22 68 -2
0000c0 2f d6 32 34 56 05 71 d0 00 99 07 d2 25 06 7f 02
       47 -42 50 52 86 5 113 -48 0 -103 7 -46 37 6 127 2
0000d0 25 f8 f6 06 44 1e 42 0e 04 81 b9 03 df db e8 0b
       37 -8 -10 6 68 30 66 14 4 -127 -71 3 -33 -37 -24 11
0000e0 1c 81 f8 02 e8 ca d0 0a fb bb e4 37 e8 d1 a1 04
       28 -127 -8 2 -24 -54 -48 10 -5 -69 -28 55 -24 -47 -95 4
0000f0 20 fe 17 d1 f1 05 e6 81 d7 14 ec 03 1c c6 01 94
       32 -2 23 -47 -15 5 -26 -127 -41 20 -20 3 28 -58 1 -108

model/conv2d_8/Conv2D i1 [16, 3, 3, 16]
000000 fa e8 3e 1d 42 0e 24 cf f4 f7 cb 05 ee 0d 25 e0
       -6 -24 62 29 66 14 36 -49 -12 -9 -53 5 -18 13 37 -32
000010 c8 f7 1f 0a 2e 38 2a e1 23 26 f4 fc 0e 2c 04 fe
       -56 -9 31 10 46 56 42 -31 35 38 -12 -4 14 44 4 -2
000020 d4 1c f5 f7 35 45 f6 fb 5a 30 c1 f5 24 0d 0b 0e
       -44 28 -11 -9 53 69 -10 -5 90 48 -63 -11 36 13 11 14
000030 33 d1 20 2e 04 41 39 07 09 da 12 23 07 35 34 db
       51 -47 32 46 4 65 57 7 9 -38 18 35 7 53 52 -37
000040 e2 c1 f7 2d 7f 2b 0d ee 25 da 0d ea f2 4c f3 e2
       -30 -63 -9 45 127 43 13 -18 37 -38 13 -22 -14 76 -13 -30
000050 ef f4 07 2a 15 0a 04 02 26 06 dc 02 25 0a ef 05
       -17 -12 7 42 21 10 4 2 38 6 -36 2 37 10 -17 5
000060 4b de 47 04 3e d6 16 12 f4 fa fb 1d ba 00 15 ed
       75 -34 71 4 62 -42 22 18 -12 -6 -5 29 -70 0 21 -19
000070 2f dd 19 35 75 3e 04 f9 06 e8 0a fe e7 3d f5 e1
       47 -35 25 53 117 62 4 -7 6 -24 10 -2 -25 61 -11 -31
000080 1c eb e8 d6 50 0b 1e 10 2e f4 ef f8 28 65 f0 fe
       28 -21 -24 -42 80 11 30 16 46 -12 -17 -8 40 101 -16 -2
000090 e6 00 fc df f8 1d d8 d5 21 02 25 ff 0d 02 ff 21
       -26 0 -4 -33 -8 29 -40 -43 33 2 37 -1 13 2 -1 33
0000a0 bb 11 1b bb fd f0 d1 17 2f 2d 01 d2 09 05 f1 1a
       -69 17 27 -69 -3 -16 -47 23 47 45 1 -46 9 5 -15 26
0000b0 c5 d2 e6 c6 11 0e b1 0b 04 04 f5 01 2b 1c e9 2b
       -59 -46 -26 -58 17 14 -79 11 4 4 -11 1 43 28 -23 43
0000c0 e4 2a 1e e0 df 38 da dc 7f e3 f2 d7 ef 04 f0 3b
       -28 42 30 -32 -33 56 -38 -36 127 -29 -14 -41 -17 4 -16 59
0000d0 cc 15 e8 ea c7 ff ed e5 21 59 08 c2 f9 e3 d7 e5
       -52 21 -24 -22 -57 -1 -19 -27 33 89 8 -62 -7 -29 -41 -27
0000e0 e1 17 17 e4 fc 16 d7 11 44 f7 ed e7 24 f9 e1 d9
       -31 23 23 -28 -4 22 -41 17 68 -9 -19 -25 36 -7 -31 -39
0000f0 cf 2a f1 ea d4 47 e5 f9 02 0c ec eb db f7 fc 0e
       -49 42 -15 -22 -44 71 -27 -7 2 12 -20 -21 -37 -9 -4 14

model/conv2d_7/Conv2D i1 [16, 3, 3, 16]
000000 ef 17 04 0f ff f9 e3 e5 b2 d5 29 e2 e7 0f 12 4b
       -17 23 4 15 -1 -7 -29 -27 -78 -43 41 -30 -25 15 18 75
000010 ee f0 0d 00 d7 02 ca fe 97 ee 30 4c ff fa 0a 17
       -18 -16 13 0 -41 2 -54 -2 -105 -18 48 76 -1 -6 10 23
000020 d7 ee d9 0c e2 0f ce 02 ac 20 0d d6 e7 1d 23 0d
       -41 -18 -39 12 -30 15 -50 2 -84 32 13 -42 -25 29 35 13
000030 08 f4 28 27 2a dd 00 02 8b 01 2f 0c 0c 11 17 2a
       8 -12 40 39 42 -35 0 2 -117 1 47 12 12 17 23 42
000040 4c e6 00 fe f1 e4 e6 06 81 19 c0 03 f4 df 07 ee
       76 -26 0 -2 -15 -28 -26 6 -127 25 -64 3 -12 -33 7 -18
000050 06 df fd 07 d8 e6 e6 ff 85 39 d0 1f 01 0b 08 f8
       6 -33 -3 7 -40 -26 -26 -1 -123 57 -48 31 1 11 8 -8
000060 f2 0e 08 ec 33 fc 15 fe 8e 0b 2c fb 05 2c 11 0d
       -14 14 8 -20 51 -4 21 -2 -114 11 44 -5 5 44 17 13
000070 00 e7 0f f4 06 dd 0d ff 8e 16 10 f2 02 00 f6 d6
       0 -25 15 -12 6 -35 13 -1 -114 22 16 -14 2 0 -10 -42
000080 ec d5 e9 10 e2 da 06 ef a2 11 1e 0b d4 0e 01 f9
       -20 -43 -23 16 -30 -38 6 -17 -94 17 30 11 -44 14 1 -7
000090 c3 14 16 27 e4 c1 fd 37 3c fb 00 e7 24 0b d1 a4
       -61 20 22 39 -28 -63 -3 55 60 -5 0 -25 36 11 -47 -92
0000a0 ea 1b f9 12 24 34 fa 36 28 44 ed c9 0a 6a 01 33
       -22 27 -7 18 36 52 -6 54 40 68 -19 -55 10 106 1 51
0000b0 cc f1 f5 dc 2b 06 02 55 22 f3 f5 9c dc 55 0a 55
       -52 -15 -11 -36 43 6 2 85 34 -13 -11 -100 -36 85 10 85
0000c0 cb ce fc fb f2 c3 fb 00 01 04 19 04 fd 02 0e 9d
       -53 -50 -4 -5 -14 -61 -5 0 1 4 25 4 -3 2 14 -99
0000d0 e8 19 f7 ea 2e 27 e2 1d 20 35 20 d7 09 48 e6 f5
       -24 25 -9 -22 46 39 -30 29 32 53 32 -41 9 72 -26 -11
0000e0 d3 1e 23 ca 3b 15 02 01 14 13 22 ad f9 4d e6 30
       -45 30 35 -54 59 21 2 1 20 19 34 -83 -7 77 -26 48
0000f0 c2 1d fc db d7 b6 dd 0c 17 30 13 12 1e 06 2e 81
       -62 29 -4 -37 -41 -74 -35 12 23 48 19 18 30 6 46 -127

model/conv2d_6/Conv2D i1 [16, 3, 3, 16]
000000 37 f7 03 fe e9 a5 26 e5 35 38 03 0d 03 20 dd c4
       55 -9 3 -2 -23 -91 38 -27 53 56 3 13 3 32 -35 -60
000010 0d e2 fd 1a 98 c5 63 08 34 f8 18 ef 51 04 1c d4
       13 -30 -3 26 -104 -59 99 8 52 -8 24 -17 81 4 28 -44
000020 fb ef f6 ff ab b0 45 b7 02 f2 cf 18 f2 f3 dc 13
       -5 -17 -10 -1 -85 -80 69 -73 2 -14 -49 24 -14 -13 -36 19
000030 b4 0a 0c e2 cd a6 f5 fa 38 59 1f f0 24 ed 2a 19
       -76 10 12 -30 -51 -90 -11 -6 56 89 31 -16 36 -19 42 25
000040 f1 24 02 ac da b8 2b f9 2d 33 42 e8 03 1a 31 d7
       -15 36 2 -84 -38 -72 43 -7 45 51 66 -24 3 26 49 -41
000050 e7 fd 15 9d ca 81 fc ba 18 0c ec 00 10 e0 0d f2
       -25 -3 21 -99 -54 -127 -4 -70 24 12 -20 0 16 -32 13 -14
000060 09 e8 05 11 07 d1 d1 fc 10 ee 1e 33 33 06 e7 34
       9 -24 5 17 7 -47 -47 -4 16 -18 30 51 51 6 -25 52
000070 e6 03 10 d3 e7 e7 fc e8 2f 08 29 05 45 0b f9 2e
       -26 3 16 -45 -25 -25 -4 -24 47 8 41 5 69 11 -7 46
000080 d3 09 e8 b2 b9 98 fd d7 f6 e8 d1 34 b1 fe de d4
       -45 9 -24 -78 -71 -104 -3 -41 -10 -24 -47 52 -79 -2 -34 -44
000090 c8 01 3a 0a c5 6b 12 12 30 3d 19 32 fc e3 b0 28
       -56 1 58 10 -59 107 18 18 48 61 25 50 -4 -29 -80 40
0000a0 08 2c 2a 13 ae 08 c5 32 df 49 21 13 e4 e0 ac f8
       8 44 42 19 -82 8 -59 50 -33 73 33 19 -28 -32 -84 -8
0000b0 f4 44 ee 3d bc cd c6 fb 26 44 fe fb fd fe 0c 1f
       -12 68 -18 61 -68 -51 -58 -5 38 68 -2 -5 -3 -2 12 31
0000c0 d8 fd 02 12 aa 2f f3 0b 28 d8 50 06 df d0 9f fc
       -40 -3 2 18 -86 47 -13 11 40 -40 80 6 -33 -48 -97 -4
0000d0 ed 36 ff 2a b4 e7 b6 e9 d7 fb a8 e0 12 e3 9e fe
       -19 54 -1 42 -76 -25 -74 -23 -41 -5 -88 -32 18 -29 -98 -2
0000e0 0d 39 17 03 d0 2c c4 db 31 24 5b c7 21 19 ef 2c
       13 57 23 3 -48 44 -60 -37 49 36 91 -57 33 25 -17 44
0000f0 e7 1c d6 f1 a6 52 d8 14 18 d5 4f 0d f5 a8 c1 f5
       -25 28 -42 -15 -90 82 -40 20 24 -43 79 13 -11 -88 -63 -11

model/conv2d_5/Conv2D i1 [16, 3, 3, 16]
000000 eb f8 c1 0c e5 07 ff 3d 04 fd 02 0c d0 16 1c 08
       -21 -8 -63 12 -27 7 -1 61 4 -3 2 12 -48 22 28 8
000010 ed e4 e2 1d e8 cd 28 27 0a 08 f1 f8 db 12 02 d9
       -19 -28 -30 29 -24 -51 40 39 10 8 -15 -8 -37 18 2 -39
000020 19 05 cc f6 25 fb 26 ec 06 41 1f 03 0b 2f f0 0e
       25 5 -52 -10 37 -5 38 -20 6 65 31 3 11 47 -16 14
000030 1c 11 d4 fe 0b 1e c9 3f 14 ff 02 df c3 1e 02 12
       28 17 -44 -2 11 30 -55 63 20 -1 2 -33 -61 30 2 18
000040 fd e0 bf 18 16 2a db 7f 23 00 fb f1 b7 e8 29 f8
       -3 -32 -65 24 22 42 -37 127 35 0 -5 -15 -73 -24 41 -8
000050 01 f7 ba fa f1 02 28 3b 25 2e ee ad c0 16 f4 e1
       1 -9 -70 -6 -15 2 40 59 37 46 -18 -83 -64 22 -12 -31
000060 13 2d 16 ec 1a 00 cc c5 10 03 21 1e f7 2c cf f5
       19 45 22 -20 26 0 -52 -59 16 3 33 30 -9 44 -49 -11
000070 20 ef fe 16 12 fa d6 09 0a de 13 10 b5 de 1c 29
       32 -17 -2 22 18 -6 -42 9 10 -34 19 16 -75 -34 28 41
000080 06 ff dc 06 fc fa bd 06 1c d3 f7 fa a9 e6 11 d9
       6 -1 -36 6 -4 -6 -67 6 28 -45 -9 -6 -87 -26 17 -39
000090 2e c2 41 1a 1b ca 1d 31 3e 31 e8 c0 0c f5 08 d9
       46 -62 65 26 27 -54 29 49 62 49 -24 -64 12 -11 8 -39
0000a0 23 d0 54 d5 de b3 d8 05 df 09 16 05 be d6 99 11
       35 -48 84 -43 -34 -77 -40 5 -33 9 22 5 -66 -42 -103 17
0000b0 5a db 0c a0 f3 41 f8 46 2c 12 29 29 cc 00 81 fb
       90 -37 12 -96 -13 65 -8 70 44 18 41 41 -52 0 -127 -5
0000c0 07 ff e3 1b f1 14 49 21 0f d7 f7 b5 19 d1 16 fb
       7 -1 -29 27 -15 20 73 33 15 -41 -9 -75 25 -47 22 -5
0000d0 ff 03 dd e0 e5 b7 06 db f4 d5 30 cc 12 ce e8 03
       -1 3 -35 -32 -27 -73 6 -37 -12 -43 48 -52 18 -50 -24 3
0000e0 25 55 28 97 d1 f3 0e 05 ea 0c 37 0f eb 00 e7 04
       37 85 40 -105 -47 -13 14 5 -22 12 55 15 -21 0 -25 4
0000f0 c2 77 f5 ff dd 04 2e 13 13 fe 19 ba 1e d1 4b 1b
       -62 119 -11 -1 -35 4 46 19 19 -2 25 -70 30 -47 75 27

model/conv2d_4/Conv2D i1 [16, 3, 3, 16]
000000 3b ab 0c 01 a5 40 bd 07 0e 15 3c ef 13 21 dd dd
       59 -85 12 1 -91 64 -67 7 14 21 60 -17 19 33 -35 -35
000010 0c e5 db 35 c1 2b c4 03 5e 0c 08 f4 2a 57 e4 e7
       12 -27 -37 53 -63 43 -60 3 94 12 8 -12 42 87 -28 -25
000020 35 f0 e6 1f da 1d df e4 2c f9 cb e9 2c fb d7 58
       53 -16 -26 31 -38 29 -33 -28 44 -7 -53 -23 44 -5 -41 88
000030 36 f9 1f 03 93 2f 92 39 e9 1c 24 f7 04 38 d1 24
       54 -7 31 3 -109 47 -110 57 -23 28 36 -9 4 56 -47 36
000040 49 0b 07 3b 81 56 b3 19 e5 1c 16 07 21 3b ee 00
       73 11 7 59 -127 86 -77 25 -27 28 22 7 33 59 -18 0
000050 2c ee ad 3e c7 41 cc e8 2a f2 00 13 42 5c d9 1a
       44 -18 -83 62 -57 65 -52 -24 42 -14 0 19 66 92 -39 26
000060 ed fc fc ee a6 f8 bf 06 15 17 0c 11 b0 57 ef fe
       -19 -4 -4 -18 -90 -8 -65 6 21 23 12 17 -80 87 -17 -2
000070 02 eb eb 18 ec 51 eb 13 b9 1f 3a e2 d4 58 e9 1d
       2 -21 -21 24 -20 81 -21 19 -71 31 58 -30 -44 88 -23 29
000080 03 b2 e1 47 da 23 cf f1 f3 11 23 e0 d6 48 0c 1a
       3 -78 -31 71 -38 35 -49 -15 -13 17 35 -32 -42 72 12 26
000090 ee cc 17 bd ea 23 3b 2e 3d 01 c0 49 35 da 20 1a
       -18 -52 23 -67 -22 35 59 46 61 1 -64 73 53 -38 32 26
0000a0 cd ba e8 ad 09 32 46 35 0a d5 9f 29 35 01 1e 08
       -51 -70 -24 -83 9 50 70 53 10 -43 -97 41 53 1 30 8
0000b0 e8 35 d2 b0 ef 79 21 2c 17 02 cb d9 1c 0e 14 02
       -24 53 -46 -80 -17 121 33 44 23 2 -53 -39 28 14 20 2
0000c0 e6 d2 e3 a6 14 14 39 7d f5 f5 16 32 f7 c7 01 52
       -26 -46 -29 -90 20 20 57 125 -11 -11 22 50 -9 -57 1 82
0000d0 d0 91 ec ab f0 f0 54 49 21 0d e5 fe fd f9 fa fb
       -48 -111 -20 -85 -16 -16 84 73 33 13 -27 -2 -3 -7 -6 -5
0000e0 e8 ec de cf eb 31 04 74 13 0f c1 da 29 27 06 23
       -24 -20 -34 -49 -21 49 4 116 19 15 -63 -38 41 39 6 35
0000f0 c6 ed 02 9b 1b e8 5f 7f 12 ca d1 3e de c7 eb 54
       -58 -19 2 -101 27 -24 95 127 18 -54 -47 62 -34 -57 -21 84

model/conv2d_3/Conv2D i1 [16, 3, 3, 16]
000000 15 e1 d0 f9 e5 13 0c 0d 3a 0a 2f e9 21 33 f2 1e
       21 -31 -48 -7 -27 19 12 13 58 10 47 -23 33 51 -14 30
000010 1b c4 e2 18 07 ea 14 fd 45 e0 03 ff 0c 19 0f 15
       27 -60 -30 24 7 -22 20 -3 69 -32 3 -1 12 25 15 21
000020 e7 f4 fa 04 0c 35 3a 47 2b 22 1f 09 08 14 e5 f8
       -25 -12 -6 4 12 53 58 71 43 34 31 9 8 20 -27 -8
000030 bf f7 05 e3 03 8a c8 df 93 ef 37 36 e1 06 9e d4
       -65 -9 5 -29 3 -118 -56 -33 -109 -17 55 54 -31 6 -98 -44
000040 b7 d0 26 de 17 81 f7 30 a0 e8 2c e1 c8 e4 b0 cc
       -73 -48 38 -34 23 -127 -9 48 -96 -24 44 -31 -56 -28 -80 -52
000050 d3 d6 21 ef f8 c3 f6 f0 ae 41 2d fe eb 17 a0 ca
       -45 -42 33 -17 -8 -61 -10 -16 -82 65 45 -2 -21 23 -96 -54
000060 c0 fa db ac ff e3 1c 06 a0 08 41 0f c4 14 ae dc
       -64 -6 -37 -84 -1 -29 28 6 -96 8 65 15 -60 20 -82 -36
000070 b8 ff 0a ba 09 ab 25 1a c3 fe f4 0c d2 e8 c6 9c
       -72 -1 10 -70 9 -85 37 26 -61 -2 -12 12 -46 -24 -58 -100
000080 b6 16 10 dc fb e5 10 22 be fe f1 00 cd 0d b2 9a
       -74 22 16 -36 -5 -27 16 34 -66 -2 -15 0 -51 13 -78 -102
000090 0b ff f8 f0 63 df fd d1 ce dd 0d df ea 0b f2 e2
       11 -1 -8 -16 99 -33 -3 -47 -50 -35 13 -33 -22 11 -14 -30
0000a0 d8 22 18 e8 79 e1 c8 2d de bb 1c cc c7 0d c7 cc
       -40 34 24 -24 121 -31 -56 45 -34 -69 28 -52 -57 13 -57 -52
0000b0 d3 30 01 fb 7d 01 c6 ec c6 d3 f6 09 09 08 e9 e3
       -45 48 1 -5 125 1 -58 -20 -58 -45 -10 9 9 8 -23 -29
0000c0 ee 39 14 03 4b 17 08 e7 01 cb e5 50 02 1b f4 eb
       -18 57 20 3 75 23 8 -25 1 -53 -27 80 2 27 -12 -21
0000d0 c1 51 29 c9 21 02 09 51 04 ed dd 37 2e 31 d5 fa
       -63 81 41 -55 33 2 9 81 4 -19 -35 55 46 49 -43 -6
0000e0 cb 0d 2b da 27 e3 12 23 0d f8 d1 69 48 08 02 2f
       -53 13 43 -38 39 -29 18 35 13 -8 -47 105 72 8 2 47
0000f0 0c 1b d2 18 b8 00 0f 12 df 07 cd 7f 17 49 06 06
       12 27 -46 24 -72 0 15 18 -33 7 -51 127 23 73 6 6
