models/resnet20/resnet20-model-optimized.tflite (tflite, 311576 bytes, 22 tensors)

model/dense/MatMul i1 [10, 64] scale=0.007270751 zero_point=0
00000000: d712 dd33 d3fd 15b9 d819 f800 8df8 dffe
00000010: 18ec 9c00 24fa 33b2 12d7 14d5 06ea f725
00000020: e1e4 d01e 2218 0314 2218 15ff de06 dd10
00000030: e0df 0d16 2614 2532 2507 3512 3bbc bbfd
00000040: dac6 45fd 03e8 dbca 08fe 16b7 1dd0 fe25
00000050: 05d8 d800 d3fb f7dc 411a ef12 dfd7 0d0b
00000060: 26f7 1442 2d89 a3cc d2d3 0c15 1c34 1c09
00000070: 3a35 351a 25df 2907 23ae e3f8 f206 d481
00000080: d208 df14 1bca 3e1c 05e0 ca15 db18 27f0
00000090: fa10 f9ef 0610 e631 16a3 f3e0 0714 00b1
000000a0: ed1a a23b ed25 cbbd f401 0827 420e 2503
000000b0: d3c8 f7f5 dfde 2e23 0935 0d11 0bcc 1010
000000c0: 0dfa f7f2 2312 d5f7 fe02 d612 2c1c ec17
000000d0: b70f 10f3 0e32 141b 00ec 2bf5 21fe 09c1
000000e0: c716 ffc4 fefc fc08 e922 e304 0df5 f5fb
000000f0: 19fe 06db f413 1510 ab22 07df 2a11 f2ff
-0.2981008 0.13087352 -0.25447628 0.3708083 -0.32718378 -0.021812253 0.15268578 -0.5162233
-0.29083005 0.18176877 -0.05816601 0.0 -0.8361364 -0.05816601 -0.23993479 -0.014541502
0.17449802 -0.14541502 -0.7270751 0.0 0.26174703 -0.043624505 0.3708083 -0.5671186
0.13087352 -0.2981008 0.14541502 -0.3126423 0.043624505 -0.15995653 -0.06543676 0.2690178
-0.22539328 -0.20358104 -0.34899604 0.21812253 0.24720554 0.17449802 0.021812253 0.14541502
0.24720554 0.17449802 0.15268578 -0.007270751 -0.24720554 0.043624505 -0.25447628 0.11633202
-0.23266403 -0.23993479 0.094519764 0.15995653 0.27628854 0.14541502 0.2690178 0.36353755
0.2690178 0.05089526 0.3853498 0.13087352 0.4289743 -0.49441108 -0.5016818 -0.021812253
-0.27628854 -0.42170355 0.5016818 -0.021812253 0.021812253 -0.17449802 -0.2690178 -0.39262056
0.05816601 -0.014541502 0.15995653 -0.5307648 0.21085177 -0.34899604 -0.014541502 0.2690178
0.036353756 -0.29083005 -0.29083005 0.0 -0.32718378 -0.036353756 -0.06543676 -0.26174703
0.47259882 0.18903953 -0.12360277 0.13087352 -0.23993479 -0.2981008 0.094519764 0.079978265
0.27628854 -0.06543676 0.14541502 0.47986957 0.32718378 -0.86521935 -0.6761798 -0.37807906
-0.33445454 -0.32718378 0.08724901 0.15268578 0.20358104 0.37807906 0.20358104 0.06543676
0.42170355 0.3853498 0.3853498 0.18903953 0.2690178 -0.23993479 0.2981008 0.05089526
0.25447628 -0.5962016 -0.21085177 -0.05816601 -0.10179052 0.043624505 -0.31991306 -0.9233854
-0.33445454 0.05816601 -0.23993479 0.14541502 0.19631028 -0.39262056 0.45078656 0.20358104
0.036353756 -0.23266403 -0.39262056 0.15268578 -0.2690178 0.17449802 0.2835593 -0.11633202
-0.043624505 0.11633202 -0.05089526 -0.12360277 0.043624505 0.11633202 -0.18903953 0.3562668
0.15995653 -0.6761798 -0.094519764 -0.23266403 0.05089526 0.14541502 0.0 -0.57438934
-0.13814427 0.18903953 -0.6834506 0.4289743 -0.13814427 0.2690178 -0.3853498 -0.48714033
-0.08724901 0.007270751 0.05816601 0.2835593 0.47986957 0.10179052 0.2690178 0.021812253
-0.32718378 -0.40716207 -0.06543676 -0.079978265 -0.23993479 -0.24720554 0.33445454 0.25447628
0.06543676 0.3853498 0.094519764 0.12360277 0.079978265 -0.37807906 0.11633202 0.11633202
0.094519764 -0.043624505 -0.06543676 -0.10179052 0.25447628 0.13087352 -0.3126423 -0.06543676
-0.014541502 0.014541502 -0.30537155 0.13087352 0.31991306 0.20358104 -0.14541502 0.16722727
-0.5307648 0.10906126 0.11633202 -0.094519764 0.10179052 0.36353755 0.14541502 0.19631028
0.0 -0.14541502 0.3126423 -0.079978265 0.23993479 -0.014541502 0.06543676 -0.4580573
-0.41443282 0.15995653 -0.007270751 -0.43624505 -0.014541502 -0.029083004 -0.029083004 0.05816601
-0.16722727 0.24720554 -0.21085177 0.029083004 0.094519764 -0.079978265 -0.079978265 -0.036353756
0.18176877 -0.014541502 0.043624505 -0.2690178 -0.08724901 0.13814427 0.15268578 0.11633202
-0.61801386 0.24720554 0.05089526 -0.23993479 0.30537155 0.12360277 -0.10179052 -0.007270751

model/conv2d_20/Conv2D i1 [64, 3, 3, 64]
00000000: 370b 14fb d841 eec0 cfea cc94 c939 2026
00000010: 00fe 00df 2b20 0f09 d422 7f26 e7bb d9fd
00000020: f433 e7c4 dee9 dbf2 dc0e d6b6 f8bb 22f2
00000030: 23ef f065 2d0a f3d2 fc24 2b57 f69f 34f2
00000040: 30df 06d3 e417 cbc6 e6ef 98b1 bf53 0a15
00000050: e607 efe1 f10d fcd5 fdf5 4a1d 15c0 fde5
00000060: f92d d0c6 fee1 d6f3 0011 d8d3 14cc f5fe
00000070: 0aee ad6a 02fd f0b1 0d1b 2c62 fd96 0be6
00000080: 18d6 04d6 f718 e2c2 e1f8 abd8 d154 150f
00000090: 0a0c dcc3 0f34 0ecf fbee 4546 28cd fbf2
000000a0: 0a39 bbc7 0cf6 e6ef 101c dbe0 0ff8 0821
000000b0: 0ef0 ad5e 1016 e190 0d27 276f 21a4 0604
000000c0: 3c13 2310 e5fe f70e eae4 aba2 ca3a 0117
000000d0: 15f9 2dcc 0a1d 0a0e ff14 470b f8bf fe08
000000e0: c310 dfc1 fefa e2d7 0800 b7e1 08ce 1ebb
000000f0: 18e3 1b60 16f2 e6df 041e 0043 fbaa 27ec
55 11 20 -5 -40 65 -18 -64
-49 -22 -52 -108 -55 57 32 38
0 -2 0 -33 43 32 15 9
-44 34 127 38 -25 -69 -39 -3
-12 51 -25 -60 -34 -23 -37 -14
-36 14 -42 -74 -8 -69 34 -14
35 -17 -16 101 45 10 -13 -46
-4 36 43 87 -10 -97 52 -14
48 -33 6 -45 -28 23 -53 -58
-26 -17 -104 -79 -65 83 10 21
-26 7 -17 -31 -15 13 -4 -43
-3 -11 74 29 21 -64 -3 -27
-7 45 -48 -58 -2 -31 -42 -13
0 17 -40 -45 20 -52 -11 -2
10 -18 -83 106 2 -3 -16 -79
13 27 44 98 -3 -106 11 -26
24 -42 4 -42 -9 24 -30 -62
-31 -8 -85 -40 -47 84 21 15
10 12 -36 -61 15 52 14 -49
-5 -18 69 70 40 -51 -5 -14
10 57 -69 -57 12 -10 -26 -17
16 28 -37 -32 15 -8 8 33
14 -16 -83 94 16 22 -31 -112
13 39 39 111 33 -92 6 4
60 19 35 16 -27 -2 -9 14
-22 -28 -85 -94 -54 58 1 23
21 -7 45 -52 10 29 10 14
-1 20 71 11 -8 -65 -2 8
-61 16 -33 -63 -2 -6 -30 -41
8 0 -73 -31 8 -50 30 -69
24 -29 27 96 22 -14 -26 -33
4 30 0 67 -5 -86 39 -20

model/conv2d_19/Conv2D i1 [64, 3, 3, 64]
00000000: fd1b e22b bd0e 4af9 f5ba f61a b709 c64b
00000010: c710 d4d8 f11b eeef 1007 3103 ebea f2e2
00000020: f006 0429 f808 f61e 081a 0904 06ec ffd7
00000030: 1c26 cf14 7aec 00ce 1c1f efeb 1102 1114
00000040: 0a04 e9e8 e307 1610 1fe4 0748 e326 b93c
00000050: d911 0bcb f1cd f6e2 1d0d 1f17 06d0 02e0
00000060: e903 db14 e40b 1617 2004 e4d7 2ff2 0ef2
00000070: 271a f716 3e16 01da eb0c ceef db0d 0e0e
00000080: de03 d7d7 ee14 fd3b ecef 1025 0b22 d34b
00000090: e111 eeb0 43df 30eb 0b07 4113 eedd 00cd
000000a0: d017 d601 ce20 2506 0a36 e5be 3202 0630
000000b0: 3103 fc11 1006 03dd f21f 9dc4 c4f4 ff0f
000000c0: ee12 d33e f2d5 06f0 fd03 f7f2 e1d5 de26
000000d0: f4f4 fd04 e0fb d5c3 21db 1acd ed01 c21e
000000e0: f7e7 0816 1e03 041e bbea 2607 eccc 2afb
000000f0: e002 d211 4519 1af1 1520 eb21 10f1 21fa
-3 27 -30 43 -67 14 74 -7
-11 -70 -10 26 -73 9 -58 75
-57 16 -44 -40 -15 27 -18 -17
16 7 49 3 -21 -22 -14 -30
-16 6 4 41 -8 8 -10 30
8 26 9 4 6 -20 -1 -41
28 38 -49 20 122 -20 0 -50
28 31 -17 -21 17 2 17 20
10 4 -23 -24 -29 7 22 16
31 -28 7 72 -29 38 -71 60
-39 17 11 -53 -15 -51 -10 -30
29 13 31 23 6 -48 2 -32
-23 3 -37 20 -28 11 22 23
32 4 -28 -41 47 -14 14 -14
39 26 -9 22 62 22 1 -38
-21 12 -50 -17 -37 13 14 14
-34 3 -41 -41 -18 20 -3 59
-20 -17 16 37 11 34 -45 75
-31 17 -18 -80 67 -33 48 -21
11 7 65 19 -18 -35 0 -51
-48 23 -42 1 -50 32 37 6
10 54 -27 -66 50 2 6 48
49 3 -4 17 16 6 3 -35
-14 31 -99 -60 -60 -12 -1 15
-18 18 -45 62 -14 -43 6 -16
-3 3 -9 -14 -31 -43 -34 38
-12 -12 -3 4 -32 -5 -43 -61
33 -37 26 -51 -19 1 -62 30
-9 -25 8 22 30 3 4 30
-69 -22 38 7 -20 -52 42 -5
-32 2 -46 17 69 25 26 -15
21 32 -21 33 16 -15 33 -6

model/conv2d_18/Conv2D i1 [64, 3, 3, 64]
00000000: 07cd d52d f9da f4c2 0ce8 d4a0 0c39 0208
00000010: ca0a e807 e41c ecdb d824 ff00 2be0 04e6
00000020: 4fd9 f3e0 f50b 2dd4 f61a 29f4 302b 0532
00000030: e6ec 0d02 6b08 2531 d3b8 e721 e5fa 11ef
00000040: f4e3 190c f6ec 2e0e c6f4 b1e6 0919 1503
00000050: d0b4 0306 ebf4 f1ea d136 c3fc 1df8 ffd5
00000060: 16ed 02ff e5f6 0ff2 023d f4e7 0b3b d93b
00000070: f6e5 00ec 1a13 f70c e1db d218 d7ee ee0a
00000080: dc1e 4a36 12fd 2e21 effe b941 0af4 34f9
00000090: e5b3 161f d0fa 0510 1a38 a610 7fe9 07ff
000000a0: 3bfd daf6 da0e faf6 1337 2904 041b cb4c
000000b0: fcfd 08e4 20fa dc3c f806 f6e9 d22b 06e1
000000c0: e6dc dd21 29e6 eeb9 fece d8bf cb46 0015
000000d0: 01f8 1c37 2e1a ead4 c618 e9fd 0104 ffe8
000000e0: 401a 03e3 d20f 24f1 f005 00a1 0c08 eb24
000000f0: e302 1002 3016 171f d89d 1a12 211c 1507
7 -51 -43 45 -7 -38 -12 -62
12 -24 -44 -96 12 57 2 8
-54 10 -24 7 -28 28 -20 -37
-40 36 -1 0 43 -32 4 -26
79 -39 -13 -32 -11 11 45 -44
-10 26 41 -12 48 43 5 50
-26 -20 13 2 107 8 37 49
-45 -72 -25 33 -27 -6 17 -17
-12 -29 25 12 -10 -20 46 14
-58 -12 -79 -26 9 25 21 3
-48 -76 3 6 -21 -12 -15 -22
-47 54 -61 -4 29 -8 -1 -43
22 -19 2 -1 -27 -10 15 -14
2 61 -12 -25 11 59 -39 59
-10 -27 0 -20 26 19 -9 12
-31 -37 -46 24 -41 -18 -18 10
-36 30 74 54 18 -3 46 33
-17 -2 -71 65 10 -12 52 -7
-27 -77 22 31 -48 -6 5 16
26 56 -90 16 127 -23 7 -1
59 -3 -38 -10 -38 14 -6 -10
19 55 41 4 4 27 -53 76
-4 -3 8 -28 32 -6 -36 60
-8 6 -10 -23 -46 43 6 -31
-26 -36 -35 33 41 -26 -18 -71
-2 -50 -40 -65 -53 70 0 21
1 -8 28 55 46 26 -22 -44
-58 24 -23 -3 1 4 -1 -24
64 26 3 -29 -46 15 36 -15
-16 5 0 -95 12 8 -21 36
-29 2 16 2 48 22 23 31
-40 -99 26 18 33 28 21 7

model/conv2d_17/Conv2D i1 [64, 3, 3, 64]
00000000: c80e 2b1d c3ef edfe fb44 4dd1 120a 0a29
00000010: f8fd fc58 1a21 e8ec 1be2 e814 010b c3b3
00000020: eb07 c81b 21f2 2bc4 049a c74b e711 9f06
00000030: daee 09f1 1bf9 b709 1ce0 121e e61d 4414
00000040: e32d e605 d8fb 28fd f513 04c0 3e1a f4e7
00000050: be1b f3fe efc0 ccf7 bff0 f1f8 2615 e0a3
00000060: 2a07 c339 fa23 ed0d 2fe9 c91b f1fb dfc6
00000070: d904 c9cc 00f4 c4f7 e2f8 0523 cff6 1b19
00000080: de05 bccb 271b e7f0 ccf0 2012 4cdc f8b9
00000090: c2fb 4888 ddce f84c f80a 02f8 0ad0 09e0
000000a0: 21d4 1f2e f137 ba41 30f1 d41e ed08 fbc6
000000b0: 043c bbc3 052d e930 f2d0 1615 b4f7 c821
000000c0: f703 f2e5 02d7 30ee 0418 4ffb 2016 f618
000000d0: cc29 d33b 1d09 2e01 ddda 2a1a 1357 11ed
000000e0: 1dfc ea1c 1ee1 0fb0 1ffd faeb 0d38 03e5
000000f0: 3004 f3d6 d9e4 efb8 0514 e524 f01d 05fc
-56 14 43 29 -61 -17 -19 -2
-5 68 77 -47 18 10 10 41
-8 -3 -4 88 26 33 -24 -20
27 -30 -24 20 1 11 -61 -77
-21 7 -56 27 33 -14 43 -60
4 -102 -57 75 -25 17 -97 6
-38 -18 9 -15 27 -7 -73 9
28 -32 18 30 -26 29 68 20
-29 45 -26 5 -40 -5 40 -3
-11 19 4 -64 62 26 -12 -25
-66 27 -13 -2 -17 -64 -52 -9
-65 -16 -15 -8 38 21 -32 -93
42 7 -61 57 -6 35 -19 13
47 -23 -55 27 -15 -5 -33 -58
-39 4 -55 -52 0 -12 -60 -9
-30 -8 5 35 -49 -10 27 25
-34 5 -68 -53 39 27 -25 -16
-52 -16 32 18 76 -36 -8 -71
-62 -5 72 -120 -35 -50 -8 76
-8 10 2 -8 10 -48 9 -32
33 -44 31 46 -15 55 -70 65
48 -15 -44 30 -19 8 -5 -58
4 60 -69 -61 5 45 -23 48
-14 -48 22 21 -76 -9 -56 33
-9 3 -14 -27 2 -41 48 -18
4 24 79 -5 32 22 -10 24
-52 41 -45 59 29 9 46 1
-35 -38 42 26 19 87 17 -19
29 -4 -22 28 30 -31 15 -80
31 -3 -6 -21 13 56 3 -27
48 4 -13 -42 -39 -28 -17 -72
5 20 -27 36 -16 29 5 -4

model/conv2d_16/Conv2D i1 [64, 1, 1, 32]
00000000: 1aed fc1c e306 00e0 eacb 061b 9ea7 2944
00000010: 2a0b f9b3 f7b1 1c07 a7cd acea 38ff 8122
00000020: efee 14d2 baf3 cc06 e000 4636 a229 0302
00000030: f516 bf11 a71b effb edf9 8196 f13f 22d9
00000040: 00dc d661 c00f 2055 25d7 090a a601 bcce
00000050: e9a7 bb3a 084b 1237 14f3 8c81 238b 17ce
00000060: 81db f2dc d7f0 8609 c7ee df02 f302 13c5
00000070: ebcf ca2f 370a edef e2f9 d0e9 d9bf ded1
00000080: 28fc b227 0f33 1728 eede 1e1c c110 d623
00000090: 2528 3481 eac6 030c cfae 22f6 2511 abfa
000000a0: 2605 e2f1 1cd8 3e8a 18c3 edce d107 ba1f
000000b0: e40e f1bf f781 ea04 14fe 2837 cbe5 970b
000000c0: 050b 07da c3ab 0296 f9ef e2f8 04d4 e913
000000d0: cee5 15e6 f6ea cd81 e816 1c06 f104 07c3
000000e0: 1f04 b6ed dbfa e0a8 b19d 0781 0bc6 e23b
000000f0: bf97 b7cb e0c0 ec94 0f72 a71c 949c c098
26 -19 -4 28 -29 6 0 -32
-22 -53 6 27 -98 -89 41 68
42 11 -7 -77 -9 -79 28 7
-89 -51 -84 -22 56 -1 -127 34
-17 -18 20 -46 -70 -13 -52 6
-32 0 70 54 -94 41 3 2
-11 22 -65 17 -89 27 -17 -5
-19 -7 -127 -106 -15 63 34 -39
0 -36 -42 97 -64 15 32 85
37 -41 9 10 -90 1 -68 -50
-23 -89 -69 58 8 75 18 55
20 -13 -116 -127 35 -117 23 -50
-127 -37 -14 -36 -41 -16 -122 9
-57 -18 -33 2 -13 2 19 -59
-21 -49 -54 47 55 10 -19 -17
-30 -7 -48 -23 -39 -65 -34 -47
40 -4 -78 39 15 51 23 40
-18 -34 30 28 -63 16 -42 35
37 40 52 -127 -22 -58 3 12
-49 -82 34 -10 37 17 -85 -6
38 5 -30 -15 28 -40 62 -118
24 -61 -19 -50 -47 7 -70 31
-28 14 -15 -65 -9 -127 -22 4
20 -2 40 55 -53 -27 -105 11
5 11 7 -38 -61 -85 2 -106
-7 -17 -30 -8 4 -44 -23 19
-50 -27 21 -26 -10 -22 -51 -127
-24 22 28 6 -15 4 7 -61
31 4 -74 -19 -37 -6 -32 -88
-79 -99 7 -127 11 -58 -30 59
-65 -105 -73 -53 -32 -64 -20 -108
15 114 -89 28 -108 -100 -64 -104

model/conv2d_15/Conv2D i1 [64, 3, 3, 64]
00000000: 19e6 16f7 f73f 1c2a 06c9 fa24 f5ca 1d38
00000010: 30dc 0918 2be8 11fa 19f2 1228 eaca d734
00000020: fc01 0d0c 3543 c107 df1e 38d9 0a06 1f25
00000030: fafb b23b 10d5 c4da 0cd9 25c0 2be7 c929
00000040: 16dc efe2 1c10 d551 edff e70f fca3 2621
00000050: 09dd d702 24e1 1a00 fd05 26ca 24f2 000c
00000060: cdfe 082f 16fc f507 0036 14b8 eceb 14df
00000070: 0cb9 ea11 1dc2 16f5 fae3 f0e8 2c10 f319
00000080: 2bd1 ecfd 4a28 ec7f ee5e 061f e6c6 6013
00000090: e802 14c9 2706 03ea 1311 fbf8 491f 0ce1
000000a0: e322 f324 3327 20ef f018 e301 dbf9 0001
000000b0: f601 021f 07d0 0b0d 1a10 0cdf f30f 2009
000000c0: 0413 f3e9 ef47 fae6 eced 36d2 24ca e359
000000d0: ddc7 d305 52c6 1fe2 f207 eefa 00e0 0620
000000e0: f6ad 08d4 0500 1e0d 28ad 18f2 02e8 de23
000000f0: e4eb b023 dc02 aabf b6d3 41f8 19c9 dc1c
25 -26 22 -9 -9 63 28 42
6 -55 -6 36 -11 -54 29 56
48 -36 9 24 43 -24 17 -6
25 -14 18 40 -22 -54 -41 52
-4 1 13 12 53 67 -63 7
-33 30 56 -39 10 6 31 37
-6 -5 -78 59 16 -43 -60 -38
12 -39 37 -64 43 -25 -55 41
22 -36 -17 -30 28 16 -43 81
-19 -1 -25 15 -4 -93 38 33
9 -35 -41 2 36 -31 26 0
-3 5 38 -54 36 -14 0 12
-51 -2 8 47 22 -4 -11 7
0 54 20 -72 -20 -21 20 -33
12 -71 -22 17 29 -62 22 -11
-6 -29 -16 -24 44 16 -13 25
43 -47 -20 -3 74 40 -20 127
-18 94 6 31 -26 -58 96 19
-24 2 20 -55 39 6 3 -22
19 17 -5 -8 73 31 12 -31
-29 34 -13 36 51 39 32 -17
-16 24 -29 1 -37 -7 0 1
-10 1 2 31 7 -48 11 13
26 16 12 -33 -13 15 32 9
4 19 -13 -23 -17 71 -6 -26
-20 -19 54 -46 36 -54 -29 89
-35 -57 -45 5 82 -58 31 -30
-14 7 -18 -6 0 -32 6 32
-10 -83 8 -44 5 0 30 13
40 -83 24 -14 2 -24 -34 35
-28 -21 -80 35 -36 2 -86 -65
-74 -45 65 -8 25 -55 -36 28

model/conv2d_14/Conv2D i1 [64, 3, 3, 32]
00000000: 07f1 c3fb 0215 e7c6 fcdc d8ce 2f2f fcff
00000010: 0418 0be2 f9c0 3ad2 07f6 0b0e dbde 3413
00000020: d6ee b902 f60d e8dc 21b1 1da4 18c0 1f40
00000030: d50b e6bf e4b0 73cf eee2 0319 edbb e627
00000040: 2621 f622 cbe0 00c8 1ade dbd2 00a5 1021
00000050: c7f5 12cd 12d1 4ac8 c34e 2a52 38ec cf18
00000060: fef2 af2d 2419 0405 d5bf e9bb 3402 23f7
00000070: 11f2 ff0f e7e5 1aca 09b7 20e0 befa 0a3c
00000080: e30c ad49 2220 0dfb c4a4 e2a5 519b 1acf
00000090: f0d1 1aec f90d 5ac8 f3d8 13f5 dffa 006c
000000a0: f73c e17f ea1b 08eb d89e 0fb4 2f96 0bed
000000b0: fbb7 2902 fc03 53cf 2431 2f32 ed4f ef48
000000c0: eddd f7ca fdeb b8f0 ecac c9c3 df0c 1fd1
000000d0: f800 1218 c7fe e7c8 f9ea f103 c52b ff3f
000000e0: ed02 d6f0 cffb a612 b7a5 d0cf faba 27ca
000000f0: 15d0 eadf adf4 29fa 05af d1f9 e535 ff4a
7 -15 -61 -5 2 21 -25 -58
-4 -36 -40 -50 47 47 -4 -1
4 24 11 -30 -7 -64 58 -46
7 -10 11 14 -37 -34 52 19
-42 -18 -71 2 -10 13 -24 -36
33 -79 29 -92 24 -64 31 64
-43 11 -26 -65 -28 -80 115 -49
-18 -30 3 25 -19 -69 -26 39
38 33 -10 34 -53 -32 0 -56
26 -34 -37 -46 0 -91 16 33
-57 -11 18 -51 18 -47 74 -56
-61 78 42 82 56 -20 -49 24
-2 -14 -81 45 36 25 4 5
-43 -65 -23 -69 52 2 35 -9
17 -14 -1 15 -25 -27 26 -54
9 -73 32 -32 -66 -6 10 60
-29 12 -83 73 34 32 13 -5
-60 -92 -30 -91 81 -101 26 -49
-16 -47 26 -20 -7 13 90 -56
-13 -40 19 -11 -33 -6 0 108
-9 60 -31 127 -22 27 8 -21
-40 -98 15 -76 47 -106 11 -19
-5 -73 41 2 -4 3 83 -49
36 49 47 50 -19 79 -17 72
-19 -35 -9 -54 -3 -21 -72 -16
-20 -84 -55 -61 -33 12 31 -47
-8 0 18 24 -57 -2 -25 -56
-7 -22 -15 3 -59 43 -1 63
-19 2 -42 -16 -49 -5 -90 18
-73 -91 -48 -49 -6 -70 39 -54
21 -48 -22 -33 -83 -12 41 -6
5 -81 -47 -7 -27 53 -1 74

model/conv2d_13/Conv2D i1 [32, 3, 3, 32]
00000000: 03cd 4810 33b7 07c4 b598 0fef b1a9 f1fe
00000010: cffe 930f cdf6 bc41 8aaa 473e dc06 e313
00000020: 26d2 0e1b 152e 08d1 27a6 06fa 9888 0554
00000030: 3d04 f60a d003 fd59 82af e125 e520 0d32
00000040: 249e 0e4d 020b 0081 1bbb d3cd a1c8 016e
00000050: c5f8 c219 10cf ea69 9aca f137 f305 2662
00000060: 0516 c70a 40d5 f3dc cca1 18a1 e0ce 21b9
00000070: fadc a2a9 acc5 c0aa d9c3 21d1 b7c1 073d
00000080: fd05 9c4d bb0d fdc0 20ac f3b1 d099 dee4
00000090: 14b7 ddce c0ba 04e4 fcbe ebd3 bfdc f536
000000a0: fef2 9962 c0e5 e7b4 f5b1 f298 f5c1 15f9
000000b0: dae5 b899 f0a5 fff0 f3ab 14ec 00f8 347f
000000c0: 2d2c c717 2994 f8dc fed0 f7e3 1138 13ad
000000d0: 21cd b9d6 aeda 94ec 24d3 f118 de24 f208
000000e0: d445 cc16 dc91 01ee 2ee1 e050 0510 f6ac
000000f0: 6fb3 f3d4 a7e8 e21f 3cd1 cd07 2531 ba2e
3 -51 72 16 51 -73 7 -60
-75 -104 15 -17 -79 -87 -15 -2
-49 -2 -109 15 -51 -10 -68 65
-118 -86 71 62 -36 6 -29 19
38 -46 14 27 21 46 8 -47
39 -90 6 -6 -104 -120 5 84
61 4 -10 10 -48 3 -3 89
-126 -81 -31 37 -27 32 13 50
36 -98 14 77 2 11 0 -127
27 -69 -45 -51 -95 -56 1 110
-59 -8 -62 25 16 -49 -22 105
-102 -54 -15 55 -13 5 38 98
5 22 -57 10 64 -43 -13 -36
-52 -95 24 -95 -32 -50 33 -71
-6 -36 -94 -87 -84 -59 -64 -86
-39 -61 33 -47 -73 -63 7 61
-3 5 -100 77 -69 13 -3 -64
32 -84 -13 -79 -48 -103 -34 -28
20 -73 -35 -50 -64 -70 4 -28
-4 -66 -21 -45 -65 -36 -11 54
-2 -14 -103 98 -64 -27 -25 -76
-11 -79 -14 -104 -11 -63 21 -7
-38 -27 -72 -103 -16 -91 -1 -16
-13 -85 20 -20 0 -8 52 127
45 44 -57 23 41 -108 -8 -36
-2 -48 -9 -29 17 56 19 -83
33 -51 -71 -42 -82 -38 -108 -20
36 -45 -15 24 -34 36 -14 8
-44 69 -52 22 -36 -111 1 -18
46 -31 -32 80 5 16 -10 -84
111 -77 -13 -44 -89 -24 -30 31
60 -47 -51 7 37 49 -70 46

model/conv2d_12/Conv2D i1 [32, 3, 3, 32]
00000000: f70e 0b25 0aec 1ceb 2216 e914 ae1d b0f4
00000010: cc20 f0e7 ffca 2807 101e cce5 e1ea f71b
00000020: f824 f1e8 e531 0633 f8ee fbfc e220 a3f9
00000030: e231 f9fc 07e9 f242 14f0 26d7 04ba 220c
00000040: db41 fcff ef30 1108 edf5 12c2 11e9 bf1a
00000050: f644 1623 0d1a 122a fd07 5ad2 d7b0 ebff
00000060: efdb e73b 21f1 30d8 09fe e31d ce00 a8d2
00000070: e1ed ee11 e2e3 ef00 3308 adf8 f21b 0801
00000080: 0daf e431 ee26 250a 060f dc1a e521 81f1
00000090: edff ea09 f9d2 e52e 150a ece5 f41c 2fe1
000000a0: 16d9 e002 1037 3612 eff2 e310 0d0b 940c
000000b0: 1027 f503 fcee f639 fd26 36e3 e5d2 f904
000000c0: c719 051d 1dd4 20f7 df45 e728 b5d3 ccd6
000000d0: ebed 1c23 e506 0c01 0af4 ac23 fb34 eb20
000000e0: dbf3 2820 0be8 0704 e930 f626 ea03 ccdc
000000f0: f4db 2101 00fd f3cd 3bf8 e6f9 0a28 ef02
-9 14 11 37 10 -20 28 -21
34 22 -23 20 -82 29 -80 -12
-52 32 -16 -25 -1 -54 40 7
16 30 -52 -27 -31 -22 -9 27
-8 36 -15 -24 -27 49 6 51
-8 -18 -5 -4 -30 32 -93 -7
-30 49 -7 -4 7 -23 -14 66
20 -16 38 -41 4 -70 34 12
-37 65 -4 -1 -17 48 17 8
-19 -11 18 -62 17 -23 -65 26
-10 68 22 35 13 26 18 42
-3 7 90 -46 -41 -80 -21 -1
-17 -37 -25 59 33 -15 48 -40
9 -2 -29 29 -50 0 -88 -46
-31 -19 -18 17 -30 -29 -17 0
51 8 -83 -8 -14 27 8 1
13 -81 -28 49 -18 38 37 10
6 15 -36 26 -27 33 -127 -15
-19 -1 -22 9 -7 -46 -27 46
21 10 -20 -27 -12 28 47 -31
22 -39 -32 2 16 55 54 18
-17 -14 -29 16 13 11 -108 12
16 39 -11 3 -4 -18 -10 57
-3 38 54 -29 -27 -46 -7 4
-57 25 5 29 29 -44 32 -9
-33 69 -25 40 -75 -45 -52 -42
-21 -19 28 35 -27 6 12 1
10 -12 -84 35 -5 52 -21 32
-37 -13 40 32 11 -24 7 4
-23 48 -10 38 -22 3 -52 -36
-12 -37 33 1 0 -3 -13 -51
59 -8 -26 -7 10 40 -17 2

model/conv2d_11/Conv2D i1 [32, 3, 3, 32]
00000000: 2904 2707 d3e9 dd0d 57cc d909 fc1a f22a
00000010: 0adf bce4 d6d2 dae1 2cf1 e743 edff bed4
00000020: 461f 1d1e 0b07 c50d 5ded f31b ef09 36f1
00000030: 0fff cd47 d2ff 021f 2201 174c faf0 a612
00000040: 2742 0e44 f73b aa02 4bd7 100d fa40 f3f0
00000050: 0031 c41e eace f713 f7fa 1711 f4b5 b802
00000060: 15fe 0fcb 8fb1 e609 14f9 d81b dce2 ca08
00000070: 6c06 a2c3 1326 22d3 f1d5 e91a d309 a50b
00000080: 0906 db04 e2f5 ca16 2aef 1222 03dd cfb8
00000090: 17f8 8812 1407 15ef d6de 1310 ea00 a60b
000000a0: 05f2 d807 17fb dc03 2ad2 2137 e7f7 bdc6
000000b0: 0518 81ea 2eed 17f4 baf8 0efa efd3 a10e
000000c0: b8d9 2de2 afd8 e4e1 f129 c230 e0fd bdf9
000000d0: 7516 eb97 370c e5ad e8e9 1a45 fd21 9ec8
000000e0: 91e1 f81e eedc fcf0 1eff 2212 1003 e2b5
000000f0: 1610 c1d6 0708 04a1 fdf3 1136 092c dbda
41 4 39 7 -45 -23 -35 13
87 -52 -39 9 -4 26 -14 42
10 -33 -68 -28 -42 -46 -38 -31
44 -15 -25 67 -19 -1 -66 -44
70 31 29 30 11 7 -59 13
93 -19 -13 27 -17 9 54 -15
15 -1 -51 71 -46 -1 2 31
34 1 23 76 -6 -16 -90 18
39 66 14 68 -9 59 -86 2
75 -41 16 13 -6 64 -13 -16
0 49 -60 30 -22 -50 -9 19
-9 -6 23 17 -12 -75 -72 2
21 -2 15 -53 -113 -79 -26 9
20 -7 -40 27 -36 -30 -54 8
108 6 -94 -61 19 38 34 -45
-15 -43 -23 26 -45 9 -91 11
9 6 -37 4 -30 -11 -54 22
42 -17 18 34 3 -35 -49 -72
23 -8 -120 18 20 7 21 -17
-42 -34 19 16 -22 0 -90 11
5 -14 -40 7 23 -5 -36 3
42 -46 33 55 -25 -9 -67 -58
5 24 -127 -22 46 -19 23 -12
-70 -8 14 -6 -17 -45 -95 14
-72 -39 45 -30 -81 -40 -28 -31
-15 41 -62 48 -32 -3 -67 -7
117 22 -21 -105 55 12 -27 -83
-24 -23 26 69 -3 33 -98 -56
-111 -31 -8 30 -18 -36 -4 -16
30 -1 34 18 16 3 -30 -75
22 16 -63 -42 7 8 4 -95
-3 -13 17 54 9 44 -37 -38

model/conv2d_10/Conv2D i1 [32, 3, 3, 32]
00000000: 1312 00df bace 19ce d9ee fe04 feb0 8102
00000010: e7e2 2d40 2ff8 caf2 5ab5 2310 c1ee df29
00000020: 1eef e8df f2ee 2edd c9e9 1eeb 38e1 aef9
00000030: 17e7 4766 35f4 e1ff 16c1 26c7 d8f6 061a
00000040: 2632 f9cd f076 2e57 e2fc d5e8 36d2 c6f3
00000050: f0f6 0d0c 37d8 1e1c 11e7 02e4 10cd fa0d
00000060: 2c1b 22d6 b9ce fdc0 f9de ede5 03c2 d0e2
00000070: 0906 10f3 22d5 23d8 1fef 2825 d9fc dd22
00000080: 09d8 28f8 edf4 04eb e9ec 0df8 2ee6 f50d
00000090: 10fb 2134 2914 27ed f61d 1bf1 f509 0623
000000a0: 25e9 e3f6 f22c 0947 e8ea f7eb 2bf8 edfe
000000b0: 1414 0c09 20f1 5f09 e326 efe3 10e1 1817
000000c0: feef 54d6 c5d9 c9d0 05ea f8e4 f7c6 07e3
000000d0: f5f9 08eb 14ee 30b6 f60e ed31 a2ba be01
000000e0: f2cb 3f0c 07e2 e5f7 1be5 0aef fbf5 3900
000000f0: e6df 3315 2512 44cd ee19 f20c ebe2 f500
19 18 0 -33 -70 -50 25 -50
-39 -18 -2 4 -2 -80 -127 2
-25 -30 45 64 47 -8 -54 -14
90 -75 35 16 -63 -18 -33 41
30 -17 -24 -33 -14 -18 46 -35
-55 -23 30 -21 56 -31 -82 -7
23 -25 71 102 53 -12 -31 -1
22 -63 38 -57 -40 -10 6 26
38 50 -7 -51 -16 118 46 87
-30 -4 -43 -24 54 -46 -58 -13
-16 -10 13 12 55 -40 30 28
17 -25 2 -28 16 -51 -6 13
44 27 34 -42 -71 -50 -3 -64
-7 -34 -19 -27 3 -62 -48 -30
9 6 16 -13 34 -43 35 -40
31 -17 40 37 -39 -4 -35 34
9 -40 40 -8 -19 -12 4 -21
-23 -20 13 -8 46 -26 -11 13
16 -5 33 52 41 20 39 -19
-10 29 27 -15 -11 9 6 35
37 -23 -29 -10 -14 44 9 71
-24 -22 -9 -21 43 -8 -19 -2
20 20 12 9 32 -15 95 9
-29 38 -17 -29 16 -31 24 23
-2 -17 84 -42 -59 -39 -55 -48
5 -22 -8 -28 -9 -58 7 -29
-11 -7 8 -21 20 -18 48 -74
-10 14 -19 49 -94 -70 -66 1
-14 -53 63 12 7 -30 -27 -9
27 -27 10 -17 -5 -11 57 0
-26 -33 51 21 37 18 68 -51
-18 25 -14 12 -21 -30 -11 0

model/conv2d_9/Conv2D i1 [32, 1, 1, 16]
00000000: ed45 7ffe 3b38 ef0f d7f9 2579 52d6 052f
00000010: ee03 4591 3681 fb94 c32e b716 24e0 df9c
00000020: 819d ebf6 9821 19fa bfef ee88 cf9a 1ee3
00000030: 1bce f9c5 1700 a8f9 9f32 4227 d70a 0181
00000040: 2327 8cfb de41 0425 0395 12d6 f50e 8138
00000050: ff23 810f f904 3902 21c2 1bef 0b18 f5d5
00000060: a945 51d1 2522 fd23 e213 fd41 5dfc 81de
00000070: 061f 86fa daea e32a 1681 29cd 1326 b405
00000080: 05ca aff0 58f5 81fc 17e7 e60f d908 93ef
00000090: e1e3 d5ec 30fd c008 0202 f705 050c 81f6
000000a0: 0500 03a8 10df efb1 811a dbff eae8 19ce
000000b0: cc81 dc03 09ef dd14 f813 10f7 c102 c301
000000c0: 021b 13b4 8113 20fd c319 bd16 e5b4 1c12
000000d0: f6df ce31 e11f 05fe 0a81 0bbc b3da fb1c
000000e0: d801 1ce3 cb1e a350 f9b2 ea02 c481 f46b
000000f0: 69db f881 2706 cbbd b716 9f1d f020 0805
-19 69 127 -2 59 56 -17 15
-41 -7 37 121 82 -42 5 47
-18 3 69 -111 54 -127 -5 -108
-61 46 -73 22 36 -32 -33 -100
-127 -99 -21 -10 -104 33 25 -6
-65 -17 -18 -120 -49 -102 30 -29
27 -50 -7 -59 23 0 -88 -7
-97 50 66 39 -41 10 1 -127
35 39 -116 -5 -34 65 4 37
3 -107 18 -42 -11 14 -127 56
-1 35 -127 15 -7 4 57 2
33 -62 27 -17 11 24 -11 -43
-87 69 81 -47 37 34 -3 35
-30 19 -3 65 93 -4 -127 -34
6 31 -122 -6 -38 -22 -29 42
22 -127 41 -51 19 38 -76 5
5 -54 -81 -16 88 -11 -127 -4
23 -25 -26 15 -39 8 -109 -17
-31 -29 -43 -20 48 -3 -64 8
2 2 -9 5 5 12 -127 -10
5 0 3 -88 16 -33 -17 -79
-127 26 -37 -1 -22 -24 25 -50
-52 -127 -36 3 9 -17 -35 20
-8 19 16 -9 -63 2 -61 1
2 27 19 -76 -127 19 32 -3
-61 25 -67 22 -27 -76 28 18
-10 -33 -50 49 -31 31 5 -2
10 -127 11 -68 -77 -38 -5 28
-40 1 28 -29 -53 30 -93 80
-7 -78 -22 2 -60 -127 -12 107
105 -37 -8 -127 39 6 -53 -67
-73 22 -97 29 -16 32 8 5

model/conv2d_8/Conv2D i1 [32, 3, 3, 32]
00000000: 0a97 28e6 1af1 00d6 a70f efcb 9e1a a8fd
00000010: e1f4 e503 0fec fa1e bef0 4cdb d6d9 0ff9
00000020: 1fac fcd6 17e3 e5e8 c70e 2fc2 d224 c5de
00000030: ed24 ef16 ff07 0605 e7ad 1b15 fbf7 2c0a
00000040: 15cd f702 e62e d9e3 ad21 fde2 d749 a901
00000050: 0603 cf29 354a 1725 d7e0 e0d7 0618 26e9
00000060: deb7 1e93 e0fd fbf4 c0ce 1681 a119 c825
00000070: 8de7 e935 2dee da21 f1d7 11f8 212f 54ea
00000080: 0790 0aca e013 dcdd eecd 199b c129 e600
00000090: 94fd e10b 33df efff 28d7 ee01 352b 2514
000000a0: 08b0 0903 b11b e41a e72b d0e3 b822 9fff
000000b0: d6fc dd22 050f 2e17 1df8 f0de 0201 10f1
000000c0: dbce 25c7 df14 f2e7 e7db f1a9 fc45 0549
000000d0: 92fe 0c43 15fd 1df1 16e3 e3df f535 0812
000000e0: f9f6 f7fd e811 f3df 0acc 0ec9 1a23 0029
000000f0: b1f4 0126 0400 02f4 1b0a f5fa ed1a 1811
10 -105 40 -26 26 -15 0 -42
-89 15 -17 -53 -98 26 -88 -3
-31 -12 -27 3 15 -20 -6 30
-66 -16 76 -37 -42 -39 15 -7
31 -84 -4 -42 23 -29 -27 -24
-57 14 47 -62 -46 36 -59 -34
-19 36 -17 22 -1 7 6 5
-25 -83 27 21 -5 -9 44 10
21 -51 -9 2 -26 46 -39 -29
-83 33 -3 -30 -41 73 -87 1
6 3 -49 41 53 74 23 37
-41 -32 -32 -41 6 24 38 -23
-34 -73 30 -109 -32 -3 -5 -12
-64 -50 22 -127 -95 25 -56 37
-115 -25 -23 53 45 -18 -38 33
-15 -41 17 -8 33 47 84 -22
7 -112 10 -54 -32 19 -36 -35
-18 -51 25 -101 -63 41 -26 0
-108 -3 -31 11 51 -33 -17 -1
40 -41 -18 1 53 43 37 20
8 -80 9 3 -79 27 -28 26
-25 43 -48 -29 -72 34 -97 -1
-42 -4 -35 34 5 15 46 23
29 -8 -16 -34 2 1 16 -15
-37 -50 37 -57 -33 20 -14 -25
-25 -37 -15 -87 -4 69 5 73
-110 -2 12 67 21 -3 29 -15
22 -29 -29 -33 -11 53 8 18
-7 -10 -9 -3 -24 17 -13 -33
10 -52 14 -55 26 35 0 41
-79 -12 1 38 4 0 2 -12
27 10 -11 -6 -19 26 24 17

model/conv2d_7/Conv2D i1 [32, 3, 3, 16]
00000000: 1016 2211 f2e5 050b fe13 2d08 cfce de1b
00000010: 1a53 ef24 1ae9 0e38 2235 1d29 3b00 a6f1
00000020: 1a14 3336 04e1 2ce3 1c0c 00f0 1001 eee7
00000030: 063c d40d feda c740 210c 0f1b 3801 8ff9
00000040: 126d c110 07fb ad73 283c 2e39 3924 81e2
00000050: 084a c829 f1f4 f02a 243c 252b 1c05 93d7
00000060: 0be8 1004 d5f6 ebd7 ee20 0901 ebfe ed11
00000070: cd01 df0d 19e0 d026 ec24 0506 1f08 a2dc
00000080: e300 f616 d8f7 f716 fdfb 0bf4 f20f b0f5
00000090: d11c a006 fd07 ef1e 08f8 bae0 cf17 d914
000000a0: b7f4 9eed e5eb fe15 0c19 9fe5 b23a e8f7
000000b0: f526 a5de e50a 0d11 fc24 dc11 db27 ed12
000000c0: b409 a7f6 b6c8 dbf4 f10e abc7 cf0d d8f4
000000d0: a109 81e4 a2d4 ec0e e23c 8bd8 c428 da0a
000000e0: cdfc 96e0 c20a 0007 0817 c2e0 df30 ea12
000000f0: c01b c10f c6ec 010d e811 0adc dbfd d8f9
16 22 34 17 -14 -27 5 11
-2 19 45 8 -49 -50 -34 27
26 83 -17 36 26 -23 14 56
34 53 29 41 59 0 -90 -15
26 20 51 54 4 -31 44 -29
28 12 0 -16 16 1 -18 -25
6 60 -44 13 -2 -38 -57 64
33 12 15 27 56 1 -113 -7
18 109 -63 16 7 -5 -83 115
40 60 46 57 57 36 -127 -30
8 74 -56 41 -15 -12 -16 42
36 60 37 43 28 5 -109 -41
11 -24 16 4 -43 -10 -21 -41
-18 32 9 1 -21 -2 -19 17
-51 1 -33 13 25 -32 -48 38
-20 36 5 6 31 8 -94 -36
-29 0 -10 22 -40 -9 -9 22
-3 -5 11 -12 -14 15 -80 -11
-47 28 -96 6 -3 7 -17 30
8 -8 -70 -32 -49 23 -39 20
-73 -12 -98 -19 -27 -21 -2 21
12 25 -97 -27 -78 58 -24 -9
-11 38 -91 -34 -27 10 13 17
-4 36 -36 17 -37 39 -19 18
-76 9 -89 -10 -74 -56 -37 -12
-15 14 -85 -57 -49 13 -40 -12
-95 9 -127 -28 -94 -44 -20 14
-30 60 -117 -40 -60 40 -38 10
-51 -4 -106 -32 -62 10 0 7
8 23 -62 -32 -33 48 -22 18
-64 27 -63 15 -58 -20 1 13
-24 17 10 -36 -37 -3 -40 -7

model/conv2d_6/Conv2D i1 [16, 3, 3, 16]
00000000: b001 074d 41f5 bad5 187b 3af7 fde6 febc
00000010: bbff 0e4b 44ff c6dd 1847 f511 1d2d f9a0
00000020: 1323 fc47 2cea a6d9 0746 fc09 3905 f586
00000030: e8e8 f830 20ad d81c fe37 3020 d0d7 18e9
00000040: e1fd 072e efd2 b518 faf8 1b15 f5f9 28c8
00000050: e610 f44a 07dc 81f5 1818 53f9 0af3 15c5
00000060: 1c9f 26e1 efc6 262c 2b12 6aee c5cf 5554
00000070: efde 36e6 f5cf 0113 edfc 5214 bdf3 0f3b
00000080: f6f4 1ff2 d0ed d638 f2e4 5a06 adeb 231d
00000090: f648 def4 a73a d115 5345 c2fa e6f1 eac2
000000a0: f84e f2ea c52d e8e9 5043 e711 e800 ecec
000000b0: ef2e def0 d12a c5f3 482a d90f 0827 eb0d
000000c0: f5dc ee2b bcee c8d6 5c21 dc0a 81ef f2e1
000000d0: 0936 f720 c925 c8d5 f50d ece0 ab1a d9df
000000e0: f40c e810 cff7 c5bf 3d15 dbe0 dc1c d500
000000f0: e0dc ef0d ba22 cfcc 2237 00dd efd9 0e08
-80 1 7 77 65 -11 -70 -43
24 123 58 -9 -3 -26 -2 -68
-69 -1 14 75 68 -1 -58 -35
24 71 -11 17 29 45 -7 -96
19 35 -4 71 44 -22 -90 -39
7 70 -4 9 57 5 -11 -122
-24 -24 -8 48 32 -83 -40 28
-2 55 48 32 -48 -41 24 -23
-31 -3 7 46 -17 -46 -75 24
-6 -8 27 21 -11 -7 40 -56
-26 16 -12 74 7 -36 -127 -11
24 24 83 -7 10 -13 21 -59
28 -97 38 -31 -17 -58 38 44
43 18 106 -18 -59 -49 85 84
-17 -34 54 -26 -11 -49 1 19
-19 -4 82 20 -67 -13 15 59
-10 -12 31 -14 -48 -19 -42 56
-14 -28 90 6 -83 -21 35 29
-10 72 -34 -12 -89 58 -47 21
83 69 -62 -6 -26 -15 -22 -62
-8 78 -14 -22 -59 45 -24 -23
80 67 -25 17 -24 0 -20 -20
-17 46 -34 -16 -47 42 -59 -13
72 42 -39 15 8 39 -21 13
-11 -36 -18 43 -68 -18 -56 -42
92 33 -36 10 -127 -17 -14 -31
9 54 -9 32 -55 37 -56 -43
-11 13 -20 -32 -85 26 -39 -33
-12 12 -24 16 -49 -9 -59 -65
61 21 -37 -32 -36 28 -43 0
-32 -36 -17 13 -70 34 -49 -52
34 55 0 -35 -17 -39 14 8

model/conv2d_5/Conv2D i1 [16, 3, 3, 16]
00000000: 08f9 be49 e532 d60c e837 2a56 3214 2519
00000010: 11db d20f b9ff 0dee fc48 18f7 ee08 def6
00000020: 02dc 1e81 eeef 15dd c734 cf0d 02f0 fee4
00000030: defc cff8 d509 0bef 290f fc2c 2517 4209
00000040: c8e0 cd40 c101 2ded 12fa 3cdc eb0f 10f7
00000050: e3d1 0c1c e70c 14e9 f007 e31f 1aeb 19e2
00000060: ce15 0542 eb1b c1f0 c4f0 051f 7dff 1a05
00000070: c8fb d941 e61c f7e2 311a fbe4 d506 ed07
00000080: d9f4 2e20 070c 11ff c522 e307 62df faee
00000090: cd3b f0eb f79b e105 28b0 c818 d024 0a15
000000a0: d0f1 1bf3 66c6 e626 02b7 adf9 dff0 0e2b
000000b0: 1b3c f001 26e4 1a1e ec9c 89c6 d8e2 15f1
000000c0: 0a35 3af6 2f0b 2244 07ab 9029 105a 1657
000000d0: 0706 2805 460c 2a4a 1cde 8403 1410 06f4
000000e0: 4c64 360e 1c29 3f1c d2d5 84c3 20e9 4f10
000000f0: 2e55 2919 1228 ff3c 2bca 88f3 0f09 fdf6
8 -7 -66 73 -27 50 -42 12
-24 55 42 86 50 20 37 25
17 -37 -46 15 -71 -1 13 -18
-4 72 24 -9 -18 8 -34 -10
2 -36 30 -127 -18 -17 21 -35
-57 52 -49 13 2 -16 -2 -28
-34 -4 -49 -8 -43 9 11 -17
41 15 -4 44 37 23 66 9
-56 -32 -51 64 -63 1 45 -19
18 -6 60 -36 -21 15 16 -9
-29 -47 12 28 -25 12 20 -23
-16 7 -29 31 26 -21 25 -30
-50 21 5 66 -21 27 -63 -16
-60 -16 5 31 125 -1 26 5
-56 -5 -39 65 -26 28 -9 -30
49 26 -5 -28 -43 6 -19 7
-39 -12 46 32 7 12 17 -1
-59 34 -29 7 98 -33 -6 -18
-51 59 -16 -21 -9 -101 -31 5
40 -80 -56 24 -48 36 10 21
-48 -15 27 -13 102 -58 -26 38
2 -73 -83 -7 -33 -16 14 43
27 60 -16 1 38 -28 26 30
-20 -100 -119 -58 -40 -30 21 -15
10 53 58 -10 47 11 34 68
7 -85 -112 41 16 90 22 87
7 6 40 5 70 12 42 74
28 -34 -124 3 20 16 6 -12
76 100 54 14 28 41 63 28
-46 -43 -124 -61 32 -23 79 16
46 85 41 25 18 40 -1 60
43 -54 -120 -13 15 9 -3 -10

model/conv2d_4/Conv2D i1 [16, 3, 3, 16]
00000000: 9e40 ee7b e1dc 4291 d9fe fb3d 700b f2d4
00000010: c30b e45c ca03 2b85 d8f7 f5eb 4a0b 28ad
00000020: defb ed7f d1e3 3484 c311 01f9 6e3a e9de
00000030: e442 0e35 0737 e0cd 301c 0261 7bf7 02df
00000040: d336 0433 f810 0bbc 0ce3 f710 350c 03cf
00000050: c2f8 1d43 c2ff 07c6 1b15 c83e 38f7 09ec
00000060: 152b 370a d309 b70d eefb c250 3426 f80f
00000070: 0e08 3913 d9e5 effd ed0e c954 190f ef01
00000080: e5f0 371c 8ee4 0c0f d8f9 c768 02e9 f1d9
00000090: f7e8 0527 e434 eeac 2d7a 2633 1204 50db
000000a0: 03cb 312b e841 03a3 454e 500d 27fe 48cd
000000b0: 15cd 2a58 d82c 34bb 4237 57d4 f31d 40b2
000000c0: 9d09 e1fe c42a 81ab 2306 3c1d a403 eefa
000000d0: ace0 ff23 f731 92ad 40e8 5f1d 9bdb 1def
000000e0: d2ab 00f5 d024 9594 3032 531b d20d 34e1
000000f0: d50d 071a b70d ffc5 b108 06f6 b600 f928
-98 64 -18 123 -31 -36 66 -111
-39 -2 -5 61 112 11 -14 -44
-61 11 -28 92 -54 3 43 -123
-40 -9 -11 -21 74 11 40 -83
-34 -5 -19 127 -47 -29 52 -124
-61 17 1 -7 110 58 -23 -34
-28 66 14 53 7 55 -32 -51
48 28 2 97 123 -9 2 -33
-45 54 4 51 -8 16 11 -68
12 -29 -9 16 53 12 3 -49
-62 -8 29 67 -62 -1 7 -58
27 21 -56 62 56 -9 9 -20
21 43 55 10 -45 9 -73 13
-18 -5 -62 80 52 38 -8 15
14 8 57 19 -39 -27 -17 -3
-19 14 -55 84 25 15 -17 1
-27 -16 55 28 -114 -28 12 15
-40 -7 -57 104 2 -23 -15 -39
-9 -24 5 39 -28 52 -18 -84
45 122 38 51 18 4 80 -37
3 -53 49 43 -24 65 3 -93
69 78 80 13 39 -2 72 -51
21 -51 42 88 -40 44 52 -69
66 55 87 -44 -13 29 64 -78
-99 9 -31 -2 -60 42 -127 -85
35 6 60 29 -92 3 -18 -6
-84 -32 -1 35 -9 49 -110 -83
64 -24 95 29 -101 -37 29 -17
-46 -85 0 -11 -48 36 -107 -108
48 50 83 27 -46 13 52 -31
-43 13 7 26 -73 13 -1 -59
-79 8 6 -10 -74 0 -7 40

model/conv2d_3/Conv2D i1 [16, 3, 3, 16]
00000000: c1f0 3544 8ebc f21f 3d1a f6ef 832d 6499
00000010: ded1 4c03 b3a6 3426 00fe fe1f a3d2 5cbc
00000020: a3ca 2df2 deb2 f11f 00fc 100f d62d dbf5
00000030: fc3b 24f5 b7dd 3717 1214 290d a2f8 4081
00000040: 0a2b 3a5d cea3 1528 cf0c 103b 8ff2 53d1
00000050: 0027 0a25 0bc0 2a33 00f4 2d18 a60d 22cd
00000060: c0d0 0118 a7ff 3bfd 1425 38ff be33 0d9e
00000070: d4c5 3515 b3c7 51fb 0c11 ee38 b304 03bf
00000080: d8df ff49 deba fc2c 1bfd 0720 c122 11d3
00000090: 330e efe8 e002 ec43 42fc 06f4 ff25 cb08
000000a0: 3c1a e6e5 102c e11a 29e7 ef07 200a d910
000000b0: 2c21 f0e9 ff47 032c d60c f7f6 ec12 cc0c
000000c0: 3421 1fc2 170b f92d e7ea 0a02 f7ad d5e6
000000d0: 4546 fec9 f70c eefa de0e 0306 03a9 dc0d
000000e0: 2323 1bd2 0bec d901 b606 0021 e9ac ffe0
000000f0: 171d 14a2 06fb c5ff e0e2 00c1 fa81 e1da
-63 -16 53 68 -114 -68 -14 31
61 26 -10 -17 -125 45 100 -103
-34 -47 76 3 -77 -90 52 38
0 -2 -2 31 -93 -46 92 -68
-93 -54 45 -14 -34 -78 -15 31
0 -4 16 15 -42 45 -37 -11
-4 59 36 -11 -73 -35 55 23
18 20 41 13 -94 -8 64 -127
10 43 58 93 -50 -93 21 40
-49 12 16 59 -113 -14 83 -47
0 39 10 37 11 -64 42 51
0 -12 45 24 -90 13 34 -51
-64 -48 1 24 -89 -1 59 -3
20 37 56 -1 -66 51 13 -98
-44 -59 53 21 -77 -57 81 -5
12 17 -18 56 -77 4 3 -65
-40 -33 -1 73 -34 -70 -4 44
27 -3 7 32 -63 34 17 -45
51 14 -17 -24 -32 2 -20 67
66 -4 6 -12 -1 37 -53 8
60 26 -26 -27 16 44 -31 26
41 -25 -17 7 32 10 -39 16
44 33 -16 -23 -1 71 3 44
-42 12 -9 -10 -20 18 -52 12
52 33 31 -62 23 11 -7 45
-25 -22 10 2 -9 -83 -43 -26
69 70 -2 -55 -9 12 -18 -6
-34 14 3 6 3 -87 -36 13
35 35 27 -46 11 -20 -39 1
-74 6 0 33 -23 -84 -1 -32
23 29 20 -94 6 -5 -59 -1
-32 -30 0 -63 -6 -127 -31 -38

model/conv2d_2/Conv2D i1 [16, 3, 3, 16]
00000000: d7b0 390d 082f 2204 0525 102a e1f1 141d
00000010: 09bb 18e5 100a fa12 fa07 1408 f6f2 1e36
00000020: f908 18d1 152b e5fd e6f0 380f ebff 10e7
00000030: 038b 09df d0ea f7f7 22e2 051b e9ff e125
00000040: 198b ee81 f107 e201 e5d6 e70a f40a fa15
00000050: eff2 ef96 0a26 e307 f4bb 09f4 dcf9 02f0
00000060: d693 2f13 c2b5 e2fd 1cb5 f9f6 d3d1 c32a
00000070: 21a7 2590 d4f0 9c10 0eb6 d2ec d010 d027
00000080: 1de5 1da7 f008 b2f9 38c6 faf2 deee c5dd
00000090: ece5 ace2 0513 181a e815 fef3 eef1 0c0c
000000a0: e3fe bbf2 3a0b 210c fd00 08ea 01ec 1af5
000000b0: 10f4 06fb 3221 1928 f3d7 1e1a f628 ed25
000000c0: fc99 b4f1 24e4 2ebc f2cb efed dbf4 1af3
000000d0: 13b1 b7af 1a06 e6a6 079a 04d0 cef6 1508
000000e0: 22b1 cfbb 0cf4 15ca e481 dbb6 f21c 18eb
000000f0: fce1 e0f2 1705 e3df 0cc4 dace 1710 1fdf
-41 -80 57 13 8 47 34 4
5 37 16 42 -31 -15 20 29
9 -69 24 -27 16 10 -6 18
-6 7 20 8 -10 -14 30 54
-7 8 24 -47 21 43 -27 -3
-26 -16 56 15 -21 -1 16 -25
3 -117 9 -33 -48 -22 -9 -9
34 -30 5 27 -23 -1 -31 37
25 -117 -18 -127 -15 7 -30 1
-27 -42 -25 10 -12 10 -6 21
-17 -14 -17 -106 10 38 -29 7
-12 -69 9 -12 -36 -7 2 -16
-42 -109 47 19 -62 -75 -30 -3
28 -75 -7 -10 -45 -47 -61 42
33 -89 37 -112 -44 -16 -100 16
14 -74 -46 -20 -48 16 -48 39
29 -27 29 -89 -16 8 -78 -7
56 -58 -6 -14 -34 -18 -59 -35
-20 -27 -84 -30 5 19 24 26
-24 21 -2 -13 -18 -15 12 12
-29 -2 -69 -14 58 11 33 12
-3 0 8 -22 1 -20 26 -11
16 -12 6 -5 50 33 25 40
-13 -41 30 26 -10 40 -19 37
-4 -103 -76 -15 36 -28 46 -68
-14 -53 -17 -19 -37 -12 26 -13
19 -79 -73 -81 26 6 -26 -90
7 -102 4 -48 -50 -10 21 8
34 -79 -49 -69 12 -12 21 -54
-28 -127 -37 -74 -14 28 24 -21
-4 -31 -32 -14 23 5 -29 -33
12 -60 -38 -50 23 16 31 -33

model/conv2d_1/Conv2D i1 [16, 3, 3, 16]
00000000: 0b18 ef1b f10f 24ca e4c7 eb53 ebfa f036
00000010: 1315 de0d df19 03c2 d9d3 0a19 d710 ed2c
00000020: fde1 cbe7 fa15 eb8f a4d2 1a0f a0df b811
00000030: 130f 2425 fa14 03a2 04a6 ea33 01f7 21fc
00000040: fa02 281b 0e27 51d7 f892 0e4c f9d7 f9fd
00000050: 09f6 1b05 06e2 0081 eab5 1c0a dcf4 d9f7
00000060: edfe 26f9 f10e 05a2 0fba e118 eb1c 25e8
00000070: 0800 0bdb eb27 18db 02e2 e4e5 36f7 1fde
00000080: 070f 03dc 15fd 099a f9fa eae6 f6eb 0cd8
00000090: e7f7 06fb fc05 05ff c1f3 8eed fef1 03e3
000000a0: 0cf6 0b31 01f8 fb0c 0604 7a00 e6ea 393a
000000b0: 13fc feb5 0e0e 09c1 1502 a5f9 fefc 9e9f
000000c0: f8fb 11e7 fe05 0520 c6ee 9e20 0609 e1d9
000000d0: f211 f842 fcf6 e523 2a16 48c9 fc0c 7964
000000e0: 0cf5 0ac9 03f0 09cf fdfe c929 04e6 8481
000000f0: fc08 0702 fd08 17fd cdee ea32 fff1 ddc0
11 24 -17 27 -15 15 36 -54
-28 -57 -21 83 -21 -6 -16 54
19 21 -34 13 -33 25 3 -62
-39 -45 10 25 -41 16 -19 44
-3 -31 -53 -25 -6 21 -21 -113
-92 -46 26 15 -96 -33 -72 17
19 15 36 37 -6 20 3 -94
4 -90 -22 51 1 -9 33 -4
-6 2 40 27 14 39 81 -41
-8 -110 14 76 -7 -41 -7 -3
9 -10 27 5 6 -30 0 -127
-22 -75 28 10 -36 -12 -39 -9
-19 -2 38 -7 -15 14 5 -94
15 -70 -31 24 -21 28 37 -24
8 0 11 -37 -21 39 24 -37
2 -30 -28 -27 54 -9 31 -34
7 15 3 -36 21 -3 9 -102
-7 -6 -22 -26 -10 -21 12 -40
-25 -9 6 -5 -4 5 5 -1
-63 -13 -114 -19 -2 -15 3 -29
12 -10 11 49 1 -8 -5 12
6 4 122 0 -26 -22 57 58
19 -4 -2 -75 14 14 9 -63
21 2 -91 -7 -2 -4 -98 -97
-8 -5 17 -25 -2 5 5 32
-58 -18 -98 32 6 9 -31 -39
-14 17 -8 66 -4 -10 -27 35
42 22 72 -55 -4 12 121 100
12 -11 10 -55 3 -16 9 -49
-3 -2 -55 41 4 -26 -124 -127
-4 8 7 2 -3 8 23 -3
-51 -18 -22 50 -1 -15 -35 -64

model/conv2d/Conv2D i1 [16, 3, 3, 3]
00000000: 9bc7 2bb8 3cc9 91b1 2ebf db53 fce4 d1fb
00000010: 1ddf d62d d536 4c49 7f06 748a 12fb b8c4
00000020: 3bf9 a90f 7f33 411d 5abf db47 2edc e7c2
00000030: 2dca 0a3b 06bd 17be bb0e e158 e018 05fc
00000040: 0122 ecf3 7f05 b210 0413 d3c4 f9f4 b7ed
00000050: 208a 3932 13f8 1125 b0ec 9c4d 1c2f fe98
00000060: 66ee 33ca 2d72 fecf 8138 cf22 0de6 ebb3
00000070: d2ad e71b fa01 e3ad f900 e1e1 e301 1726
00000080: 4b16 627f 53e0 0fc9 e64f fc3a 3ac3 ee7f
00000090: f4cd 41c4 0fb8 0beb 9761 039a 6bd6 e107
000000a0: 1803 555b 81f7 d4e1 2ed4 ddd5 0fbd f847
000000b0: 5ebf ef41 d815 1bcf 054d f69d 697f fb1b
000000c0: ed0e b4ba d304 195d 3295 3c59 dbad d01a
000000d0: 4b0f 44f8 86d2 dcfd ed33 2917 b313 ff1c
000000e0: dbe8 bb1a f4d2 fd26 4cef 91ef 0bdb 0310
000000f0: 7f1f b9c3 5b06 b23b e0c2 0831 ef36 10ad
-101 -57 43 -72 60 -55 -111 -79
46 -65 -37 83 -4 -28 -47 -5
29 -33 -42 45 -43 54 76 73
127 6 116 -118 18 -5 -72 -60
59 -7 -87 15 127 51 65 29
90 -65 -37 71 46 -36 -25 -62
45 -54 10 59 6 -67 23 -66
-69 14 -31 88 -32 24 5 -4
1 34 -20 -13 127 5 -78 16
4 19 -45 -60 -7 -12 -73 -19
32 -118 57 50 19 -8 17 37
-80 -20 -100 77 28 47 -2 -104
102 -18 51 -54 45 114 -2 -49
-127 56 -49 34 13 -26 -21 -77
-46 -83 -25 27 -6 1 -29 -83
-7 0 -31 -31 -29 1 23 38
75 22 98 127 83 -32 15 -55
-26 79 -4 58 58 -61 -18 127
-12 -51 65 -60 15 -72 11 -21
-105 97 3 -102 107 -42 -31 7
24 3 85 91 -127 -9 -44 -31
46 -44 -35 -43 15 -67 -8 71
94 -65 -17 65 -40 21 27 -49
5 77 -10 -99 105 127 -5 27
-19 14 -76 -70 -45 4 25 93
50 -107 60 89 -37 -83 -48 26
75 15 68 -8 -122 -46 -36 -3
-19 51 41 23 -77 19 -1 28
-37 -24 -69 26 -12 -46 -3 38
76 -17 -111 -17 11 -37 3 16
127 31 -71 -61 91 6 -78 59
-32 -62 8 49 -17 54 16 -83
