models/resnet14/resnet14-model-optimized.tflite (tflite, 203664 bytes, 16 tensors)

model/dense/MatMul i1 [10, 64] scale=0.010898357 zero_point=0
-0.11988193 -0.610308 -0.06539014 -0.37054414 -0.5449179 -0.5449179 0.09808522 0.2833573
0.457731 -0.17437372 0.17437372 -0.65390146 0.33784908 0.41413757 -0.09808522 0.16347536
-0.44683266 0.08718686 0.18527207 0.27245894 -0.11988193 0.09808522 -0.4359343 -0.44683266
-0.09808522 -0.44683266 -0.27245894 0.305154 0.2506622 0.32695073 -0.6430031 -0.37054414
-0.305154 -0.17437372 -0.457731 -0.18527207 0.2506622 -0.11988193 -0.6430031 -0.21796715
0.31605235 0.08718686 0.0762885 0.010898357 0.09808522 0.05449179 0.2288655 -0.44683266
0.305154 0.34874743 0.40323922 -0.40323922 0.37054414 0.5231211 -0.23976386 -0.78468174
0.41413757 0.17437372 0.09808522 0.35964578 -0.10898358 -0.37054414 0.11988193 -0.16347536
-0.610308 0.49042606 -0.31605235 -0.457731 0.35964578 0.41413757 -0.40323922 -0.305154
0.18527207 -0.26156056 -0.42503592 -0.18527207 0.0762885 -0.40323922 -0.44683266 -0.49042606
-0.29425564 0.57761294 0.19617043 0.34874743 0.44683266 -0.41413757 0.4795277 -0.8391735
-0.69749486 -0.31605235 -0.0762885 -0.6865965 0.51222277 0.5667146 0.4795277 -0.42503592
0.31605235 -0.152577 -0.8718686 -0.37054414 -0.88276696 0.26156056 -0.39234087 0.35964578
-0.7737834 -0.49042606 0.4795277 0.23976386 -0.0762885 0.457731 0.42503592 0.19617043
0.34874743 0.0762885 -0.05449179 -0.06539014 0.4795277 0.010898357 -0.57761294 -0.04359343
-0.13078028 -0.7410883 0.08718686 0.010898357 0.21796715 0.305154 0.0 -0.2288655
0.0762885 0.16347536 0.4359343 -0.10898358 0.33784908 0.35964578 0.2506622 -0.2833573
-0.62120634 -0.08718686 0.35964578 0.11988193 -0.31605235 -0.41413757 0.23976386 -0.05449179
0.33784908 -0.44683266 -0.457731 -0.49042606 -0.152577 0.08718686 -0.010898357 0.32695073
0.2288655 0.2288655 -0.49042606 -0.2288655 -0.37054414 0.17437372 -0.0762885 -0.27245894
-0.11988193 0.19617043 0.010898357 -0.08718686 0.2288655 -0.06539014 -0.7737834 0.11988193
0.08718686 0.457731 -0.32695073 -0.457731 0.10898358 0.14167865 -0.37054414 0.46862936
-0.17437372 0.55581623 -0.06539014 -0.5885113 -0.29425564 0.41413757 0.20706879 0.44683266
0.46862936 -0.05449179 -0.19617043 0.21796715 -0.51222277 -0.65390146 -0.17437372 0.305154
0.16347536 -0.2506622 -0.29425564 -0.04359343 -0.19617043 0.152577 0.14167865 -0.31605235
0.14167865 0.10898358 0.29425564 0.03269507 0.42503592 -0.03269507 0.021796715 0.16347536
-0.19617043 -0.40323922 0.35964578 -0.7083932 0.57761294 -0.21796715 0.04359343 -0.38144252
0.152577 0.29425564 0.021796715 0.31605235 0.39234087 -0.13078028 0.26156056 0.39234087
-0.13078028 -0.021796715 0.21796715 0.32695073 0.21796715 -0.35964578 0.05449179 -0.20706879
-0.06539014 -0.32695073 0.08718686 0.17437372 -0.37054414 -0.2506622 -0.62120634 -0.10898358
-0.40323922 -0.31605235 -0.2833573 -0.08718686 -0.33784908 0.26156056 0.31605235 0.26156056
-0.457731 -0.14167865 -0.05449179 -0.34874743 0.33784908 -0.10898358 0.021796715 0.39234087
00000000: f5c8 fade cece 091a 2af0 10c4 1f26 f70f
00000010: d708 1119 f509 d8d7 f7d7 e71c 171e c5de
00000020: e4f0 d6ef 17f5 c5ec 1d08 0701 0905 15d7
00000030: 1c20 25db 2230 eab8 2610 0921 f6de 0bf1
00000040: c82d e3d6 2126 dbe4 11e8 d9ef 07db d7d3
00000050: e535 1220 29da 2cb3 c0e3 f9c1 2f34 2cd9
00000060: 1df2 b0de af18 dc21 b9d3 2c16 f92a 2712
00000070: 2007 fbfa 2c01 cbfc f4bc 0801 141c 00eb
00000080: 070f 28f6 1f21 17e6 c7f8 210b e3da 16fb
00000090: 1fd7 d6d3 f208 ff1e 1515 d3eb de10 f9e7
000000a0: f512 01f8 15fa b90b 082a e2d6 0a0d de2b
000000b0: f033 faca e526 1329 2bfb ee14 d1c4 f01c
000000c0: 0fe9 e5fc ee0e 0de3 0d0a 1b03 27fd 020f
000000d0: eedb 21bf 35ec 04dd 0e1b 021d 24f4 1824
000000e0: f4fe 141e 14df 05ed fae2 0810 dee9 c7f6
000000f0: dbe3 e6f8 e118 1d18 d6f3 fbe0 1ff6 0224

model/conv2d_14/Conv2D i1 [64, 3, 3, 64]
-58 -17 41 30 62 -65 -30 -52
-7 -8 17 -4 -24 -19 -70 -55
-24 45 -41 -12 23 14 -36 -17
-9 12 96 121 -67 -23 36 6
11 -29 15 -64 -55 -26 -64 -1
67 -25 48 -61 37 -68 -51 -80
1 -18 16 -20 78 29 91 27
-53 18 64 5 7 23 -58 83
-39 -10 9 -13 45 -112 -51 -37
7 -4 -48 26 -36 -19 -84 -43
2 5 7 -26 36 4 -42 8
45 14 73 70 -23 -12 18 -12
16 -62 -2 -81 -35 -35 -82 21
25 -1 25 -43 43 -8 -34 -31
-14 -36 -27 33 67 -26 63 -55
-28 6 15 -8 -17 6 -74 127
-9 6 13 45 46 -85 -49 -7
10 26 4 42 -19 -11 -49 -38
11 -21 -23 37 10 20 -51 -25
33 41 41 61 -38 0 -8 -33
31 -39 41 -81 12 -8 -83 17
58 -34 109 -57 72 -17 -65 21
-20 -20 -6 87 68 -5 48 -31
-43 24 38 24 9 -18 -33 104
-101 -17 49 15 51 -40 -37 -54
-42 -1 48 1 -31 -49 -69 -32
-5 -13 -52 -16 -8 -20 -47 -17
-20 16 38 81 -36 -5 38 16
-20 10 14 -61 -56 -8 -56 -17
-6 -13 12 -71 9 -62 -26 -63
-30 -17 2 -40 67 22 56 -8
-32 7 37 -22 26 4 -36 54
00000000: c6ef 291e 3ebf e2cc f9f8 11fc e8ed bac9
00000010: e82d d7f4 170e dcef f70c 6079 bde9 2406
00000020: 0be3 0fc0 c9e6 c0ff 43e7 30c3 25bc cdb0
00000030: 01ee 10ec 4e1d 5b1b cb12 4005 0717 c653
00000040: d9f6 09f3 2d90 cddb 07fc d01a dced acd5
00000050: 0205 07e6 2404 d608 2d0e 4946 e9f4 12f4
00000060: 10c2 feaf dddd ae15 19ff 19d5 2bf8 dee1
00000070: f2dc e521 43e6 3fc9 e406 0ff8 ef06 b67f
00000080: f706 0d2d 2eab cff9 0a1a 042a edf5 cfda
00000090: 0beb e925 0a14 cde7 2129 293d da00 f8df
000000a0: 1fd9 29af 0cf8 ad11 3ade 6dc7 48ef bf15
000000b0: ecec fa57 44fb 30e1 d518 2618 09ee df68
000000c0: 9bef 310f 33d8 dbca d6ff 3001 e1cf bbe0
000000d0: fbf3 ccf0 f8ec d1ef ec10 2651 dcfb 2610
000000e0: ec0a 0ec3 c8f8 c8ef faf3 0cb9 09c2 e6c1
000000f0: e2ef 02d8 4316 38f8 e007 25ea 1a04 dc36

model/conv2d_13/Conv2D i1 [64, 3, 3, 64]
-40 65 -74 8 47 2 4 49
-34 -29 -65 -24 40 -81 -6 27
-38 -44 -39 63 -9 15 40 -61
-64 -56 -29 -38 13 -23 -4 34
-5 -23 -62 50 -59 -61 48 -17
-49 3 -89 -3 46 54 -31 -62
-51 71 -6 -57 -4 -25 -82 -7
6 39 -71 -72 38 -27 -10 93
-40 9 -49 -25 41 -35 -18 23
-78 -3 -52 -35 26 -88 -46 52
-7 -27 -63 39 -41 -7 -14 -57
-19 -30 -3 -13 20 -82 36 -3
23 -18 -87 32 -27 -3 26 -55
-67 -2 -44 -67 22 21 -56 -5
-42 7 2 -39 9 24 -84 26
8 27 -72 -63 22 -19 -92 66
-34 -18 -29 -14 73 -45 -57 -19
-54 14 -68 -65 -1 -27 -51 15
-33 24 25 55 2 -28 3 -32
-3 -16 -62 49 -50 -96 27 9
26 4 -79 -55 -78 29 -8 9
-121 3 8 -44 -84 20 -46 47
-51 7 -6 -31 18 8 -115 49
33 34 -72 -55 63 -9 -66 -47
1 32 18 51 58 28 6 4
-47 15 -45 25 47 -53 -27 37
-9 31 -85 36 27 45 85 26
-71 15 -14 -25 -7 42 4 64
-26 32 -38 -21 -14 8 61 19
-2 -22 -20 15 -35 127 44 -21
-33 27 28 -5 -74 -18 -47 -26
11 14 -55 -68 -36 -19 48 37
00000000: d841 b608 2f02 0431 dee3 bfe8 28af fa1b
00000010: dad4 d93f f70f 28c3 c0c8 e3da 0de9 fc22
00000020: fbe9 c232 c5c3 30ef cf03 a7fd 2e36 e1c2
00000030: cd47 fac7 fce7 aef9 0627 b9b8 26e5 f65d
00000040: d809 cfe7 29dd ee17 b2fd ccdd 1aa8 d234
00000050: f9e5 c127 d7f9 f2c7 ede2 fdf3 14ae 24fd
00000060: 17ee a920 e5fd 1ac9 bdfe d4bd 1615 c8fb
00000070: d607 02d9 0918 ac1a 081b b8c1 16ed a442
00000080: deee e3f2 49d3 c7ed ca0e bcbf ffe5 cd0f
00000090: df18 1937 02e4 03e0 fdf0 c231 cea0 1b09
000000a0: 1a04 b1c9 b21d f809 8703 08d4 ac14 d22f
000000b0: cd07 fae1 1208 8d31 2122 b8c9 3ff7 bed1
000000c0: 0120 1233 3a1c 0604 d10f d319 2fcb e525
000000d0: f71f ab24 1b2d 551a b90f f2e7 f92a 0440
000000e0: e620 daeb f208 3d13 feea ec0f dd7f 2ceb
000000f0: df1b 1cfb b6ee d1e6 0b0e c9bc dced 3025

model/conv2d_12/Conv2D i1 [64, 1, 1, 32]
-29 31 -3 -36 -127 -29 -22 46
-29 -54 7 -56 -39 31 -45 4
10 -27 -8 -25 -71 -86 -44 -36
11 -67 -29 -5 -31 -16 26 63
45 -48 -50 -45 7 -70 -21 -127
-42 -57 -40 -58 -95 12 -19 44
-19 -77 24 -66 -30 1 -42 -54
-43 -105 -46 -25 -65 -20 -38 32
-37 -26 -96 24 -34 -11 -60 -2
30 -49 -38 37 11 6 -75 -49
-38 -82 36 -23 -127 -16 -28 11
-10 5 -29 36 -10 35 50 -44
-64 19 1 -28 8 -74 -52 -76
-83 -30 -103 -14 -51 -46 -23 -19
35 -4 6 -56 27 17 -68 19
8 -56 -88 -2 -127 55 -2 -34
27 13 -55 -42 -60 -31 46 -7
3 -58 -1 24 -100 9 -98 -70
-7 -41 1 -55 10 -9 -54 -99
67 -6 -51 -29 127 9 -57 -28
24 -20 -4 -43 -14 -39 15 11
-68 -6 -57 15 -59 20 -44 -42
-27 -86 3 -82 65 27 -32 -46
-22 28 64 -41 19 28 -127 -12
12 -13 56 -42 -116 -115 -35 -80
-42 -60 -127 53 -45 6 9 -44
-41 -89 7 -70 -13 66 -18 -75
26 -54 29 -63 10 -37 -20 37
5 -64 -10 56 0 -91 6 -56
-62 -53 -61 -92 -127 -2 -44 19
9 19 -8 -59 41 37 -117 -38
-100 -101 -37 -14 -47 109 -48 -79
00000000: e31f fddc 81e3 ea2e e3ca 07c8 d91f d304
00000010: 0ae5 f8e7 b9aa d4dc 0bbd e3fb e1f0 1a3f
00000020: 2dd0 ced3 07ba eb81 d6c7 d8c6 a10c ed2c
00000030: edb3 18be e201 d6ca d597 d2e7 bfec da20
00000040: dbe6 a018 def5 c4fe 1ecf da25 0b06 b5cf
00000050: daae 24e9 81f0 e40b f605 e324 f623 32d4
00000060: c013 01e4 08b6 ccb4 ade2 99f2 cdd2 e9ed
00000070: 23fc 06c8 1b11 bc13 08c8 a8fe 8137 fede
00000080: 1b0d c9d6 c4e1 2ef9 03c6 ff18 9c09 9eba
00000090: f9d7 01c9 0af7 ca9d 43fa cde3 7f09 c7e4
000000a0: 18ec fcd5 f2d9 0f0b bcfa c70f c514 d4d6
000000b0: e5aa 03ae 411b e0d2 ea1c 40d7 131c 81f4
000000c0: 0cf3 38d6 8c8d ddb0 d6c4 8135 d306 09d4
000000d0: d7a7 07ba f342 eeb5 1aca 1dc1 0adb ec25
000000e0: 05c0 f638 00a5 06c8 c2cb c3a4 81fe d413
000000f0: 0913 f8c5 2925 8bda 9c9b dbf2 d16d d0b1

model/conv2d_11/Conv2D i1 [64, 3, 3, 64]
-3 80 -20 16 -52 42 -40 49
28 -57 46 5 21 11 -66 -76
50 23 32 3 55 -13 -36 37
-36 -6 59 -79 -5 34 -18 -7
52 25 -72 14 -69 -57 -10 -34
62 -14 55 -81 48 27 -25 -43
-20 -47 -10 16 21 -43 -13 -20
5 48 12 14 49 -56 -70 25
-22 44 1 13 -56 52 10 43
37 -52 55 0 3 44 6 -33
34 16 24 20 28 16 -17 -3
-50 -2 55 -58 -59 14 -9 52
13 10 -32 34 -26 -55 -39 17
17 -10 -6 -30 -10 16 -16 -34
50 -25 59 -37 -58 26 34 31
-32 38 -36 -37 50 25 -31 24
-46 7 49 -4 -45 6 -77 17
-27 -36 52 -57 -66 89 6 6
-19 15 29 59 83 -94 -40 18
31 -14 76 -22 15 -12 28 7
18 51 -9 73 18 -15 -48 18
41 5 -2 41 -56 -21 -31 -73
-9 -18 58 -9 -19 -21 66 -31
-28 25 -5 -77 57 44 -21 46
-8 0 17 31 -108 76 -18 6
36 1 -28 -31 36 1 -21 35
20 -42 -42 63 13 36 -54 28
-62 14 66 -38 18 30 8 68
57 -21 -66 14 -77 33 22 11
34 43 27 -35 60 56 -15 27
-45 11 -26 -10 -20 -21 -38 20
-29 10 93 49 -32 17 -11 55
00000000: fd50 ec10 cc2a d831 1cc7 2e05 150b beb4
00000010: 3217 2003 37f3 dc25 dcfa 3bb1 fb22 eef9
00000020: 3419 b80e bbc7 f6de 3ef2 37af 301b e7d5
00000030: ecd1 f610 15d5 f3ec 0530 0c0e 31c8 ba19
00000040: ea2c 010d c834 0a2b 25cc 3700 032c 06df
00000050: 2210 1814 1c10 effd cefe 37c6 c50e f734
00000060: 0d0a e022 e6c9 d911 11f6 fae2 f610 f0de
00000070: 32e7 3bdb c61a 221f e026 dcdb 3219 e118
00000080: d207 31fc d306 b311 e5dc 34c7 be59 0606
00000090: ed0f 1d3b 53a2 d812 1ff2 4cea 0ff4 1c07
000000a0: 1233 f749 12f1 d012 2905 fe29 c8eb e1b7
000000b0: f7ee 3af7 edeb 42e1 e419 fbb3 392c eb2e
000000c0: f800 111f 944c ee06 2401 e4e1 2401 eb23
000000d0: 14d6 d63f 0d24 ca1c c20e 42da 121e 0844
000000e0: 39eb be0e b321 160b 222b 1bdd 3c38 f11b
000000f0: d30b e6f6 eceb da14 e30a 5d31 e011 f537

model/conv2d_10/Conv2D i1 [64, 3, 3, 32]
-27 22 -23 -12 -19 -5 -53 13
-71 -1 4 2 5 -60 41 -51
-62 -7 -10 -28 -4 -39 58 18
-30 -38 17 -18 0 -21 45 -38
-86 -6 -36 18 -23 13 -57 -75
-70 41 30 -2 34 -66 13 -20
-28 17 59 -34 25 15 7 91
-28 -17 25 11 20 3 34 -5
4 -11 -56 2 -12 -20 30 -5
-24 -37 -17 -16 23 30 -5 -6
-66 -21 74 15 1 70 -22 9
-33 16 -57 5 -17 -28 12 29
-25 22 -51 18 -52 34 -26 -5
-72 -1 38 40 45 9 31 -45
-88 -14 9 7 -26 -95 43 66
-66 -36 40 -32 -32 -8 1 -5
-21 -18 -39 20 -48 57 -46 -83
-61 37 -11 10 34 -33 12 -10
-8 11 59 -13 -14 -23 36 127
-54 -45 70 28 11 3 31 42
-24 -49 -34 24 -9 23 -2 11
-31 -21 -28 6 40 7 -23 -30
-33 -24 62 27 19 40 10 43
-32 29 -6 12 -58 -35 -19 41
13 59 -36 2 -19 -4 -11 23
-69 48 34 28 -2 -18 8 -5
-70 -13 -30 -11 -41 -96 12 -6
-44 -37 19 0 7 -27 -17 -18
-5 1 -55 -18 -12 47 -51 7
-40 47 29 -1 34 -29 7 1
-43 37 -15 19 -11 -54 -6 57
-8 -20 71 7 14 -14 16 -24
00000000: e516 e9f4 edfb cb0d b9ff 0402 05c4 29cd
00000010: c2f9 f6e4 fcd9 3a12 e2da 11ee 00eb 2dda
00000020: aafa dc12 e90d c7b5 ba29 1efe 22be 0dec
00000030: e411 3bde 190f 075b e4ef 190b 1403 22fb
00000040: 04f5 c802 f4ec 1efb e8db eff0 171e fbfa
00000050: beeb 4a0f 0146 ea09 df10 c705 efe4 0c1d
00000060: e716 cd12 cc22 e6fb b8ff 2628 2d09 1fd3
00000070: a8f2 0907 e6a1 2b42 bedc 28e0 e0f8 01fb
00000080: ebee d914 d039 d2ad c325 f50a 22df 0cf6
00000090: f80b 3bf3 f2e9 247f cad3 461c 0b03 1f2a
000000a0: e8cf de18 f717 fe0b e1eb e406 2807 e9e2
000000b0: dfe8 3e1b 1328 0a2b e01d fa0c c6dd ed29
000000c0: 0d3b dc02 edfc f517 bb30 221c feee 08fb
000000d0: baf3 e2f5 d7a0 0cfa d4db 1300 07e5 efee
000000e0: fb01 c9ee f42f cd07 d82f 1dff 22e3 0701
000000f0: d525 f113 f5ca fa39 f8ec 4707 0ef2 10e8

model/conv2d_9/Conv2D i1 [32, 3, 3, 32]
-8 -2 11 -38 -71 -23 -24 -54
-61 -17 32 37 -46 -14 -37 13
12 -64 32 -16 -76 -2 -44 17
8 -29 -37 -27 -2 14 -50 -6
42 46 -7 -39 -72 -2 8 -89
-56 -14 36 44 -38 -32 -24 -42
1 -50 13 6 -41 9 -15 1
19 -35 -48 -35 -3 20 -51 -16
17 6 -32 -50 -53 -50 -16 -127
-4 -18 41 10 -7 15 -31 -51
-41 -84 7 -10 21 -15 62 -52
25 -31 31 -28 -25 -5 -4 -30
37 38 -6 -6 -51 -16 18 -60
-10 45 0 29 -31 -8 -4 25
27 -9 -23 -14 -20 23 -30 27
-13 -1 -20 40 65 22 -15 -47
13 49 -9 -42 -57 28 60 -64
-7 46 6 53 -13 -13 17 20
0 15 -11 -5 7 46 -35 39
20 -8 -27 52 36 13 -15 0
-14 19 -42 -12 -28 -6 68 -103
7 87 51 62 -6 10 23 8
-37 -41 30 -24 5 -10 33 12
13 4 11 10 12 29 32 -18
47 -8 26 -17 -68 -42 1 -55
-11 -1 -19 5 50 52 -20 20
-7 -56 -7 25 -54 -6 -9 1
-22 -3 8 37 4 -55 13 -92
1 -5 -2 -37 -62 5 61 -41
-14 -4 -45 24 34 0 -41 9
-16 -15 -21 43 11 10 -22 14
12 1 1 25 26 -25 7 -65
00000000: f8fe 0bda b9e9 e8ca c3ef 2025 d2f2 db0d
00000010: 0cc0 20f0 b4fe d411 08e3 dbe5 fe0e cefa
00000020: 2a2e f9d9 b8fe 08a7 c8f2 242c dae0 e8d6
00000030: 01ce 0d06 d709 f101 13dd d0dd fd14 cdf0
00000040: 1106 e0ce cbce f081 fcee 290a f90f e1cd
00000050: d7ac 07f6 15f1 3ecc 19e1 1fe4 e7fb fce2
00000060: 2526 fafa cdf0 12c4 f62d 001d e1f8 fc19
00000070: 1bf7 e9f2 ec17 e21b f3ff ec28 4116 f1d1
00000080: 0d31 f7d6 c71c 3cc0 f92e 0635 f3f3 1114
00000090: 000f f5fb 072e dd27 14f8 e534 240d f100
000000a0: f213 d6f4 e4fa 4499 0757 333e fa0a 1708
000000b0: dbd7 1ee8 05f6 210c 0d04 0b0a 0c1d 20ee
000000c0: 2ff8 1aef bcd6 01c9 f5ff ed05 3234 ec14
000000d0: f9c8 f919 cafa f701 eafd 0825 04c9 0da4
000000e0: 01fb fedb c205 3dd7 f2fc d318 2200 d709
000000f0: f0f1 eb2b 0b0a ea0e 0c01 0119 1ae7 07bf

model/conv2d_8/Conv2D i1 [32, 3, 3, 32]
-12 -5 55 -127 15 31 22 19
-70 11 -20 -88 -41 23 -12 -12
-70 51 40 74 40 -23 16 -90
-61 29 22 -36 9 -12 -82 -16
7 87 8 -100 4 58 12 80
33 -49 64 -28 -30 26 42 40
-22 0 57 56 5 2 -14 -22
-38 27 42 -54 58 40 -21 -17
-52 27 -48 -74 -61 73 -64 -51
-62 -21 19 30 -5 -35 65 -90
-47 -48 75 40 -97 -58 38 -71
-78 -49 11 -54 2 51 -20 -7
27 -15 53 -118 2 17 8 12
-9 -28 -28 -48 8 15 39 -16
-27 -13 55 65 -10 -43 -4 -35
-86 23 24 -73 29 1 -11 38
14 66 -42 -72 -39 79 41 38
28 54 90 95 49 78 40 11
1 6 50 47 -63 -59 13 -31
-42 41 -43 -56 35 81 -21 16
-10 46 -61 -80 -91 74 -5 -56
-45 24 34 53 28 40 83 -61
-73 -36 57 5 -55 -78 58 -53
-119 47 -11 -31 -2 46 -37 2
15 -8 -32 -5 25 -25 -35 -26
-76 27 -61 -70 -9 17 -7 35
-4 35 28 57 -92 -58 27 -3
-85 -14 23 -91 -9 -14 23 17
-16 69 -94 -14 16 105 19 35
-6 37 34 18 -4 -2 -8 3
16 36 -9 49 -110 -40 52 -4
-53 34 -25 -38 5 24 29 7
00000000: f4fb 3781 0f1f 1613 ba0b eca8 d717 f4f4
00000010: ba33 284a 28e9 10a6 c31d 16dc 09f4 aef0
00000020: 0757 089c 043a 0c50 21cf 40e4 e21a 2a28
00000030: ea00 3938 0502 f2ea da1b 2aca 3a28 ebef
00000040: cc1b d0b6 c349 c0cd c2eb 131e fbdd 41a6
00000050: d1d0 4b28 9fc6 26b9 b2cf 0bca 0233 ecf9
00000060: 1bf1 358a 0211 080c f7e4 e4d0 080f 27f0
00000070: e5f3 3741 f6d5 fcdd aa17 18b7 1d01 f526
00000080: 0e42 d6b8 d94f 2926 1c36 5a5f 314e 280b
00000090: 0106 322f c1c5 0de1 d629 d5c8 2351 eb10
000000a0: f62e c3b0 a54a fbc8 d318 2235 1c28 53c3
000000b0: b7dc 3905 c9b2 3acb 892f f5e1 fe2e db02
000000c0: 0ff8 e0fb 19e7 dde6 b41b c3ba f711 f923
000000d0: fc23 1c39 a4c6 1bfd abf2 17a5 f7f2 1711
000000e0: f045 a2f2 1069 1323 fa25 2212 fcfe f803
000000f0: 1024 f731 92d8 34fc cb22 e7da 0518 1d07

model/conv2d_7/Conv2D i1 [32, 1, 1, 16]
7 24 22 -2 -76 -30 -62 -33
-5 -11 -44 46 -17 -127 -32 37
40 -10 -21 13 -110 51 6 -2
56 -30 30 1 -72 9 -127 32
-45 -3 26 -84 41 63 -17 -36
-127 11 -18 21 7 -5 -9 -93
37 31 -127 35 -1 -117 -23 -49
28 -126 -28 -112 -52 17 -42 58
-1 73 13 21 0 -41 13 -105
12 26 12 23 -120 -30 -127 -40
-4 37 -127 3 -23 -84 -121 49
-78 -1 71 -39 -57 1 65 -62
-8 -21 7 25 18 -20 -17 -47
1 3 -127 -10 -18 40 31 -28
55 82 -90 -29 -88 -127 -3 -51
-119 0 -93 5 -112 -35 -69 -47
7 -25 -25 -45 -85 12 -127 2
-11 -6 -31 -101 -18 -43 6 65
-42 -127 -9 -7 31 4 1 45
-19 3 -1 32 34 -15 -6 41
-9 8 -104 -127 55 -56 4 39
20 -20 -40 79 28 -125 -62 30
-114 -48 118 -62 -13 108 -75 6
105 -18 18 27 127 -28 12 -65
-127 -17 -18 22 43 -8 16 2
13 39 -71 -22 83 11 -25 -109
-19 -50 -16 39 -3 6 30 10
-1 -11 -127 15 0 3 6 88
13 -43 35 -35 -127 76 -6 29
-21 14 12 69 55 -114 -11 88
45 41 -16 -4 -6 -8 -12 -127
-16 4 -18 2 -49 -16 -17 -6
00000000: 0718 16fe b4e2 c2df fbf5 d42e ef81 e025
00000010: 28f6 eb0d 9233 06fe 38e2 1e01 b809 8120
00000020: d3fd 1aac 293f efdc 810b ee15 07fb f7a3
00000030: 251f 8123 ff8b e9cf 1c82 e490 cc11 d63a
00000040: ff49 0d15 00d7 0d97 0c1a 0c17 88e2 81d8
00000050: fc25 8103 e9ac 8731 b2ff 47d9 c701 41c2
00000060: f8eb 0719 12ec efd1 0103 81f6 ee28 1fe4
00000070: 3752 a6e3 a881 fdcd 8900 a305 90dd bbd1
00000080: 07e7 e7d3 ab0c 8102 f5fa e19b eed5 0641
00000090: d681 f7f9 1f04 012d ed03 ff20 22f1 fa29
000000a0: f708 9881 37c8 0427 14ec d84f 1c83 c21e
000000b0: 8ed0 76c2 f36c b506 69ee 121b 7fe4 0cbf
000000c0: 81ef ee16 2bf8 1002 0d27 b9ea 530b e793
000000d0: edce f027 fd06 1e0a fff5 810f 0003 0658
000000e0: 0dd5 23dd 814c fa1d eb0e 0c45 378e f558
000000f0: 2d29 f0fc faf8 f481 f004 ee02 cff0 effa

model/conv2d_6/Conv2D i1 [32, 3, 3, 32]
6 -10 18 -12 11 -89 32 -19
1 -42 -43 -36 -50 23 -67 27
-56 -71 68 8 15 4 -5 -39
87 12 10 -36 -20 -11 -28 -32
-30 8 9 0 -77 -59 -26 46
-45 -94 -35 15 24 -7 -26 -12
-14 -56 14 -2 -105 -18 -75 43
10 7 13 -28 11 -75 -30 -37
34 -41 16 -23 -79 14 -1 78
-43 -48 -89 -3 -13 21 39 -108
51 -8 -47 41 -93 39 -29 49
-9 -39 -3 -49 56 -95 -49 -2
-14 34 -11 -33 13 -60 21 -8
44 -58 -9 33 -13 -21 -85 -8
-55 -31 42 -1 -10 -47 13 -11
8 -36 -34 31 -3 57 8 -36
-4 11 25 23 -27 -19 -17 0
-14 -117 -6 43 18 -67 -49 15
-58 -88 45 10 -127 -12 -48 40
-47 -46 -50 3 16 12 -1 -41
14 4 37 -8 -43 36 -6 35
-15 -66 -12 31 4 -8 -12 -53
22 -57 -9 34 -100 20 -8 44
-47 -53 -46 7 -5 -21 -42 8
-13 39 12 -28 40 -9 33 -45
16 -20 9 -16 10 -71 -73 37
-24 13 29 -7 -16 -30 47 -22
6 -10 -49 19 21 38 -36 -27
19 26 29 7 13 -9 -3 -39
-9 -46 1 14 12 -81 -69 -22
-10 23 32 -8 -44 -32 4 5
40 -32 -82 19 14 19 -35 -20
00000000: 06f6 12f4 0ba7 20ed 01d6 d5dc ce17 bd1b
00000010: c8b9 4408 0f04 fbd9 570c 0adc ecf5 e4e0
00000020: e208 0900 b3c5 e62e d3a2 dd0f 18f9 e6f4
00000030: f2c8 0efe 97ee b52b 0a07 0de4 0bb5 e2db
00000040: 22d7 10e9 b10e ff4e d5d0 a7fd f315 2794
00000050: 33f8 d129 a327 e331 f7d9 fdcf 38a1 cffe
00000060: f222 f5df 0dc4 15f8 2cc6 f721 f3eb abf8
00000070: c9e1 2aff f6d1 0df5 08dc de1f fd39 08dc
00000080: fc0b 1917 e5ed ef00 f28b fa2b 12bd cf0f
00000090: c6a8 2d0a 81f4 d028 d1d2 ce03 100c ffd7
000000a0: 0e04 25f8 d524 fa23 f1be f41f 04f8 f4cb
000000b0: 16c7 f722 9c14 f82c d1cb d207 fbeb d608
000000c0: f327 0ce4 28f7 21d3 10ec 09f0 0ab9 b725
000000d0: e80d 1df9 f0e2 2fea 06f6 cf13 1526 dce5
000000e0: 131a 1d07 0df7 fdd9 f7d2 010e 0caf bbea
000000f0: f617 20f8 d4e0 0405 28e0 ae13 0e13 ddec

model/conv2d_5/Conv2D i1 [32, 3, 3, 16]
-38 -40 -10 -26 -38 33 -13 1
-11 -39 12 18 3 26 3 35
-40 17 -24 -16 -8 16 1 -14
-43 33 -13 21 -5 8 18 -36
-18 -5 5 -4 4 18 23 15
0 23 -16 8 5 9 20 -8
-34 21 -5 -3 6 18 -3 -44
-31 53 -40 17 -19 15 20 -24
-38 53 -3 5 8 6 0 -16
-41 127 -56 13 -28 6 24 -71
-18 43 31 15 1 12 37 18
-30 85 -27 -18 -17 2 21 -28
8 30 17 2 -20 6 14 -12
-3 15 -34 -2 -18 -38 -13 -29
12 52 21 1 27 2 22 -3
-10 90 -28 -21 -25 -15 0 -57
12 19 41 26 16 4 19 45
10 48 5 -11 22 -16 -11 3
-60 -8 -32 6 13 -21 -6 -57
4 68 -84 5 -31 18 8 7
-18 46 -116 54 -29 -71 -71 -29
-3 38 -101 -5 -39 41 16 42
-27 -19 -96 -9 0 13 11 14
3 44 -6 19 39 -7 26 3
33 65 14 43 4 -106 -55 -7
15 37 -36 -22 -126 45 4 31
49 122 -94 107 -18 -117 -80 -22
23 44 -116 27 -127 31 -11 76
60 76 -115 42 -18 -58 -46 -3
-15 -11 -95 -23 -83 5 26 20
88 31 66 -68 28 -17 -30 2
10 -11 37 -9 -23 -19 2 28
00000000: dad8 f6e6 da21 f301 f5d9 0c12 031a 0323
00000010: d811 e8f0 f810 01f2 d521 f315 fb08 12dc
00000020: eefb 05fc 0412 170f 0017 f008 0509 14f8
00000030: de15 fbfd 0612 fdd4 e135 d811 ed0f 14e8
00000040: da35 fd05 0806 00f0 d77f c80d e406 18b9
00000050: ee2b 1f0f 010c 2512 e255 e5ee ef02 15e4
00000060: 081e 1102 ec06 0ef4 fd0f defe eeda f3e3
00000070: 0c34 1501 1b02 16fd f65a e4eb e7f1 00c7
00000080: 0c13 291a 1004 132d 0a30 05f5 16f0 f503
00000090: c4f8 e006 0deb fac7 0444 ac05 e112 0807
000000a0: ee2e 8c36 e3b9 b9e3 fd26 9bfb d929 102a
000000b0: e5ed a0f7 000d 0b0e 032c fa13 27f9 1a03
000000c0: 2141 0e2b 0496 c9f9 0f25 dcea 822d 041f
000000d0: 317a a26b ee8b b0ea 172c 8c1b 811f f54c
000000e0: 3c4c 8d2a eec6 d2fd f1f5 a1e9 ad05 1a14
000000f0: 581f 42bc 1cef e202 0af5 25f7 e9ed 021c

model/conv2d_4/Conv2D i1 [16, 3, 3, 16]
-17 48 -34 -25 -21 -22 47 -109
68 17 69 24 75 40 -30 69
-15 89 -42 -31 -4 -55 16 -74
7 20 -77 2 18 72 -25 42
29 12 3 19 21 -10 0 -51
5 22 -13 11 41 62 18 47
-27 94 -15 18 -31 3 -34 -48
75 -28 105 28 48 12 -30 73
-32 107 -62 -104 -43 -12 -25 -57
1 -49 -41 -42 12 13 -55 11
38 26 -28 63 -35 67 8 -41
-24 -2 -40 -41 59 59 -5 41
-23 56 -15 48 -25 -43 60 -67
26 -53 127 48 37 15 -21 64
-93 48 -58 -74 -12 -23 -35 -49
-27 -70 -12 29 -10 23 -53 24
-83 47 -29 -42 15 85 3 -47
-15 -66 -50 48 27 68 -70 36
-24 0 24 8 -1 -46 -30 -41
-6 20 -16 -20 28 -1 -14 33
-31 -47 -58 24 -27 -115 -16 -52
-44 -8 -44 -31 -14 -22 -18 -44
0 90 0 -28 -1 9 46 -55
13 -16 10 6 -19 -33 5 17
2 52 -3 69 31 -4 -16 -15
38 -10 24 -28 26 23 4 -39
-49 -77 -97 90 -22 -111 -37 -29
3 -30 4 -67 10 -7 -34 -52
-38 81 -14 -23 -20 11 -8 -36
-2 -36 27 -64 -37 -14 -77 14
30 30 38 23 37 -24 8 0
24 24 30 -7 13 34 -44 1
00000000: ef30 dee7 ebea 2f93 4411 4518 4b28 e245
00000010: f159 d6e1 fcc9 10b6 0714 b302 1248 e72a
00000020: 1d0c 0313 15f6 00cd 0516 f30b 293e 122f
00000030: e55e f112 e103 ded0 4be4 691c 300c e249
00000040: e06b c298 d5f4 e7c7 01cf d7d6 0c0d c90b
00000050: 261a e43f dd43 08d7 e8fe d8d7 3b3b fb29
00000060: e938 f130 e7d5 3cbd 1acb 7f30 250f eb40
00000070: a330 c6b6 f4e9 ddcf e5ba f41d f617 cb18
00000080: ad2f e3d6 0f55 03d1 f1be ce30 1b44 ba24
00000090: e800 1808 ffd2 e2d7 fa14 f0ec 1cff f221
000000a0: e1d1 c618 e58d f0cc d4f8 d4e1 f2ea eed4
000000b0: 005a 00e4 ff09 2ec9 0df0 0a06 eddf 0511
000000c0: 0234 fd45 1ffc f0f1 26f6 18e4 1a17 04d9
000000d0: cfb3 9f5a ea91 dbe3 03e2 04bd 0af9 decc
000000e0: da51 f2e9 ec0b f8dc fedc 1bc0 dbf2 b30e
000000f0: 1e1e 2617 25e8 0800 1818 1ef9 0d22 d401

model/conv2d_3/Conv2D i1 [16, 3, 3, 16]
36 60 5 40 8 -53 20 -25
47 21 -37 12 0 30 -23 5
21 39 80 46 37 -45 69 -4
26 78 -37 50 -41 62 -44 -2
-21 39 37 36 28 -33 42 4
-47 71 -57 74 -67 -26 -63 -38
-11 40 -69 -66 -19 -33 -11 -2
16 50 1 -5 127 -2 -19 33
-10 -49 -51 -75 37 25 21 -12
-20 -28 18 -48 63 42 -41 -9
4 -29 -23 -96 53 52 -40 48
61 -11 -3 -59 65 63 -75 -13
-39 12 -44 -54 65 -23 -23 31
-30 -82 54 -38 20 22 14 28
-56 -43 -22 -68 64 5 23 29
-44 -7 76 -52 75 -18 27 32
-53 -15 9 -97 28 22 30 -50
-67 -80 51 -15 64 -45 -6 45
51 -127 29 103 3 -41 11 25
-45 27 -13 24 -44 55 50 -94
-81 100 -38 25 39 51 27 -43
5 -3 54 16 -46 57 14 -38
-42 0 -26 -43 -64 -6 -20 -19
24 -11 7 -43 29 -6 61 31
58 -53 15 60 -13 -9 -33 22
17 30 5 9 -62 19 -19 -85
-11 124 -7 -3 -14 67 3 -77
-23 -24 56 49 -93 44 -44 -76
70 29 -14 -56 -42 -16 -46 -21
19 -84 78 -36 6 -77 46 73
31 -106 6 51 32 -48 -35 20
40 16 -47 2 -59 7 -59 -57
00000000: 243c 0528 08cb 14e7 2f15 db0c 001e e905
00000010: 1527 502e 25d3 45fc 1a4e db32 d73e d4fe
00000020: eb27 2524 1cdf 2a04 d147 c74a bde6 c1da
00000030: f528 bbbe eddf f5fe 1032 01fb 7ffe ed21
00000040: f6cf cdb5 2519 15f4 ece4 12d0 3f2a d7f7
00000050: 04e3 e9a0 3534 d830 3df5 fdc5 413f b5f3
00000060: d90c d4ca 41e9 e91f e2ae 36da 1416 0e1c
00000070: c8d5 eabc 4005 171d d4f9 4ccc 4bee 1b20
00000080: cbf1 099f 1c16 1ece bdb0 33f1 40d3 fa2d
00000090: 3381 1d67 03d7 0b19 d31b f318 d437 32a2
000000a0: af64 da19 2733 1bd5 05fd 3610 d239 0eda
000000b0: d600 e6d5 c0fa eced 18f5 07d5 1dfa 3d1f
000000c0: 3acb 0f3c f3f7 df16 111e 0509 c213 edab
000000d0: f57c f9fd f243 03b3 e9e8 3831 a32c d4b4
000000e0: 461d f2c8 d6f0 d2eb 13ac 4edc 06b3 2e49
000000f0: 1f96 0633 20d0 dd14 2810 d102 c507 c5c7

model/conv2d_2/Conv2D i1 [16, 3, 3, 16]
-12 -93 -22 16 69 -14 -11 40
-13 -7 31 -32 -14 -62 -8 22
-20 -59 21 -2 -2 26 6 26
-41 -18 17 -28 -111 -44 -29 -45
-87 20 13 -3 51 -35 -31 -28
-54 22 54 18 -57 26 40 -1
-14 -94 35 32 87 0 32 8
-35 17 -18 -37 -31 -30 30 -4
-46 -39 66 17 8 -2 10 23
-96 18 13 -3 -127 -50 -57 1
-52 9 47 28 -13 0 -6 -19
-100 -6 42 -2 -94 14 -6 15
-32 -61 15 65 68 20 -19 26
-61 13 -9 -11 -61 -23 24 -21
-69 -10 64 53 -34 -43 -15 58
-85 -48 -22 -19 -91 -43 -43 0
-40 24 75 15 -59 -24 20 18
-99 23 41 -60 -89 4 3 -15
-7 18 19 -10 -1 8 25 30
-17 2 1 -15 15 -4 -61 -3
18 6 -16 29 -18 -21 -36 -35
-21 37 -10 -32 25 -3 -110 35
56 -1 43 -32 8 12 41 -26
11 12 22 42 -14 -22 27 16
-5 -2 7 23 9 34 71 35
-10 15 -44 -4 -24 -23 -54 33
25 -8 -43 13 3 2 42 -56
2 25 -31 -23 -16 -14 -122 47
39 -25 20 19 34 -12 50 -44
17 25 15 45 -39 -53 -5 55
-37 -3 11 21 13 18 33 27
19 41 -11 -7 18 -23 -61 -4
00000000: f4a3 ea10 45f2 f528 f3f9 1fe0 f2c2 f816
00000010: ecc5 15fe fe1a 061a d7ee 11e4 91d4 e3d3
00000020: a914 0dfd 33dd e1e4 ca16 3612 c71a 28ff
00000030: f2a2 2320 5700 2008 dd11 eedb e1e2 1efc
00000040: d2d9 4211 08fe 0a17 a012 0dfd 81ce c701
00000050: cc09 2f1c f300 faed 9cfa 2afe a20e fa0f
00000060: e0c3 0f41 4414 ed1a c30d f7f5 c3e9 18eb
00000070: bbf6 4035 ded5 f13a abd0 eaed a5d5 d500
00000080: d818 4b0f c5e8 1412 9d17 29c4 a704 03f1
00000090: f912 13f6 ff08 191e ef02 01f1 0ffc c3fd
000000a0: 1206 f01d eeeb dcdd eb25 f6e0 19fd 9223
000000b0: 38ff 2be0 080c 29e6 0b0c 162a f2ea 1b10
000000c0: fbfe 0717 0922 4723 f60f d4fc e8e9 ca21
000000d0: 19f8 d50d 0302 2ac8 0219 e1e9 f0f2 862f
000000e0: 27e7 1413 22f4 32d4 1119 0f2d d9cb fb37
000000f0: dbfd 0b15 0d12 211b 1329 f5f9 12e9 c3fc

model/conv2d_1/Conv2D i1 [16, 3, 3, 16]
-24 -20 -14 -6 12 -6 0 60
30 0 -28 -68 -22 10 -32 17
-5 6 -21 8 39 20 7 -102
55 -10 -49 21 1 13 -52 10
23 -10 -7 9 -22 6 -4 -35
-58 27 -29 6 -5 -37 40 20
-22 7 -18 -1 14 2 29 -89
13 9 -19 44 16 0 -38 3
25 -11 -9 5 -70 3 -2 -22
-58 11 24 42 37 -42 84 8
5 -25 -16 -33 -32 21 -23 75
30 -1 58 -77 17 32 -20 3
21 -23 -26 9 -79 5 -21 18
-15 -1 46 4 19 -5 25 11
15 -11 -25 -7 -12 12 -14 79
15 0 46 -127 0 41 -14 6
-16 -6 -2 8 -6 0 21 -52
19 -50 22 33 18 22 -87 -27
-48 -8 21 -9 -37 -14 -58 16
-81 -21 -14 -41 64 15 35 -19
11 -127 46 36 -9 -47 -73 34
-19 -69 -3 -36 25 57 -23 -34
37 -86 35 11 34 -53 -2 -15
47 -83 18 -25 -27 24 -79 -71
-7 -56 -13 31 15 -8 -1 4
25 -55 0 -88 16 26 -8 -2
68 -86 6 41 47 15 49 -23
52 -23 8 -31 -1 37 -45 -16
9 -9 32 15 38 -24 93 -87
34 -17 32 1 -28 -4 -6 -27
31 -32 -39 46 38 18 45 -12
17 3 -15 6 -42 37 -35 3
00000000: e8ec f2fa 0cfa 003c 1e00 e4bc ea0a e011
00000010: fb06 eb08 2714 079a 37f6 cf15 010d cc0a
00000020: 17f6 f909 ea06 fcdd c61b e306 fbdb 2814
00000030: ea07 eeff 0e02 1da7 0d09 ed2c 1000 da03
00000040: 19f5 f705 ba03 feea c60b 182a 25d6 5408
00000050: 05e7 f0df e015 e94b 1eff 3ab3 1120 ec03
00000060: 15e9 e609 b105 eb12 f1ff 2e04 13fb 190b
00000070: 0ff5 e7f9 f40c f24f 0f00 2e81 0029 f206
00000080: f0fa fe08 fa00 15cc 13ce 1621 1216 a9e5
00000090: d0f8 15f7 dbf2 c610 afeb f2d7 400f 23ed
000000a0: 0b81 2e24 f7d1 b722 edbb fddc 1939 e9de
000000b0: 25aa 230b 22cb fef1 2fad 12e7 e518 b1b9
000000c0: f9c8 f31f 0ff8 ff04 19c9 00a8 101a f8fe
000000d0: 44aa 0629 2f0f 31e9 34e9 08e1 ff25 d3f0
000000e0: 09f7 200f 26e8 5da9 22ef 2001 e4fc fae5
000000f0: 1fe0 d92e 2612 2df4 1103 f106 d625 dd03

model/conv2d/Conv2D i1 [16, 3, 3, 3]
-38 41 35 8 -107 27 95 53
-127 -75 -4 75 46 -18 59 9
-15 -69 -124 4 68 38 -25 44
38 64 -107 -1 -67 -101 85 71
112 -89 -71 59 -48 -103 -61 36
19 -109 21 127 120 24 -80 -112
57 -6 47 -103 118 47 95 39
26 9 15 -82 -127 -42 83 21
-2 91 72 23 -72 -40 -54 -87
30 21 5 60 -31 62 -126 -3
4 57 -39 17 -16 -101 21 30
92 16 13 -27 53 -65 -94 -61
83 -127 -38 -5 74 49 10 60
-25 67 -100 15 19 7 127 84
22 39 30 -5 0 -4 9 -81
-40 41 -119 -75 -46 22 -26 6
16 -42 -72 -51 61 30 46 -52
7 16 -28 -11 3 2 -11 32
-16 -26 19 30 -3 12 95 -81
57 -17 -59 8 49 -74 -68 127
-9 8 12 -53 17 -16 -45 108
76 -16 -43 -52 -92 77 -22 -73
-52 21 7 11 39 4 -8 -44
72 -55 -35 127 -20 -127 -81 -50
17 39 61 71 54 -36 36 51
0 25 78 17 -43 -89 -21 58
46 -3 -15 -64 -4 -10 -45 25
22 -24 10 50 -34 -105 -74 22
29 60 87 120 49 66 -22 22
-82 -45 -96 -108 -54 -53 -62 49
26 127 21 -58 44 -5 14 -76
-43 -34 45 -24 -109 -19 -22 3
00000000: da29 2308 951b 5f35 81b5 fc4b 2eee 3b09
00000010: f1bb 8404 4426 e72c 2640 95ff bd9b 5547
00000020: 70a7 b93b d099 c324 1393 157f 7818 b090
00000030: 39fa 2f99 762f 5f27 1a09 0fae 81d6 5315
00000040: fe5b 4817 b8d8 caa9 1e15 053c e13e 82fd
00000050: 0439 d911 f09b 151e 5c10 0de5 35bf a2c3
00000060: 5381 dafb 4a31 0a3c e743 9c0f 1307 7f54
00000070: 1627 1efb 00fc 09af d829 89b5 d216 e606
00000080: 10d6 b8cd 3d1e 2ecc 0710 e4f5 0302 f520
00000090: f0e6 131e fd0c 5faf 39ef c508 31b6 bc7f
000000a0: f708 0ccb 11f0 d36c 4cf0 d5cc a44d eab7
000000b0: cc15 070b 2704 f8d4 48c9 dd7f ec81 afce
000000c0: 1127 3d47 36dc 2433 0019 4e11 d5a7 eb3a
000000d0: 2efd f1c0 fcf6 d319 16e8 0a32 de97 b616
000000e0: 1d3c 5778 3142 ea16 aed3 a094 cacb c231
000000f0: 1a7f 15c6 2cfb 0eb4 d5de 2de8 93ed ea03
