models/resnet32/resnet32-model-optimized.tflite (tflite, 527416 bytes, 34 tensors)

model/dense/MatMul i1 [10, 64] scale=0.005802283 zero_point=0
00000000: 180c 2af3 9cdc 1036 142a 1808 e5b3 fbf0
00000010: 05e7 d7f2 ec11 1627 2317 f508 cec9 0219
00000020: 1f1c 1209 fcb9 1fd9 faff f508 dd00 0d2f
00000030: 1d18 1fd1 902a de27 1ae8 02f1 26d9 07ff
00000040: 2440 f235 1b3f ed16 030c 3a2c 21ef c710
00000050: 071c c80f 16e3 d4e5 ed30 0a28 ae21 ce0d
00000060: 3000 8712 f823 1aed 1816 e7fb cdd2 30c5
00000070: df1f 0dba e1d4 d4d5 b015 17d9 042a ebb9
00000080: d0c4 0db7 f4ed cee0 b6ba d2e4 0803 e212
00000090: 0e05 0a19 0d26 0719 300f 2706 fc07 0738
000000a0: f7fc 0818 00c0 f805 31fc 15bf fe1f e8f9
000000b0: 03ef 201f 3f06 f607 0ee8 0a03 2819 1d2a
000000c0: e4cb 1524 ea1b 061c 13ed d2f1 cb0c 05db
000000d0: eae7 1ef7 12df e9b8 1dfe 1ddd 161f 110f
000000e0: b626 1ee6 390e f514 3bec 26fc 31e0 f71f
000000f0: f419 fef3 09e7 07ee e604 0912 1821 1be9
0.1392548 0.0696274 0.24369588 -0.07542968 -0.5802283 -0.20888218 0.09283653 0.3133233
0.11604566 0.24369588 0.1392548 0.046418265 -0.15666164 -0.4467758 -0.029011415 -0.09283653
0.029011415 -0.14505708 -0.23789361 -0.08123197 -0.11604566 0.09863881 0.12765023 0.22628903
0.20307991 0.1334525 -0.063825116 0.046418265 -0.29011416 -0.31912556 0.011604566 0.14505708
0.17987077 0.16246393 0.10444109 0.052220546 -0.023209132 -0.4119621 0.17987077 -0.22628903
-0.0348137 -0.005802283 -0.063825116 0.046418265 -0.20307991 0.0 0.07542968 0.2727073
0.1682662 0.1392548 0.17987077 -0.2727073 -0.64985573 0.24369588 -0.19727762 0.22628903
0.15085936 -0.1392548 0.011604566 -0.08703425 0.22048676 -0.22628903 0.040615983 -0.005802283
0.20888218 0.37134612 -0.08123197 0.30752102 0.15666164 0.36554384 -0.11024338 0.12765023
0.01740685 0.0696274 0.3365324 0.25530046 0.19147535 -0.09863881 -0.33073014 0.09283653
0.040615983 0.16246393 -0.32492787 0.08703425 0.12765023 -0.1682662 -0.25530046 -0.15666164
-0.11024338 0.2785096 0.05802283 0.23209132 -0.47578722 0.19147535 -0.29011416 0.07542968
0.2785096 0.0 -0.70207626 0.10444109 -0.046418265 0.20307991 0.15085936 -0.11024338
0.1392548 0.12765023 -0.14505708 -0.029011415 -0.29591644 -0.266905 0.2785096 -0.3423347
-0.19147535 0.17987077 0.07542968 -0.40615982 -0.17987077 -0.25530046 -0.25530046 -0.24949817
-0.46418265 0.12184794 0.1334525 -0.22628903 0.023209132 0.24369588 -0.12184794 -0.4119621
-0.2785096 -0.348137 0.07542968 -0.42356667 -0.0696274 -0.11024338 -0.29011416 -0.18567306
-0.42936894 -0.40615982 -0.266905 -0.16246393 0.046418265 0.01740685 -0.1740685 0.10444109
0.08123197 0.029011415 0.05802283 0.14505708 0.07542968 0.22048676 0.040615983 0.14505708
0.2785096 0.08703425 0.22628903 0.0348137 -0.023209132 0.040615983 0.040615983 0.32492787
-0.052220546 -0.023209132 0.046418265 0.1392548 0.0 -0.37134612 -0.046418265 0.029011415
0.28431186 -0.023209132 0.12184794 -0.3771484 -0.011604566 0.17987077 -0.1392548 -0.040615983
0.01740685 -0.09863881 0.18567306 0.17987077 0.36554384 0.0348137 -0.05802283 0.040615983
0.08123197 -0.1392548 0.05802283 0.01740685 0.23209132 0.14505708 0.1682662 0.24369588
-0.16246393 -0.30752102 0.12184794 0.20888218 -0.12765023 0.15666164 0.0348137 0.16246393
0.11024338 -0.11024338 -0.266905 -0.08703425 -0.30752102 0.0696274 0.029011415 -0.21468447
-0.12765023 -0.14505708 0.1740685 -0.052220546 0.10444109 -0.19147535 -0.1334525 -0.41776437
0.1682662 -0.011604566 0.1682662 -0.20307991 0.12765023 0.17987077 0.09863881 0.08703425
-0.42936894 0.22048676 0.1740685 -0.15085936 0.33073014 0.08123197 -0.063825116 0.11604566
0.3423347 -0.11604566 0.22048676 -0.023209132 0.28431186 -0.18567306 -0.052220546 0.17987077
-0.0696274 0.14505708 -0.011604566 -0.07542968 0.052220546 -0.14505708 0.040615983 -0.10444109
-0.15085936 0.023209132 0.052220546 0.10444109 0.1392548 0.19147535 0.15666164 -0.1334525

model/conv2d_32/Conv2D i1 [64, 3, 3, 64]
00000000: e1ed 280d a80b d528 f9dd 5dc4 e9d5 f439
00000010: 1c03 0c25 24e8 70dd ee25 26fd 1945 bf4f
00000020: ef24 05b9 0419 0f2e ed3e 0309 50de ef04
00000030: 52d1 1709 e002 dd10 1eab 3505 eeb8 22fd
00000040: f1f5 222a b9e9 e33a efdb 35bb e3dd d834
00000050: 1e03 201a 06f1 73ca f301 f2f5 173a c665
00000060: 1022 fcb9 ea19 160f eb4e f210 51d4 ea13
00000070: 5dda f711 c300 bf0b 1bc5 400b f0bf 0a1e
00000080: 0c03 2643 aedd fe2a f2d8 33aa e8c4 f32f
00000090: 1f02 0f14 ff11 7fc6 f606 fef1 133d be6a
000000a0: 2426 f8ba 0014 10fe e95a f607 51ee f525
000000b0: 69db 130e daf9 bc23 1be2 350d 03c8 2746
000000c0: f8ee 4d0a ac0e e50e f6ea 6de8 e3f1 f912
000000d0: 1a05 e41c 32d2 61e9 fd20 071b 1033 bd43
000000e0: ea06 e7b7 e929 fb43 cc06 0a10 4c28 f200
000000f0: 0fe9 19e5 f522 f20e 31c3 271a 10ea 16dc
-31 -19 40 13 -88 11 -43 40
-7 -35 93 -60 -23 -43 -12 57
28 3 12 37 36 -24 112 -35
-18 37 38 -3 25 69 -65 79
-17 36 5 -71 4 25 15 46
-19 62 3 9 80 -34 -17 4
82 -47 23 9 -32 2 -35 16
30 -85 53 5 -18 -72 34 -3
-15 -11 34 42 -71 -23 -29 58
-17 -37 53 -69 -29 -35 -40 52
30 3 32 26 6 -15 115 -54
-13 1 -14 -11 23 58 -58 101
16 34 -4 -71 -22 25 22 15
-21 78 -14 16 81 -44 -22 19
93 -38 -9 17 -61 0 -65 11
27 -59 64 11 -16 -65 10 30
12 3 38 67 -82 -35 -2 42
-14 -40 51 -86 -24 -60 -13 47
31 2 15 20 -1 17 127 -58
-10 6 -2 -15 19 61 -66 106
36 38 -8 -70 0 20 16 -2
-23 90 -10 7 81 -18 -11 37
105 -37 19 14 -38 -7 -68 35
27 -30 53 13 3 -56 39 70
-8 -18 77 10 -84 14 -27 14
-10 -22 109 -24 -29 -15 -7 18
26 5 -28 28 50 -46 97 -23
-3 32 7 27 16 51 -67 67
-22 6 -25 -73 -23 41 -5 67
-52 6 10 16 76 40 -14 0
15 -23 25 -27 -11 34 -14 14
49 -61 39 26 16 -22 22 -36

model/conv2d_31/Conv2D i1 [64, 3, 3, 64]
00000000: deee 2b29 0126 1e27 10e8 15da e9cd c8e9
00000010: e7ef 8101 c3b7 1322 38ed 1f2b 0e46 9e20
00000020: df08 b906 3e09 0d23 d117 de14 0fc5 efe9
00000030: c817 eedb e3f0 fec9 0727 07c9 dbc7 22e6
00000040: d108 4514 f948 2122 22f4 17ed 10ca e6ec
00000050: 0838 94f1 bbc2 2029 16e9 1826 0846 a61c
00000060: e305 b20b 3d20 f730 c8f7 da00 21ea 060a
00000070: ca0e e1ca dbfe f2d2 f71f f0b5 d1bd 24d8
00000080: c208 4311 e63b 2f0a 32fa f5d2 26c1 d1e8
00000090: e82a a800 b9d9 002d 19d9 0d11 002a ad0a
000000a0: f123 a1fe 1efb 2a43 b3e0 e6f8 39ec f505
000000b0: d001 10e6 d80e 1ef0 e10c f2cb cdbb 18e9
000000c0: c2d8 0705 14d9 37e2 1bff 32db 21ec c9f1
000000d0: f315 b1f0 c6c7 f60e 0118 f8f7 0347 d926
000000e0: 13f9 bae2 0ff2 14f7 d3e0 d807 d8d4 ee07
000000f0: f6fc 2207 1205 d4d2 0222 f4d1 f5e6 3509
-34 -18 43 41 1 38 30 39
16 -24 21 -38 -23 -51 -56 -23
-25 -17 -127 1 -61 -73 19 34
56 -19 31 43 14 70 -98 32
-33 8 -71 6 62 9 13 35
-47 23 -34 20 15 -59 -17 -23
-56 23 -18 -37 -29 -16 -2 -55
7 39 7 -55 -37 -57 34 -26
-47 8 69 20 -7 72 33 34
34 -12 23 -19 16 -54 -26 -20
8 56 -108 -15 -69 -62 32 41
22 -23 24 38 8 70 -90 28
-29 5 -78 11 61 32 -9 48
-56 -9 -38 0 33 -22 6 10
-54 14 -31 -54 -37 -2 -14 -46
-9 31 -16 -75 -47 -67 36 -40
-62 8 67 17 -26 59 47 10
50 -6 -11 -46 38 -63 -47 -24
-24 42 -88 0 -71 -39 0 45
25 -39 13 17 0 42 -83 10
-15 35 -95 -2 30 -5 42 67
-77 -32 -26 -8 57 -20 -11 5
-48 1 16 -26 -40 14 30 -16
-31 12 -14 -53 -51 -69 24 -23
-62 -40 7 5 20 -39 55 -30
27 -1 50 -37 33 -20 -55 -15
-13 21 -79 -16 -58 -57 -10 14
1 24 -8 -9 3 71 -39 38
19 -7 -70 -30 15 -14 20 -9
-45 -32 -40 7 -40 -44 -18 7
-10 -4 34 7 18 5 -44 -46
2 34 -12 -47 -11 -26 53 9

model/conv2d_30/Conv2D i1 [64, 3, 3, 64]
00000000: 0038 2b10 ff10 711e 1bfe f2f1 1511 09d4
00000010: 36d6 d5ee 0aed bbe2 d005 2d10 de36 ed0f
00000020: 2936 4413 e31e 1007 d915 e7cf ed08 f703
00000030: 2423 af29 f4e0 58cf 0dc2 2229 e7fe 0166
00000040: 0c33 2325 f00a 6c30 1f05 02fe 2615 09ec
00000050: 25c5 e6ea fee7 b2df e4fe 12fa e62e 0603
00000060: 3122 2d1a f004 0c0e 1606 0ff7 ee15 0516
00000070: 4025 d016 ece9 50d4 f3de 0514 dcda f934
00000080: f820 2b15 0ef4 7f3b 57fe e814 0b07 1cfd
00000090: 28d0 d9f1 09f2 c2f4 f0f7 01f6 ce23 00ec
000000a0: 7a1c 16f8 fcf0 0111 08fa 16fc fa16 f5fe
000000b0: 44fd d529 ec15 66e0 d5e6 0837 e8f0 3024
000000c0: 0714 2303 f139 3b2b 0df9 f538 3609 32ba
000000d0: 260a d7d6 35e7 e4d3 0ef5 3232 fa34 3242
000000e0: 3a20 f304 e91f 150b f306 f610 f4ee f40b
000000f0: f324 f314 e606 4cd5 11fa 231f 15ed 1d3e
0 56 43 16 -1 16 113 30
27 -2 -14 -15 21 17 9 -44
54 -42 -43 -18 10 -19 -69 -30
-48 5 45 16 -34 54 -19 15
41 54 68 19 -29 30 16 7
-39 21 -25 -49 -19 8 -9 3
36 35 -81 41 -12 -32 88 -49
13 -62 34 41 -25 -2 1 102
12 51 35 37 -16 10 108 48
31 5 2 -2 38 21 9 -20
37 -59 -26 -22 -2 -25 -78 -33
-28 -2 18 -6 -26 46 6 3
49 34 45 26 -16 4 12 14
22 6 15 -9 -18 21 5 22
64 37 -48 22 -20 -23 80 -44
-13 -34 5 20 -36 -38 -7 52
-8 32 43 21 14 -12 127 59
87 -2 -24 20 11 7 28 -3
40 -48 -39 -15 9 -14 -62 -12
-16 -9 1 -10 -50 35 0 -20
122 28 22 -8 -4 -16 1 17
8 -6 22 -4 -6 22 -11 -2
68 -3 -43 41 -20 21 102 -32
-43 -26 8 55 -24 -16 48 36
7 20 35 3 -15 57 59 43
13 -7 -11 56 54 9 50 -70
38 10 -41 -42 53 -25 -28 -45
14 -11 50 50 -6 52 50 66
58 32 -13 4 -23 31 21 11
-13 6 -10 16 -12 -18 -12 11
-13 36 -13 20 -26 6 76 -43
17 -6 35 31 21 -19 29 62

model/conv2d_29/Conv2D i1 [64, 3, 3, 64]
00000000: 0fd4 e82f e3ee 09e9 210c 0cc1 d6e8 e3f2
00000010: b203 150b 0b29 f91d 0ec5 12bc 2822 b135
00000020: 2cda 00bd 49b6 d545 ec09 c30e d30f 0201
00000030: 1110 1401 39f7 6b0e de1a 20e0 1cbb 0229
00000040: ee21 301c f7f3 e8fb 0ee9 beb1 de11 ea0c
00000050: ccd5 ecfa f418 2002 d0c3 f812 e416 f9e5
00000060: 05d0 e8ce 13cb f94d 1323 b3ef efff e1fb
00000070: 05c3 0e4b 10f6 7200 a540 d7d1 b5ca d9e6
00000080: d852 60e3 0ad7 071e ebf8 c5cf df3e dbfb
00000090: 0ed2 da07 b9c5 2501 ef06 f431 08da 4209
000000a0: e8c6 c120 dbe0 2a4d 1b22 aace bc13 db07
000000b0: 28be f967 e6ec fded c11e 0ec9 a60a e618
000000c0: f8e7 0434 fde9 18e2 2ef7 11db fe04 c9fe
000000d0: d6df ebf6 01cf d800 0fca eec4 2edd ec49
000000e0: 26d4 0abd 3ed5 0a25 fbe6 eb0d 0b23 e7f4
000000f0: 4531 ffe3 37ee 17fb fa2e 0926 1eb8 10e9
15 -44 -24 47 -29 -18 9 -23
33 12 12 -63 -42 -24 -29 -14
-78 3 21 11 11 41 -7 29
14 -59 18 -68 40 34 -79 53
44 -38 0 -67 73 -74 -43 69
-20 9 -61 14 -45 15 2 1
17 16 20 1 57 -9 107 14
-34 26 32 -32 28 -69 2 41
-18 33 48 28 -9 -13 -24 -5
14 -23 -66 -79 -34 17 -22 12
-52 -43 -20 -6 -12 24 32 2
-48 -61 -8 18 -28 22 -7 -27
5 -48 -24 -50 19 -53 -7 77
19 35 -77 -17 -17 -1 -31 -5
5 -61 14 75 16 -10 114 0
-91 64 -41 -47 -75 -54 -39 -26
-40 82 96 -29 10 -41 7 30
-21 -8 -59 -49 -33 62 -37 -5
14 -46 -38 7 -71 -59 37 1
-17 6 -12 49 8 -38 66 9
-24 -58 -63 32 -37 -32 42 77
27 34 -86 -50 -68 19 -37 7
40 -66 -7 103 -26 -20 -3 -19
-63 30 14 -55 -90 10 -26 24
-8 -25 4 52 -3 -23 24 -30
46 -9 17 -37 -2 4 -55 -2
-42 -33 -21 -10 1 -49 -40 0
15 -54 -18 -60 46 -35 -20 73
38 -44 10 -67 62 -43 10 37
-5 -26 -21 13 11 35 -25 -12
69 49 -1 -29 55 -18 23 -5
-6 46 9 38 30 -72 16 -23

model/conv2d_28/Conv2D i1 [64, 3, 3, 64]
00000000: ebee 2d6b 07fa 0c23 ebd9 e608 ea81 af41
00000010: 03e2 b5e0 3be6 e2c3 0bda fa19 e210 f60e
00000020: ec28 f6d9 3f0a f7f1 2f26 2452 1ca5 bad5
00000030: eac7 d2d3 1404 d014 f4f6 e6e7 231e fcfb
00000040: f0db 0a1f f715 0c29 04c2 fffb d3b0 bf20
00000050: 0d07 bfca 17f1 bdbc f5d8 dffe eb1b ef02
00000060: f70a fde8 27fc dee3 1d5d ee21 1ab0 c6d1
00000070: e2e0 c1df 0e36 bbfe eafb f528 311f e420
00000080: dd0e 0414 bf38 ecf3 eacc 0b02 daa5 b7f1
00000090: 2518 c4c6 1cd6 e2a2 f7e0 f5f3 e621 0dc4
000000a0: 240d edc0 3305 e3bf 082e 0320 3eb4 d7bf
000000b0: f103 d4aa ee4a dcfc e71d 1723 4618 f215
000000c0: 1cd5 2837 ec1f ff01 d6e7 d81b 15db ec3d
000000d0: 112c 13d4 e8ed e8d5 1d17 2a03 ebe3 e545
000000e0: e90d 17e1 3503 49f8 5b09 2cd9 16c0 0bd5
000000f0: 1fd8 d707 4c0d fc28 28f3 f7d4 4023 f2e3
-21 -18 45 107 7 -6 12 35
-21 -39 -26 8 -22 -127 -81 65
3 -30 -75 -32 59 -26 -30 -61
11 -38 -6 25 -30 16 -10 14
-20 40 -10 -39 63 10 -9 -15
47 38 36 82 28 -91 -70 -43
-22 -57 -46 -45 20 4 -48 20
-12 -10 -26 -25 35 30 -4 -5
-16 -37 10 31 -9 21 12 41
4 -62 -1 -5 -45 -80 -65 32
13 7 -65 -54 23 -15 -67 -68
-11 -40 -33 -2 -21 27 -17 2
-9 10 -3 -24 39 -4 -34 -29
29 93 -18 33 26 -80 -58 -47
-30 -32 -63 -33 14 54 -69 -2
-22 -5 -11 40 49 31 -28 32
-35 14 4 20 -65 56 -20 -13
-22 -52 11 2 -38 -91 -73 -15
37 24 -60 -58 28 -42 -30 -94
-9 -32 -11 -13 -26 33 13 -60
36 13 -19 -64 51 5 -29 -65
8 46 3 32 62 -76 -41 -65
-15 3 -44 -86 -18 74 -36 -4
-25 29 23 35 70 24 -14 21
28 -43 40 55 -20 31 -1 1
-42 -25 -40 27 21 -37 -20 61
17 44 19 -44 -24 -19 -24 -43
29 23 42 3 -21 -29 -27 69
-23 13 23 -31 53 3 73 -8
91 9 44 -39 22 -64 11 -43
31 -40 -41 7 76 13 -4 40
40 -13 -9 -44 64 35 -14 -29

model/conv2d_27/Conv2D i1 [64, 3, 3, 64]
00000000: f2d4 23f0 08fe 081e f641 3102 fefe 04fa
00000010: f922 0dfe 1e24 2f20 033a 1838 3105 f50c
00000020: 141b e02c 1904 b31b 0bd2 dc35 000e edf4
00000030: c0f0 f82e f51a 590d 06e5 f3c7 ea13 3f3e
00000040: 0fe6 f0dd 0700 f6fc e710 3003 f1d2 02fa
00000050: f630 d2f2 1c21 1b28 fb40 f947 1903 1eea
00000060: fffb d33a e1e4 d5ea 0503 f225 1103 f8e2
00000070: d5fb f61f fc20 2a1f 03bc 1cc0 f8da 2149
00000080: f0e6 f9d1 eae3 f8ed d915 fbe4 efc6 a7e0
00000090: 9f29 cdf8 e744 e519 edff f049 fad7 e1c2
000000a0: 23f5 c618 b803 e718 3141 0509 24f4 17dd
000000b0: df21 0337 f80f d405 098b 38a6 0ec8 f443
000000c0: 02f3 2800 fcdc f025 20f3 f2fe efe8 351f
000000d0: 1b1e 52ed 16f7 42fe e4f3 0318 0e28 22d1
000000e0: be13 fff5 19f9 d700 19d8 f40c 1f17 e5fe
000000f0: 1ecb 2bf9 26ca 11e7 e2f1 f1e0 261e 1ded
-14 -44 35 -16 8 -2 8 30
-10 65 49 2 -2 -2 4 -6
-7 34 13 -2 30 36 47 32
3 58 24 56 49 5 -11 12
20 27 -32 44 25 4 -77 27
11 -46 -36 53 0 14 -19 -12
-64 -16 -8 46 -11 26 89 13
6 -27 -13 -57 -22 19 63 62
15 -26 -16 -35 7 0 -10 -4
-25 16 48 3 -15 -46 2 -6
-10 48 -46 -14 28 33 27 40
-5 64 -7 71 25 3 30 -22
-1 -5 -45 58 -31 -28 -43 -22
5 3 -14 37 17 3 -8 -30
-43 -5 -10 31 -4 32 42 31
3 -68 28 -64 -8 -38 33 73
-16 -26 -7 -47 -22 -29 -8 -19
-39 21 -5 -28 -17 -58 -89 -32
-97 41 -51 -8 -25 68 -27 25
-19 -1 -16 73 -6 -41 -31 -62
35 -11 -58 24 -72 3 -25 24
49 65 5 9 36 -12 23 -35
-33 33 3 55 -8 15 -44 5
9 -117 56 -90 14 -56 -12 67
2 -13 40 0 -4 -36 -16 37
32 -13 -14 -2 -17 -24 53 31
27 30 82 -19 22 -9 66 -2
-28 -13 3 24 14 40 34 -47
-66 19 -1 -11 25 -7 -41 0
25 -40 -12 12 31 23 -27 -2
30 -53 43 -7 38 -54 17 -25
-30 -15 -15 -32 38 30 29 -19

model/conv2d_26/Conv2D i1 [64, 3, 3, 64]
00000000: 2317 f42d 1fec 0b17 1d06 eee1 fab3 3bde
00000010: 0f1e 21d1 8c14 05bc 36f4 d218 fef8 d3fe
00000020: c833 4e21 f1c6 f3f4 2ad6 0f07 e7a1 e0de
00000030: d6f4 e013 f9ed 0d41 0533 081f aa51 f837
00000040: 16ee f403 fbd4 3710 12ff 0ded 1ff5 24ca
00000050: 1401 40b4 c522 19d7 10f2 d7f6 171d d20f
00000060: d82d 361d f2e3 01c0 080e fffa d4a9 d1ca
00000070: ebd7 cc2a e418 2527 c70e 2b0c b842 d824
00000080: f5f4 13f6 d8e3 6039 25e0 09ca e401 37f7
00000090: 04fe 22d2 aa43 25cf b9ff f5d0 2509 fd12
000000a0: f430 13ff f3e2 c7c9 f50d 2ffe 2ecb cbce
000000b0: e9e6 ad10 bd1f 0b4b e3fa 4efb d10d d128
000000c0: c6c9 fa30 17cc e03b f33e bffe 15b9 0af8
000000d0: d014 2f10 c0dc 3fcf 4216 d002 eadd ebe7
000000e0: 09ea f937 f0e7 cc07 e7f2 e734 e21c f5fb
000000f0: e604 ffd8 2400 e551 24f7 f45d d305 f637
35 23 -12 45 31 -20 11 23
29 6 -18 -31 -6 -77 59 -34
15 30 33 -47 -116 20 5 -68
54 -12 -46 24 -2 -8 -45 -2
-56 51 78 33 -15 -58 -13 -12
42 -42 15 7 -25 -95 -32 -34
-42 -12 -32 19 -7 -19 13 65
5 51 8 31 -86 81 -8 55
22 -18 -12 3 -5 -44 55 16
18 -1 13 -19 31 -11 36 -54
20 1 64 -76 -59 34 25 -41
16 -14 -41 -10 23 29 -46 15
-40 45 54 29 -14 -29 1 -64
8 14 -1 -6 -44 -87 -47 -54
-21 -41 -52 42 -28 24 37 39
-57 14 43 12 -72 66 -40 36
-11 -12 19 -10 -40 -29 96 57
37 -32 9 -54 -28 1 55 -9
4 -2 34 -46 -86 67 37 -49
-71 -1 -11 -48 37 9 -3 18
-12 48 19 -1 -13 -30 -57 -55
-11 13 47 -2 46 -53 -53 -50
-23 -26 -83 16 -67 31 11 75
-29 -6 78 -5 -47 13 -47 40
-58 -55 -6 48 23 -52 -32 59
-13 62 -65 -2 21 -71 10 -8
-48 20 47 16 -64 -36 63 -49
66 22 -48 2 -22 -35 -21 -25
9 -22 -7 55 -16 -25 -52 7
-25 -14 -25 52 -30 28 -11 -5
-26 4 -1 -40 36 0 -27 81
36 -9 -12 93 -45 5 -10 55

model/conv2d_25/Conv2D i1 [64, 3, 3, 64]
00000000: 1648 54be f4be e7df 2537 f025 1fbc bc1b
00000010: f71a d4ff d4eb fdf8 321c f727 a720 dee0
00000020: 16ff 3226 e7fd f4d7 cd0f e012 17ea f525
00000030: 5522 fcef f7d8 1b1e 0f81 5bff f854 30c8
00000040: 3b3d 51bc 02ce e8e1 1eed fa24 f3cf c8df
00000050: e824 d8f2 c507 06f1 0afb f520 d614 b8e6
00000060: 11da 0603 e4ff 08bf 0c2d e827 19e5 11b5
00000070: 3efd f7ef e6e9 19ef 0eba 0909 1414 ced7
00000080: 382a 5010 f2ed d1b9 f7f5 e017 d8f4 1d16
00000090: c316 f3f9 d30b eae7 3e15 f350 0a14 b8ea
000000a0: fe00 140d d910 d2ed 39f8 de43 0ded eada
000000b0: 2eda f1ef e6f5 11ed 2b15 1b13 10dd ebcc
000000c0: e6e7 063e 0744 240e f5ee c901 bfd8 c4ea
000000d0: 1f14 3624 24dc 012f aa19 21e5 01fa 13f5
000000e0: 18c6 2a4f 182c f4ec f51a fdf9 4913 be15
000000f0: de2b 101a 0dfb fddb 31fd bdf2 005b 2af7
22 72 84 -66 -12 -66 -25 -33
37 55 -16 37 31 -68 -68 27
-9 26 -44 -1 -44 -21 -3 -8
50 28 -9 39 -89 32 -34 -32
22 -1 50 38 -25 -3 -12 -41
-51 15 -32 18 23 -22 -11 37
85 34 -4 -17 -9 -40 27 30
15 -127 91 -1 -8 84 48 -56
59 61 81 -68 2 -50 -24 -31
30 -19 -6 36 -13 -49 -56 -33
-24 36 -40 -14 -59 7 6 -15
10 -5 -11 32 -42 20 -72 -26
17 -38 6 3 -28 -1 8 -65
12 45 -24 39 25 -27 17 -75
62 -3 -9 -17 -26 -23 25 -17
14 -70 9 9 20 20 -50 -41
56 42 80 16 -14 -19 -47 -71
-9 -11 -32 23 -40 -12 29 22
-61 22 -13 -7 -45 11 -22 -25
62 21 -13 80 10 20 -72 -22
-2 0 20 13 -39 16 -46 -19
57 -8 -34 67 13 -19 -22 -38
46 -38 -15 -17 -26 -11 17 -19
43 21 27 19 16 -35 -21 -52
-26 -25 6 62 7 68 36 14
-11 -18 -55 1 -65 -40 -60 -22
31 20 54 36 36 -36 1 47
-86 25 33 -27 1 -6 19 -11
24 -58 42 79 24 44 -12 -20
-11 26 -3 -7 73 19 -66 21
-34 43 16 26 13 -5 -3 -37
49 -3 -67 -14 0 91 42 -9

model/conv2d_24/Conv2D i1 [64, 1, 1, 32]
00000000: 40fc 8581 e1bb bb89 19c6 cbde 2499 b6bd
00000010: b2e5 f2ea 1e85 e6b2 0df9 b512 f9ff 0ff3
00000020: 0981 1525 b6fa ccec a702 f705 f8cd d5fc
00000030: 19fc a41a 181e 9a96 01ec 18ff dbd0 e3ac
00000040: 06f6 f5dd 1fba 81b1 f604 29f6 ecdc 01fa
00000050: fa11 07ff 090e 04f9 e7ef 09e5 e01c 02e6
00000060: f6f7 e002 c01f f1f5 d11a fa04 e9e3 fad4
00000070: f9d8 e225 e9f1 f7f3 8192 0605 fdf8 a6d8
00000080: 1a12 e9fc f0e5 2403 2916 f7ba d613 f6f7
00000090: dd81 93ec aea4 f3fa bee9 08ae c9de d422
000000a0: 28fa dcba 4eee 0228 f01c c291 a51a 17f5
000000b0: 31c3 e402 98a0 42ea 81db 1be5 ca17 093a
000000c0: f8cb f4e2 ee0c 0cec e404 f7f6 b5ed 24ef
000000d0: 0fd8 f308 f5f5 f018 e881 1bf1 01fe ee05
000000e0: 11b8 fb00 d105 0c0a b7f0 1e06 0c14 1d9c
000000f0: eeff 0b30 0a15 f49f fe81 2709 fe28 eab7
64 -4 -123 -127 -31 -69 -69 -119
25 -58 -53 -34 36 -103 -74 -67
-78 -27 -14 -22 30 -123 -26 -78
13 -7 -75 18 -7 -1 15 -13
9 -127 21 37 -74 -6 -52 -20
-89 2 -9 5 -8 -51 -43 -4
25 -4 -92 26 24 30 -102 -106
1 -20 24 -1 -37 -48 -29 -84
6 -10 -11 -35 31 -70 -127 -79
-10 4 41 -10 -20 -36 1 -6
-6 17 7 -1 9 14 4 -7
-25 -17 9 -27 -32 28 2 -26
-10 -9 -32 2 -64 31 -15 -11
-47 26 -6 4 -23 -29 -6 -44
-7 -40 -30 37 -23 -15 -9 -13
-127 -110 6 5 -3 -8 -90 -40
26 18 -23 -4 -16 -27 36 3
41 22 -9 -70 -42 19 -10 -9
-35 -127 -109 -20 -82 -92 -13 -6
-66 -23 8 -82 -55 -34 -44 34
40 -6 -36 -70 78 -18 2 40
-16 28 -62 -111 -91 26 23 -11
49 -61 -28 2 -104 -96 66 -22
-127 -37 27 -27 -54 23 9 58
-8 -53 -12 -30 -18 12 12 -20
-28 4 -9 -10 -75 -19 36 -17
15 -40 -13 8 -11 -11 -16 24
-24 -127 27 -15 1 -2 -18 5
17 -72 -5 0 -47 5 12 10
-73 -16 30 6 12 20 29 -100
-18 -1 11 48 10 21 -12 -97
-2 -127 39 9 -2 40 -22 -73

model/conv2d_23/Conv2D i1 [64, 3, 3, 64]
00000000: cefc 19d6 c2ac d019 bdf3 1aa2 fef6 e1da
00000010: ee05 a104 dff9 c319 1215 bbda e2d3 1519
00000020: c0d2 c7c0 dbe9 15d8 fb04 b906 25c8 fec7
00000030: c395 e1d6 c8b2 9eb3 13f4 d7ca d7d0 e3df
00000040: ece9 d60f f5bb fbcf e3ee 45f3 0f03 0a08
00000050: 1a04 00d6 f433 00ad 0c1d f901 fcef 76f1
00000060: ff31 bb36 dc37 1bee 21f9 95e1 e2e4 d4ab
00000070: eac8 d0d6 c4bc fdb3 e716 f9c9 ddcb 0029
00000080: 1914 2e02 e4f5 f062 c8e0 5ac4 fef7 0c32
00000090: 42d0 01a7 fb02 07ab 3e24 100a 20c9 79ad
000000a0: 0908 db1a 0823 32c4 3bd5 ac3f 29ca f8d6
000000b0: edb5 3ec9 cbc1 06bc 31db e6df e5e8 253f
000000c0: c10a f6ec 169d bedb c8fd d9cb 041a ecf4
000000d0: cffd 8bb1 0b13 d520 da09 b5ab 77e0 ee0f
000000e0: e8fd bde2 0ce6 3806 be42 c3ea dcb6 d9c8
000000f0: 15c3 b9db 96d8 997f 2ac0 9fc8 c6ab 4909
-50 -4 25 -42 -62 -84 -48 25
-67 -13 26 -94 -2 -10 -31 -38
-18 5 -95 4 -33 -7 -61 25
18 21 -69 -38 -30 -45 21 25
-64 -46 -57 -64 -37 -23 21 -40
-5 4 -71 6 37 -56 -2 -57
-61 -107 -31 -42 -56 -78 -98 -77
19 -12 -41 -54 -41 -48 -29 -33
-20 -23 -42 15 -11 -69 -5 -49
-29 -18 69 -13 15 3 10 8
26 4 0 -42 -12 51 0 -83
12 29 -7 1 -4 -17 118 -15
-1 49 -69 54 -36 55 27 -18
33 -7 -107 -31 -30 -28 -44 -85
-22 -56 -48 -42 -60 -68 -3 -77
-25 22 -7 -55 -35 -53 0 41
25 20 46 2 -28 -11 -16 98
-56 -32 90 -60 -2 -9 12 50
66 -48 1 -89 -5 2 7 -85
62 36 16 10 32 -55 121 -83
9 8 -37 26 8 35 50 -60
59 -43 -84 63 41 -54 -8 -42
-19 -75 62 -55 -53 -63 6 -68
49 -37 -26 -33 -27 -24 37 63
-63 10 -10 -20 22 -99 -66 -37
-56 -3 -39 -53 4 26 -20 -12
-49 -3 -117 -79 11 19 -43 32
-38 9 -75 -85 119 -32 -18 15
-24 -3 -67 -30 12 -26 56 6
-66 66 -61 -22 -36 -74 -39 -56
21 -61 -71 -37 -106 -40 -103 127
42 -64 -97 -56 -58 -85 73 9

model/conv2d_22/Conv2D i1 [64, 3, 3, 32]
00000000: f2e8 09f3 21e7 12f7 f622 3502 dbfd 0dec
00000010: e2f3 d92d cee4 daf4 bfda 0af2 eafc 110b
00000020: eaf7 0905 e0de 100e 0d20 191f e1fd ff40
00000030: e3de a2e9 c3e1 ce02 de14 27d4 09b6 e82f
00000040: 00ea 150d f71a 13eb cc2c 2607 e01b ee22
00000050: fff7 bd1c cee8 f2fc f7e6 06e1 04e0 fd17
00000060: ddfa 07e9 ec03 2cf9 202c ed09 d2d8 f919
00000070: ddc1 c5ec f5e0 d216 f818 4806 1fb0 c41f
00000080: c2f6 ddee dfe8 67fb 37eb fa42 b8bf ce41
00000090: dad9 c5fc d6dd df07 d72c 39dd 0781 a503
000000a0: fff0 e7fd e9e5 2cf9 0301 db04 cbfd e638
000000b0: dbd2 d3dc e1f4 e8ff cef3 130a f7bc d105
000000c0: 02e4 0c08 fb0f 05f8 fd02 f617 f1e0 e021
000000d0: 0ad3 d02f 001a bc18 14ef 13fc 18bc c3f2
000000e0: c3f5 e61e d31d 18ed efe5 eb16 d2e4 bd07
000000f0: d8b2 dcbd fcf8 b807 0c05 160a 0ba5 baf0
-14 -24 9 -13 33 -25 18 -9
-10 34 53 2 -37 -3 13 -20
-30 -13 -39 45 -50 -28 -38 -12
-65 -38 10 -14 -22 -4 17 11
-22 -9 9 5 -32 -34 16 14
13 32 25 31 -31 -3 -1 64
-29 -34 -94 -23 -61 -31 -50 2
-34 20 39 -44 9 -74 -24 47
0 -22 21 13 -9 26 19 -21
-52 44 38 7 -32 27 -18 34
-1 -9 -67 28 -50 -24 -14 -4
-9 -26 6 -31 4 -32 -3 23
-35 -6 7 -23 -20 3 44 -7
32 44 -19 9 -46 -40 -7 25
-35 -63 -59 -20 -11 -32 -46 22
-8 24 72 6 31 -80 -60 31
-62 -10 -35 -18 -33 -24 103 -5
55 -21 -6 66 -72 -65 -50 65
-38 -39 -59 -4 -42 -35 -33 7
-41 44 57 -35 7 -127 -91 3
-1 -16 -25 -3 -23 -27 44 -7
3 1 -37 4 -53 -3 -26 56
-37 -46 -45 -36 -31 -12 -24 -1
-50 -13 19 10 -9 -68 -47 5
2 -28 12 8 -5 15 5 -8
-3 2 -10 23 -15 -32 -32 33
10 -45 -48 47 0 26 -68 24
20 -17 19 -4 24 -68 -61 -14
-61 -11 -26 30 -45 29 24 -19
-17 -27 -21 22 -46 -28 -67 7
-40 -78 -36 -67 -4 -8 -72 7
12 5 22 10 11 -91 -70 -16

model/conv2d_21/Conv2D i1 [32, 3, 3, 32]
00000000: 38ed e6db f9de e2b8 063a 35e4 472b e93b
00000010: d339 d8ef abf3 1c07 15d7 ea14 bbc8 dee5
00000020: 203c 00f2 f90c b8f8 c924 0fdb 1b19 0540
00000030: f303 e603 b7fe d114 4806 da3d d7e0 2d1e
00000040: f005 e4fa 18f8 b5ba d10b edee f2f2 5140
00000050: e1eb d6f6 b5e9 0d0d 46d6 cf58 f3d3 eaf1
00000060: 23d3 03d6 ece1 06c3 f309 183e 7f32 f40b
00000070: dcf9 b2f5 9f20 081f d9e5 29e2 abeb b3fa
00000080: 1933 ddcd ffda c0e1 a4ec 25f7 44f9 f830
00000090: e5d8 8deb 9d25 e7e2 2c1d f838 d6e5 f713
000000a0: 03b9 a4da 30d7 bcc3 cf25 f20e 0db3 2b15
000000b0: ccee 8d04 a7f3 e8f1 1be1 da3a c2cf 07da
000000c0: 05c2 091b d5d0 23e7 061d 2b00 3040 be83
000000d0: 11c0 d5f9 ee0a e847 b0d7 0dcc ccff 82d2
000000e0: 1b01 da05 07d6 f1c0 ee4c 47e0 e124 b8ab
000000f0: da98 8805 d72c c124 d8f9 e9f0 9d21 24fb
56 -19 -26 -37 -7 -34 -30 -72
6 58 53 -28 71 43 -23 59
-45 57 -40 -17 -85 -13 28 7
21 -41 -22 20 -69 -56 -34 -27
32 60 0 -14 -7 12 -72 -8
-55 36 15 -37 27 25 5 64
-13 3 -26 3 -73 -2 -47 20
72 6 -38 61 -41 -32 45 30
-16 5 -28 -6 24 -8 -75 -70
-47 11 -19 -18 -14 -14 81 64
-31 -21 -42 -10 -75 -23 13 13
70 -42 -49 88 -13 -45 -22 -15
35 -45 3 -42 -20 -31 6 -61
-13 9 24 62 127 50 -12 11
-36 -7 -78 -11 -97 32 8 31
-39 -27 41 -30 -85 -21 -77 -6
25 51 -35 -51 -1 -38 -64 -31
-92 -20 37 -9 68 -7 -8 48
-27 -40 -115 -21 -99 37 -25 -30
44 29 -8 56 -42 -27 -9 19
3 -71 -92 -38 48 -41 -68 -61
-49 37 -14 14 13 -77 43 21
-52 -18 -115 4 -89 -13 -24 -15
27 -31 -38 58 -62 -49 7 -38
5 -62 9 27 -43 -48 35 -25
6 29 43 0 48 64 -66 -125
17 -64 -43 -7 -18 10 -24 71
-80 -41 13 -52 -52 -1 -126 -46
27 1 -38 5 7 -42 -15 -64
-18 76 71 -32 -31 36 -72 -85
-38 -104 -120 5 -41 44 -63 36
-40 -7 -23 -16 -99 33 36 -5

model/conv2d_20/Conv2D i1 [32, 3, 3, 32]
00000000: eab2 29c9 f4c8 e410 1706 0ed5 db14 e5da
00000010: fdfa db03 e3fc f90a dcf5 ecc3 18fa be11
00000020: de0d 1e0c 0cd6 1527 1f15 0ff6 2828 05c9
00000030: 22fc 221b 28f6 b3f9 001f cefc 0b21 fce5
00000040: 0fd8 ca05 10e4 1002 ef11 5228 1901 2ce1
00000050: 4eeb 3919 7feb cd0b fd2a ab13 1c4a f5e8
00000060: 02ef 1cae 07c9 0afa 13ec e3cc b004 e7fc
00000070: e31a ebd6 abcf 2a26 cecc 3aa1 f71d e008
00000080: ec18 15f3 02fc 0b1d 28e8 f0c4 15ff f3f2
00000090: 16e0 e6ff f3dc dc26 02ef 0feb 11d6 2e0f
000000a0: 18ea 0812 fce1 2201 1f11 05fc 361d 3ef1
000000b0: 56e8 36ee 44e9 d7fe 1f08 012f 0f1b 22cd
000000c0: 53f4 ff05 e8ee 0005 eec7 969f c200 c7fe
000000d0: bf03 f6f0 92b2 381a b8b4 30ba c237 fa37
000000e0: 110c 28f3 f204 1846 17de b099 fadf e710
000000f0: f6f0 c810 dceb f225 ff08 37d0 07f9 2b08
-22 -78 41 -55 -12 -56 -28 16
23 6 14 -43 -37 20 -27 -38
-3 -6 -37 3 -29 -4 -7 10
-36 -11 -20 -61 24 -6 -66 17
-34 13 30 12 12 -42 21 39
31 21 15 -10 40 40 5 -55
34 -4 34 27 40 -10 -77 -7
0 31 -50 -4 11 33 -4 -27
15 -40 -54 5 16 -28 16 2
-17 17 82 40 25 1 44 -31
78 -21 57 25 127 -21 -51 11
-3 42 -85 19 28 74 -11 -24
2 -17 28 -82 7 -55 10 -6
19 -20 -29 -52 -80 4 -25 -4
-29 26 -21 -42 -85 -49 42 38
-50 -52 58 -95 -9 29 -32 8
-20 24 21 -13 2 -4 11 29
40 -24 -16 -60 21 -1 -13 -14
22 -32 -26 -1 -13 -36 -36 38
2 -17 15 -21 17 -42 46 15
24 -22 8 18 -4 -31 34 1
31 17 5 -4 54 29 62 -15
86 -24 54 -18 68 -23 -41 -2
31 8 1 47 15 27 34 -51
83 -12 -1 5 -24 -18 0 5
-18 -57 -106 -97 -62 0 -57 -2
-65 3 -10 -16 -110 -78 56 26
-72 -76 48 -70 -62 55 -6 55
17 12 40 -13 -14 4 24 70
23 -34 -80 -103 -6 -33 -25 16
-10 -16 -56 16 -36 -21 -14 37
-1 8 55 -48 7 -7 43 8

model/conv2d_19/Conv2D i1 [32, 3, 3, 32]
00000000: 1a35 fbc5 132b 273a 26cf f1e7 eb50 dc6f
00000010: 0553 df9f dd02 49f2 ec27 d2cf e406 08e0
00000020: 4326 d7dd 05f8 1b68 1cf7 12c5 0046 e338
00000030: 1747 dee9 e614 47c7 e30f 0207 eeec 1ff2
00000040: 1b37 dffa d419 fa74 1e08 4e82 263c 142a
00000050: 196d 282b acbf e208 f43b edfc e7f2 fad3
00000060: 2731 20dc 1a22 ef07 23d6 bb46 e760 0f67
00000070: 1531 daaa d414 4112 e22c 11e7 f1f6 50df
00000080: 1f1d ffeb 0f15 c62d fcd7 b2f9 fb06 1532
00000090: d62e d4af 0602 2ef6 e549 38e7 f8f5 7a10
000000a0: f4ec 0819 1bfe d86a e2e6 e4b2 fd64 2d4f
000000b0: ff7f 18f8 d4d5 f3f9 f32f 39fb 1808 380f
000000c0: 1d09 fd19 abdc b600 1ebe a461 ddc8 f2c1
000000d0: f42d 0c9e df13 26f0 1d1a 2bdc e0fd 10d2
000000e0: 00fb 3207 b8ad ca05 eec8 9546 cea7 e9f4
000000f0: c639 ec9e 332c 3ee5 2d0c 2b14 fff6 4e0c
26 53 -5 -59 19 43 39 58
38 -49 -15 -25 -21 80 -36 111
5 83 -33 -97 -35 2 73 -14
-20 39 -46 -49 -28 6 8 -32
67 38 -41 -35 5 -8 27 104
28 -9 18 -59 0 70 -29 56
23 71 -34 -23 -26 20 71 -57
-29 15 2 7 -18 -20 31 -14
27 55 -33 -6 -44 25 -6 116
30 8 78 -126 38 60 20 42
25 109 40 43 -84 -65 -30 8
-12 59 -19 -4 -25 -14 -6 -45
39 49 32 -36 26 34 -17 7
35 -42 -69 70 -25 96 15 103
21 49 -38 -86 -44 20 65 18
-30 44 17 -25 -15 -10 80 -33
31 29 -1 -21 15 21 -58 45
-4 -41 -78 -7 -5 6 21 50
-42 46 -44 -81 6 2 46 -10
-27 73 56 -25 -8 -11 122 16
-12 -20 8 25 27 -2 -40 106
-30 -26 -28 -78 -3 100 45 79
-1 127 24 -8 -44 -43 -13 -7
-13 47 57 -5 24 8 56 15
29 9 -3 25 -85 -36 -74 0
30 -66 -92 97 -35 -56 -14 -63
-12 45 12 -98 -33 19 38 -16
29 26 43 -36 -32 -3 16 -46
0 -5 50 7 -72 -83 -54 5
-18 -56 -107 70 -50 -89 -23 -12
-58 57 -20 -98 51 44 62 -27
45 12 43 20 -1 -10 78 12

model/conv2d_18/Conv2D i1 [32, 3, 3, 32]
00000000: 2204 13fc 1ce4 33ed 0de8 dac7 d1d5 0001
00000010: e40c 0fb0 1325 670d 12f4 ee0e dd7f dcb9
00000020: 1109 04f5 eaed 5113 20e7 e432 c1c5 02e9
00000030: 1eec 012e 0328 16ea 0304 fd36 f415 ee0b
00000040: 0deb b0c5 eed9 193b 2c6a e42c afc5 1ec7
00000050: e9ce e16e cd0c 31e4 cff5 08f0 d72f ee27
00000060: 40f2 38fb 04df eef0 f111 f602 01d0 f804
00000070: fb17 3cf5 33f1 0c21 4c07 da3b ef2b d4c7
00000080: 1317 23d5 f914 5efc 21f0 04fb eded d3f6
00000090: 05f5 e0f1 f3fc 14e6 2d22 e01c 1c0c ee25
000000a0: f2da 0db8 2d18 5120 fb37 2a24 e2ca 02cc
000000b0: ebd4 db36 ec1f 07e1 1008 ed1c 2103 0840
000000c0: 1fc8 fdcd d2dc c7e6 c21d 0dd6 ed98 bf27
000000d0: f8f9 06e7 d5bf d741 4854 bc29 ccd1 d0dd
000000e0: 1cd3 30d4 d5ce 28ce dbe2 e3d4 f2b9 c00a
000000f0: 02f3 f5e1 ef0f caf0 4017 c313 0cbc cff5
34 4 19 -4 28 -28 51 -19
13 -24 -38 -57 -47 -43 0 1
-28 12 15 -80 19 37 103 13
18 -12 -18 14 -35 127 -36 -71
17 9 4 -11 -22 -19 81 19
32 -25 -28 50 -63 -59 2 -23
30 -20 1 46 3 40 22 -22
3 4 -3 54 -12 21 -18 11
13 -21 -80 -59 -18 -39 25 59
44 106 -28 44 -81 -59 30 -57
-23 -50 -31 110 -51 12 49 -28
-49 -11 8 -16 -41 47 -18 39
64 -14 56 -5 4 -33 -18 -16
-15 17 -10 2 1 -48 -8 4
-5 23 60 -11 51 -15 12 33
76 7 -38 59 -17 43 -44 -57
19 23 35 -43 -7 20 94 -4
33 -16 4 -5 -19 -19 -45 -10
5 -11 -32 -15 -13 -4 20 -26
45 34 -32 28 28 12 -18 37
-14 -38 13 -72 45 24 81 32
-5 55 42 36 -30 -54 2 -52
-21 -44 -37 54 -20 31 7 -31
16 8 -19 28 33 3 8 64
31 -56 -3 -51 -46 -36 -57 -26
-62 29 13 -42 -19 -104 -65 39
-8 -7 6 -25 -43 -65 -41 65
72 84 -68 41 -52 -47 -48 -35
28 -45 48 -44 -43 -50 40 -50
-37 -30 -29 -44 -14 -71 -64 10
2 -13 -11 -31 -17 15 -54 -16
64 23 -61 19 12 -68 -49 -11

model/conv2d_17/Conv2D i1 [32, 3, 3, 32]
00000000: 0c49 f106 3b13 2fee 23eb f4ee 11f8 d71a
00000010: ec18 3805 f307 f7e4 e83f 102b 5419 1823
00000020: f958 d7fa 0eea 36d8 15f7 ffed 07e0 d919
00000030: ee11 410e e00f dd0c 0e2f e20a 1c59 0aef
00000040: f97f b9dd e715 36ce 1ed4 1d16 f0cf 0cc0
00000050: fff6 0a1e fd40 e809 1416 ac16 1b06 d7ec
00000060: 34c8 bded 2a09 f4cc 18f8 cce6 f9e0 fd2f
00000070: c753 16f7 01ea 2fca e0f3 2b3d 41fb 5e38
00000080: 0ee1 a1ef 25d9 e6f4 eefb edf5 12cc b319
00000090: b54a 0f10 e5d4 30d5 f80b 160f 0311 1ffc
000000a0: fd0d caf0 f0ec 05f3 1903 fff5 f1b1 c4f6
000000b0: d607 f81f d4e9 ffd7 ed16 e1c1 1219 ecf8
000000c0: 1ddb d632 04eb 27ca 2ce6 eadd ef06 0df2
000000d0: d3de 18c3 0402 09d8 f800 114d 3acc fe2e
000000e0: f2e1 e401 03c2 ecb5 faeb 0bff 06dc b911
000000f0: c5e7 03e2 f3f8 01e0 e9f9 2d0c 22f7 f819
12 73 -15 6 59 19 47 -18
35 -21 -12 -18 17 -8 -41 26
-20 24 56 5 -13 7 -9 -28
-24 63 16 43 84 25 24 35
-7 88 -41 -6 14 -22 54 -40
21 -9 -1 -19 7 -32 -39 25
-18 17 65 14 -32 15 -35 12
14 47 -30 10 28 89 10 -17
-7 127 -71 -35 -25 21 54 -50
30 -44 29 22 -16 -49 12 -64
-1 -10 10 30 -3 64 -24 9
20 22 -84 22 27 6 -41 -20
52 -56 -67 -19 42 9 -12 -52
24 -8 -52 -26 -7 -32 -3 47
-57 83 22 -9 1 -22 47 -54
-32 -13 43 61 65 -5 94 56
14 -31 -95 -17 37 -39 -26 -12
-18 -5 -19 -11 18 -52 -77 25
-75 74 15 16 -27 -44 48 -43
-8 11 22 15 3 17 31 -4
-3 13 -54 -16 -16 -20 5 -13
25 3 -1 -11 -15 -79 -60 -10
-42 7 -8 31 -44 -23 -1 -41
-19 22 -31 -63 18 25 -20 -8
29 -37 -42 50 4 -21 39 -54
44 -26 -22 -35 -17 6 13 -14
-45 -34 24 -61 4 2 9 -40
-8 0 17 77 58 -52 -2 46
-14 -31 -28 1 3 -62 -20 -75
-6 -21 11 -1 6 -36 -71 17
-59 -25 3 -30 -13 -8 1 -32
-23 -7 45 12 34 -9 -8 25

model/conv2d_16/Conv2D i1 [32, 3, 3, 32]
00000000: 0609 f7c6 04f6 fdcf ec08 234c dddc a73b
00000010: 03d1 1403 05f0 b4bf f105 ea03 0681 f2ef
00000020: 22fa f5d5 10f3 0ef7 f80b 2b24 e4f7 b91a
00000030: 18f5 130d 1501 df0b fe0c 2402 07b0 fa12
00000040: 26d2 ff0d f714 2af7 ec0d 0901 e9d1 bdca
00000050: f8f2 041b ddf9 e324 c5fb 021a dca9 fcf4
00000060: 0e0a ecd0 2617 ecd9 f314 1611 cdbd ae39
00000070: 21d0 31f0 0fe6 bdb7 defa 0724 0b8c 0f16
00000080: 210e ddbc 0403 ed0b eff5 faec f1c9 cf4e
00000090: 26e1 4d13 10d1 f8de 03fd ea2e f8bd 050e
000000a0: 0ee6 fff6 d337 07f1 f61e fc13 fcc1 afcb
000000b0: 18e2 011c fee3 f1fc e5f0 dc02 11b3 ecfb
000000c0: b908 26d2 faf3 eff1 2fbf dbfa cdc5 a9fe
000000d0: 1fbd 0ffb f7df aedb de28 ff0f fabb 1e0c
000000e0: ebf4 0abe eeda f101 f4dc ea17 dcc8 c906
000000f0: 10db 1d03 04c0 d200 0b19 f513 20e1 fb0e
6 9 -9 -58 4 -10 -3 -49
-20 8 35 76 -35 -36 -89 59
3 -47 20 3 5 -16 -76 -65
-15 5 -22 3 6 -127 -14 -17
34 -6 -11 -43 16 -13 14 -9
-8 11 43 36 -28 -9 -71 26
24 -11 19 13 21 1 -33 11
-2 12 36 2 7 -80 -6 18
38 -46 -1 13 -9 20 42 -9
-20 13 9 1 -23 -47 -67 -54
-8 -14 4 27 -35 -7 -29 36
-59 -5 2 26 -36 -87 -4 -12
14 10 -20 -48 38 23 -20 -39
-13 20 22 17 -51 -67 -82 57
33 -48 49 -16 15 -26 -67 -73
-34 -6 7 36 11 -116 15 22
33 14 -35 -68 4 3 -19 11
-17 -11 -6 -20 -15 -55 -49 78
38 -31 77 19 16 -47 -8 -34
3 -3 -22 46 -8 -67 5 14
14 -26 -1 -10 -45 55 7 -15
-10 30 -4 19 -4 -63 -81 -53
24 -30 1 28 -2 -29 -15 -4
-27 -16 -36 2 17 -77 -20 -5
-71 8 38 -46 -6 -13 -17 -15
47 -65 -37 -6 -51 -59 -87 -2
31 -67 15 -5 -9 -33 -82 -37
-34 40 -1 15 -6 -69 30 12
-21 -12 10 -66 -18 -38 -15 1
-12 -36 -22 23 -36 -56 -55 6
16 -37 29 3 4 -64 -46 0
11 25 -11 19 32 -31 -5 14

model/conv2d_15/Conv2D i1 [32, 3, 3, 32]
00000000: c90c f8d2 cf0f f6e3 feef e617 eee2 f8e4
00000010: 95f7 0ae8 47dd c808 2a3f 1064 c634 17fd
00000020: cb0a 13d4 ebf0 4109 2e06 dccf e5e2 c407
00000030: bb12 36dd 321d f8c9 f4f6 c317 164a 1e07
00000040: 18ef f1ea 2dd8 2237 1e3e 2cea eddb d351
00000050: c9f7 22f8 2d22 c4f3 f8cf f1d0 33eb 3e37
00000060: ca35 d0e1 b7e6 b907 e3b9 050a 2518 ed94
00000070: c118 edd0 fdf8 24ec 1822 2b5b 9709 e3e8
00000080: d63e e6c1 bcd0 0510 ef06 ead0 1211 efc9
00000090: d50e 10ce 2c0d 13e6 f6f1 f528 dd09 dcfd
000000a0: fe34 cdb6 f9cd 1338 3938 0dc9 ecf5 a748
000000b0: ca04 12f2 350a f9dd e2b9 f8dc 11c8 3e0d
000000c0: cf21 05f1 d149 05c4 e581 2c2c 34cf 0d83
000000d0: cfe8 0af1 98b4 bff1 0b14 085a caf1 38f7
000000e0: cd46 dfd1 9f1d 1918 e7e6 e908 2f16 ffbe
000000f0: dbe5 21ec 06e0 0ee8 e20a 064e bc0d 071f
-55 12 -8 -46 -49 15 -10 -29
-2 -17 -26 23 -18 -30 -8 -28
-107 -9 10 -24 71 -35 -56 8
42 63 16 100 -58 52 23 -3
-53 10 19 -44 -21 -16 65 9
46 6 -36 -49 -27 -30 -60 7
-69 18 54 -35 50 29 -8 -55
-12 -10 -61 23 22 74 30 7
24 -17 -15 -22 45 -40 34 55
30 62 44 -22 -19 -37 -45 81
-55 -9 34 -8 45 34 -60 -13
-8 -49 -15 -48 51 -21 62 55
-54 53 -48 -31 -73 -26 -71 7
-29 -71 5 10 37 24 -19 -108
-63 24 -19 -48 -3 -8 36 -20
24 34 43 91 -105 9 -29 -24
-42 62 -26 -63 -68 -48 5 16
-17 6 -22 -48 18 17 -17 -55
-43 14 16 -50 44 13 19 -26
-10 -15 -11 40 -35 9 -36 -3
-2 52 -51 -74 -7 -51 19 56
57 56 13 -55 -20 -11 -89 72
-54 4 18 -14 53 10 -7 -35
-30 -71 -8 -36 17 -56 62 13
-49 33 5 -15 -47 73 5 -60
-27 -127 44 44 52 -49 13 -125
-49 -24 10 -15 -104 -76 -65 -15
11 20 8 90 -54 -15 56 -9
-51 70 -33 -47 -97 29 25 24
-25 -26 -23 8 47 22 -1 -66
-37 -27 33 -20 6 -32 14 -24
-30 10 6 78 -68 13 7 31

model/conv2d_14/Conv2D i1 [32, 3, 3, 32]
00000000: f5a1 efca 40cb 0a01 1a27 9615 b5a8 b3cc
00000010: c41d 0ff3 f807 ebf0 add2 f6d7 0d8c 03e3
00000020: eae4 0fd4 11d1 22f1 11eb c312 b2ab 8700
00000030: f106 1917 06cc f002 9fc8 ee09 09ad d305
00000040: 152b 2011 2fe8 0ccc 2015 e323 dec3 fe1c
00000050: d5fc 3226 00ed f409 98aa eae2 d8c5 cdfc
00000060: f7b1 10f6 4698 f539 0100 b214 a1a5 eacb
00000070: 4420 28e4 f29d 3513 cced ddfc e60b e510
00000080: e4f7 0ee5 d8bd 2726 1ef1 cff8 8dca bcfd
00000090: 4011 44f1 0490 2716 dfd7 00fb cf10 d207
000000a0: 1c15 e318 f9c7 0cf5 f82b ee27 a4db 1a0f
000000b0: 1f19 392d f3d0 2311 b7b6 f6f4 af15 dbff
000000c0: e2e5 07d9 eac9 1b1b 1f24 d9ee aec8 c494
000000d0: 7fe0 c8d5 06b5 d113 01c4 e506 49d5 d035
000000e0: e511 f1d2 93c4 2200 36c4 14dc a3fa d8d6
000000f0: 75e9 bec5 ffc4 09ed ebd8 f521 2c02 cef3
-11 -95 -17 -54 64 -53 10 1
26 39 -106 21 -75 -88 -77 -52
-60 29 15 -13 -8 7 -21 -16
-83 -46 -10 -41 13 -116 3 -29
-22 -28 15 -44 17 -47 34 -15
17 -21 -61 18 -78 -85 -121 0
-15 6 25 23 6 -52 -16 2
-97 -56 -18 9 9 -83 -45 5
21 43 32 17 47 -24 12 -52
32 21 -29 35 -34 -61 -2 28
-43 -4 50 38 0 -19 -12 9
-104 -86 -22 -30 -40 -59 -51 -4
-9 -79 16 -10 70 -104 -11 57
1 0 -78 20 -95 -91 -22 -53
68 32 40 -28 -14 -99 53 19
-52 -19 -35 -4 -26 11 -27 16
-28 -9 14 -27 -40 -67 39 38
30 -15 -49 -8 -115 -54 -68 -3
64 17 68 -15 4 -112 39 22
-33 -41 0 -5 -49 16 -46 7
28 21 -29 24 -7 -57 12 -11
-8 43 -18 39 -92 -37 26 15
31 25 57 45 -13 -48 35 17
-73 -74 -10 -12 -81 21 -37 -1
-30 -27 7 -39 -22 -55 27 27
31 36 -39 -18 -82 -56 -60 -108
127 -32 -56 -43 6 -75 -47 19
1 -60 -27 6 73 -43 -48 53
-27 17 -15 -46 -109 -60 34 0
54 -60 20 -36 -93 -6 -40 -42
117 -23 -66 -59 -1 -60 9 -19
-21 -40 -11 33 44 2 -50 -13

model/conv2d_13/Conv2D i1 [32, 1, 1, 16]
00000000: 1334 632d f204 c135 cddc 815e da23 16a5
00000010: f281 00d7 b1cd 12f6 ffe7 0dda f21d f219
00000020: cdee f1fe 1b21 ac81 aaac 4ba2 02a6 fa25
00000030: b62c 832a d943 818d daa6 c1b6 c9e6 9da6
00000040: ffff 07fc e581 192e 172d 0507 f9fd 069a
00000050: 47d5 fc2a 3e3f c8be 2281 401b 0fb7 e034
00000060: 31ca fcff 09fe d2f4 1ad1 0daa a681 3d0f
00000070: 0aa6 0ed9 1e02 cc81 0199 df16 13bd fcfd
00000080: 0681 d6f6 ccba eb0b 08fb 19b6 aeb9 07f6
00000090: 122d 3fd1 21f1 2939 11b0 1206 810e 170b
000000a0: 8703 8f02 1806 0e22 c92f 060f 2d16 ca81
000000b0: de65 1f24 eb02 4d7f a368 297c fb1b 26c8
000000c0: b0d8 fc29 d3f8 ccf3 812e 0840 082c d4b6
000000d0: 0784 060b 00cc eb1d 249e 81cb c00c f0ea
000000e0: 120a 1d9a 04f2 1915 1eb7 ed23 8131 0309
000000f0: 9ff7 291e d181 f3b8 bbf1 2c19 0d1e dcf2
19 52 99 45 -14 4 -63 53
-51 -36 -127 94 -38 35 22 -91
-14 -127 0 -41 -79 -51 18 -10
-1 -25 13 -38 -14 29 -14 25
-51 -18 -15 -2 27 33 -84 -127
-86 -84 75 -94 2 -90 -6 37
-74 44 -125 42 -39 67 -127 -115
-38 -90 -63 -74 -55 -26 -99 -90
-1 -1 7 -4 -27 -127 25 46
23 45 5 7 -7 -3 6 -102
71 -43 -4 42 62 63 -56 -66
34 -127 64 27 15 -73 -32 52
49 -54 -4 -1 9 -2 -46 -12
26 -47 13 -86 -90 -127 61 15
10 -90 14 -39 30 2 -52 -127
1 -103 -33 22 19 -67 -4 -3
6 -127 -42 -10 -52 -70 -21 11
8 -5 25 -74 -82 -71 7 -10
18 45 63 -47 33 -15 41 57
17 -80 18 6 -127 14 23 11
-121 3 -113 2 24 6 14 34
-55 47 6 15 45 22 -54 -127
-34 101 31 36 -21 2 77 127
-93 104 41 124 -5 27 38 -56
-80 -40 -4 41 -45 -8 -52 -13
-127 46 8 64 8 44 -44 -74
7 -124 6 11 0 -52 -21 29
36 -98 -127 -53 -64 12 -16 -22
18 10 29 -102 4 -14 25 21
30 -73 -19 35 -127 49 3 9
-97 -9 41 30 -47 -127 -13 -72
-69 -15 44 25 13 30 -36 -14

model/conv2d_12/Conv2D i1 [32, 3, 3, 32]
00000000: 36fa aae9 43c2 a1db db81 f105 b9e2 2425
00000010: 42f4 0294 d826 0daf 0d58 aefd a130 9d41
00000020: 1fcb d0ef 1dd7 c239 e3b7 e1fa 96eb cadf
00000030: 1fd6 e9a9 e20c f0e5 f516 a7ee 9734 8f6d
00000040: d7d1 31dc 39d6 111d 2704 e3f2 bbf7 c919
00000050: 3759 ede4 f811 04ba e804 9e03 e1e5 f251
00000060: 0a48 d2e7 27f1 dbc3 ecc3 35ec dd3d 1a4f
00000070: 0efa 2033 f30c ecb0 3849 1829 b7f6 c5f8
00000080: 1140 fae7 1ee0 ef34 f5f2 34e6 c00a d441
00000090: 13ef e7e9 d913 e4f9 0138 ebc1 e028 ab00
000000a0: c7de ffb9 270d 181e 5603 1ae3 9b49 d718
000000b0: 43f5 f0dc 021c f5da f7dc d4da ede8 a0eb
000000c0: e320 30f1 03a5 b5cb 8ff3 5bf9 d300 0143
000000d0: 0129 ba05 0e0d f9cc fe09 d517 c419 e0cb
000000e0: ddf3 51cc 1ddc db0e d405 6ef7 a013 b547
000000f0: 0801 c1df 252d 0ec5 2504 d8db d50f dff6
54 -6 -86 -23 67 -62 -95 -37
-37 -127 -15 5 -71 -30 36 37
66 -12 2 -108 -40 38 13 -81
13 88 -82 -3 -95 48 -99 65
31 -53 -48 -17 29 -41 -62 57
-29 -73 -31 -6 -106 -21 -54 -33
31 -42 -23 -87 -30 12 -16 -27
-11 22 -89 -18 -105 52 -113 109
-41 -47 49 -36 57 -42 17 29
39 4 -29 -14 -69 -9 -55 25
55 89 -19 -28 -8 17 4 -70
-24 4 -98 3 -31 -27 -14 81
10 72 -46 -25 39 -15 -37 -61
-20 -61 53 -20 -35 61 26 79
14 -6 32 51 -13 12 -20 -80
56 73 24 41 -73 -10 -59 -8
17 64 -6 -25 30 -32 -17 52
-11 -14 52 -26 -64 10 -44 65
19 -17 -25 -23 -39 19 -28 -7
1 56 -21 -63 -32 40 -85 0
-57 -34 -1 -71 39 13 24 30
86 3 26 -29 -101 73 -41 24
67 -11 -16 -36 2 28 -11 -38
-9 -36 -44 -38 -19 -24 -96 -21
-29 32 48 -15 3 -91 -75 -53
-113 -13 91 -7 -45 0 1 67
1 41 -70 5 14 13 -7 -52
-2 9 -43 23 -60 25 -32 -53
-35 -13 81 -52 29 -36 -37 14
-44 5 110 -9 -96 19 -75 71
8 1 -63 -33 37 45 14 -59
37 4 -40 -37 -43 15 -33 -10

model/conv2d_11/Conv2D i1 [32, 3, 3, 16]
00000000: d621 e603 ffda 21b3 c303 ebee f904 ecde
00000010: d21f ccfb 4bfa 3817 852a 1ffa e7e6 29d1
00000020: f404 f3e4 35f9 edff c7f4 2fe8 e6ca f8ea
00000030: de07 9900 3de2 3010 9b3a 1efa e0d6 2bc8
00000040: b04a ac0c 7818 2a7f 851d 232a e4d6 48ab
00000050: e12f e00c 7425 2c54 9511 2b20 e69b 33c8
00000060: deea d902 fdb8 f3d5 bf08 1d07 e4ff e50f
00000070: 0e11 f518 2ffd 2f67 ad15 1233 cbd4 3dfa
00000080: 0907 3213 7233 083e cef7 0728 f6e3 1234
00000090: 47d5 f8f8 0221 fa04 1313 121e f614 15df
000000a0: 0505 f7f1 f70e 2a7f e747 2b59 101d 2b9a
000000b0: eddc f9f1 0613 f4f9 03ee 1ff8 06fd 03d1
000000c0: 0b27 fff4 fa07 2f7b fe72 1848 eb25 2ec9
000000d0: f931 e6f4 de1e 0a78 dd6d 3837 e829 269b
000000e0: de13 e3ed d025 0127 f025 342b fd12 10be
000000f0: 06e8 edcb ef06 1114 0d19 fd02 d7fe 01f4
-42 33 -26 3 -1 -38 33 -77
-61 3 -21 -18 -7 4 -20 -34
-46 31 -52 -5 75 -6 56 23
-123 42 31 -6 -25 -26 41 -47
-12 4 -13 -28 53 -7 -19 -1
-57 -12 47 -24 -26 -54 -8 -22
-34 7 -103 0 61 -30 48 16
-101 58 30 -6 -32 -42 43 -56
-80 74 -84 12 120 24 42 127
-123 29 35 42 -28 -42 72 -85
-31 47 -32 12 116 37 44 84
-107 17 43 32 -26 -101 51 -56
-34 -22 -39 2 -3 -72 -13 -43
-65 8 29 7 -28 -1 -27 15
14 17 -11 24 47 -3 47 103
-83 21 18 51 -53 -44 61 -6
9 7 50 19 114 51 8 62
-50 -9 7 40 -10 -29 18 52
71 -43 -8 -8 2 33 -6 4
19 19 18 30 -10 20 21 -33
5 5 -9 -15 -9 14 42 127
-25 71 43 89 16 29 43 -102
-19 -36 -7 -15 6 19 -12 -7
3 -18 31 -8 6 -3 3 -47
11 39 -1 -12 -6 7 47 123
-2 114 24 72 -21 37 46 -55
-7 49 -26 -12 -34 30 10 120
-35 109 56 55 -24 41 38 -101
-34 19 -29 -19 -48 37 1 39
-16 37 52 43 -3 18 16 -66
6 -24 -19 -53 -17 6 17 20
13 25 -3 2 -41 -2 1 -12

model/conv2d_10/Conv2D i1 [16, 3, 3, 16]
00000000: c407 5efb 22d4 b0e1 e525 f447 c52b ddc7
00000010: de21 1c05 fdd8 91f4 e328 ee19 1004 d619
00000020: 141e 0f25 24e8 da09 edfa e651 12fb e43f
00000030: f4f2 35df 3cc8 9ff2 e724 0321 e60d e3d4
00000040: e50b 01be 37f0 8108 fde2 f004 1609 fbd5
00000050: e815 e3e1 f209 e3e7 e402 f54a 37dd de1d
00000060: ffe1 05c5 f9d2 90f3 cc13 1ada aa0b e0e6
00000070: 181a 0591 f1f2 a2d5 cfd7 07f0 f2dd e6fe
00000080: c502 e1c0 e005 f4fd d9d6 e623 fbcd d4f8
00000090: f60a 4738 f9b0 dfda 41e8 2ad7 0bbe 5156
000000a0: 34fd 3804 fad6 1ac0 0520 e1b5 ecf8 453e
000000b0: 092c ead7 21d8 d9ca 0fe4 e6c5 d627 011c
000000c0: 1f38 0111 facb 05df fc1d facd 1fb3 e2fa
000000d0: ea51 cae1 1fd8 eab1 03dc c49a ecc1 df0e
000000e0: fe05 b6db 27e9 0ca4 1cd3 df8f cc1a c1ef
000000f0: 0adf f017 ffac e821 f9f4 ecf0 25b5 ed13
-60 7 94 -5 34 -44 -80 -31
-27 37 -12 71 -59 43 -35 -57
-34 33 28 5 -3 -40 -111 -12
-29 40 -18 25 16 4 -42 25
20 30 15 37 36 -24 -38 9
-19 -6 -26 81 18 -5 -28 63
-12 -14 53 -33 60 -56 -97 -14
-25 36 3 33 -26 13 -29 -44
-27 11 1 -66 55 -16 -127 8
-3 -30 -16 4 22 9 -5 -43
-24 21 -29 -31 -14 9 -29 -25
-28 2 -11 74 55 -35 -34 29
-1 -31 5 -59 -7 -46 -112 -13
-52 19 26 -38 -86 11 -32 -26
24 26 5 -111 -15 -14 -94 -43
-49 -41 7 -16 -14 -35 -26 -2
-59 2 -31 -64 -32 5 -12 -3
-39 -42 -26 35 -5 -51 -44 -8
-10 10 71 56 -7 -80 -33 -38
65 -24 42 -41 11 -66 81 86
52 -3 56 4 -6 -42 26 -64
5 32 -31 -75 -20 -8 69 62
9 44 -22 -41 33 -40 -39 -54
15 -28 -26 -59 -42 39 1 28
31 56 1 17 -6 -53 5 -33
-4 29 -6 -51 31 -77 -30 -6
-22 81 -54 -31 31 -40 -22 -79
3 -36 -60 -102 -20 -63 -33 14
-2 5 -74 -37 39 -23 12 -92
28 -45 -33 -113 -52 26 -63 -17
10 -33 -16 23 -1 -84 -24 33
-7 -12 -20 -16 37 -75 -19 19

model/conv2d_9/Conv2D i1 [16, 3, 3, 16]
00000000: 13d8 e611 e5e1 18cc f2e9 94e7 f408 e3fa
00000010: 19d2 281f c3d1 10e4 4f03 e004 c5d2 2b13
00000020: ecd1 9b3a 413c f4fa fb24 23d2 029d 265b
00000030: 2b14 3123 cc97 ddec 0025 8122 3c35 1111
00000040: 220f 1630 1d9e 3df4 ca0c b41b 18e2 e806
00000050: 0de6 1249 5bc2 1106 071d df03 04b9 1a4d
00000060: de11 190b ecc6 1b0a 0206 8601 4744 dbfa
00000070: 1f13 f408 0cb9 f8f2 462a 8a43 f811 e510
00000080: 2d28 4809 21b7 0eff e73a 8e42 ffc6 c12e
00000090: 9eee 110f 2a4e fbff 9f34 fc06 21d3 f327
000000a0: b8dd 401b eb05 1df1 b82a f605 11e5 1b08
000000b0: f849 5412 d704 eff8 fc1a f23d fcbd 2341
000000c0: be49 39bb bc02 f64f ba25 dd0d 240c ec10
000000d0: c4d9 62ff d830 fc40 c804 e2fe deda 1b46
000000e0: fbf3 7f11 e138 1838 e613 ce07 32d4 0719
000000f0: d7dd c0c4 c01f a61f f320 fc08 4d0a 1fdf
19 -40 -26 17 -27 -31 24 -52
-14 -23 -108 -25 -12 8 -29 -6
25 -46 40 31 -61 -47 16 -28
79 3 -32 4 -59 -46 43 19
-20 -47 -101 58 65 60 -12 -6
-5 36 35 -46 2 -99 38 91
43 20 49 35 -52 -105 -35 -20
0 37 -127 34 60 53 17 17
34 15 22 48 29 -98 61 -12
-54 12 -76 27 24 -30 -24 6
13 -26 18 73 91 -62 17 6
7 29 -33 3 4 -71 26 77
-34 17 25 11 -20 -58 27 10
2 6 -122 1 71 68 -37 -6
31 19 -12 8 12 -71 -8 -14
70 42 -118 67 -8 17 -27 16
45 40 72 9 33 -73 14 -1
-25 58 -114 66 -1 -58 -63 46
-98 -18 17 15 42 78 -5 -1
-97 52 -4 6 33 -45 -13 39
-72 -35 64 27 -21 5 29 -15
-72 42 -10 5 17 -27 27 8
-8 73 84 18 -41 4 -17 -8
-4 26 -14 61 -4 -67 35 65
-66 73 57 -69 -68 2 -10 79
-70 37 -35 13 36 12 -20 16
-60 -39 98 -1 -40 48 -4 64
-56 4 -30 -2 -34 -38 27 70
-5 -13 127 17 -31 56 24 56
-26 19 -50 7 50 -44 7 25
-41 -35 -64 -60 -64 31 -90 31
-13 32 -4 8 77 10 31 -33

model/conv2d_8/Conv2D i1 [16, 3, 3, 16]
00000000: 13e7 f94e b22f dbeb 5215 d9dd fe08 0d11
00000010: f5fa 2842 a5d9 b6c9 241b f9de f6ed fcc3
00000020: 18f5 071f e1f5 eee3 017f f330 f9fd f1da
00000030: 3c04 0151 bc42 f1e0 490c 102a ce2b 26e1
00000040: 1105 f326 a72a f4d4 e0e2 09f3 fdfb fab5
00000050: ff0e 7512 dfd1 15e2 efff 0439 2004 dbc1
00000060: 5711 3ed6 ca12 daee d3f3 57ef e2c3 dae0
00000070: f7f3 3c0f b801 e8d8 c9b9 67f3 10ae ff94
00000080: 3ce8 57fa fbe2 1400 b2e2 f6ec edc6 eab4
00000090: 123f faf5 e0aa 1b1d 0f2f eb1c deef 0f23
000000a0: 1116 fc19 f8ce 100a 142d d8e0 f702 efff
000000b0: f400 df02 e4d6 2806 0e36 cda3 fdce d1eb
000000c0: 3b3a 08e4 d89b eaf0 0a13 00fc c0e9 e040
000000d0: 2922 f2ca d886 df21 f848 dec9 210c 0cf6
000000e0: 2e1f f3e5 a8a9 f621 def6 cb90 3618 d8f0
000000f0: 4041 40ec dbb1 c0c9 fc08 1209 22f8 ea0f
19 -25 -7 78 -78 47 -37 -21
82 21 -39 -35 -2 8 13 17
-11 -6 40 66 -91 -39 -74 -55
36 27 -7 -34 -10 -19 -4 -61
24 -11 7 31 -31 -11 -18 -29
1 127 -13 48 -7 -3 -15 -38
60 4 1 81 -68 66 -15 -32
73 12 16 42 -50 43 38 -31
17 5 -13 38 -89 42 -12 -44
-32 -30 9 -13 -3 -5 -6 -75
-1 14 117 18 -33 -47 21 -30
-17 -1 4 57 32 4 -37 -63
87 17 62 -42 -54 18 -38 -18
-45 -13 87 -17 -30 -61 -38 -32
-9 -13 60 15 -72 1 -24 -40
-55 -71 103 -13 16 -82 -1 -108
60 -24 87 -6 -5 -30 20 0
-78 -30 -10 -20 -19 -58 -22 -76
18 63 -6 -11 -32 -86 27 29
15 47 -21 28 -34 -17 15 35
17 22 -4 25 -8 -50 16 10
20 45 -40 -32 -9 2 -17 -1
-12 0 -33 2 -28 -42 40 6
14 54 -51 -93 -3 -50 -47 -21
59 58 8 -28 -40 -101 -22 -16
10 19 0 -4 -64 -23 -32 64
41 34 -14 -54 -40 -122 -33 33
-8 72 -34 -55 33 12 12 -10
46 31 -13 -27 -88 -87 -10 33
-34 -10 -53 -112 54 24 -40 -16
64 65 64 -20 -37 -79 -64 -55
-4 8 18 9 34 -8 -22 15

model/conv2d_7/Conv2D i1 [16, 3, 3, 16]
00000000: cbef 1d9e e149 23a7 57b0 860a 6503 fc1a
00000010: e056 2cb0 1431 1eb9 12ce 91fe 6eeb deb5
00000020: e1dd 538a aae6 40d8 50e4 9e35 2901 d1e0
00000030: cae4 03db 3e93 d829 f3bd c1d2 0ee5 f9e4
00000040: d8d7 0232 117f e211 1ac9 c8f6 10b2 2448
00000050: d5bd d0c7 00e0 0e33 25c5 d303 ecd3 1a04
00000060: b24a d6b8 d341 b65f f2e3 0631 5ad9 2d21
00000070: be3b 2124 164a dd3e c7dc 1ffa 13a6 2814
00000080: e618 e505 c766 e01a f9cf 4bcf c19f 5333
00000090: 4d48 f6fc f0e5 db74 cf59 3431 f62c e78e
000000a0: e462 ce42 f520 0b11 aa30 02fd 0017 02f9
000000b0: b71c f11a ae07 06bd 85c6 090d f1e5 1308
000000c0: 022e 1ad8 c602 e96a 034b 576c f001 2013
000000d0: e61e 1509 1a46 1336 cf11 5c4d 0ee3 fd1c
000000e0: d221 1e0b bc21 1cb0 af0b 1439 0ac8 1e17
000000f0: 2872 19f9 ef14 b842 4911 587f 15cb 4f2d
-53 -17 29 -98 -31 73 35 -89
87 -80 -122 10 101 3 -4 26
-32 86 44 -80 20 49 30 -71
18 -50 -111 -2 110 -21 -34 -75
-31 -35 83 -118 -86 -26 64 -40
80 -28 -98 53 41 1 -47 -32
-54 -28 3 -37 62 -109 -40 41
-13 -67 -63 -46 14 -27 -7 -28
-40 -41 2 50 17 127 -30 17
26 -55 -56 -10 16 -78 36 72
-43 -67 -48 -57 0 -32 14 51
37 -59 -45 3 -20 -45 26 4
-78 74 -42 -72 -45 65 -74 95
-14 -29 6 49 90 -39 45 33
-66 59 33 36 22 74 -35 62
-57 -36 31 -6 19 -90 40 20
-26 24 -27 5 -57 102 -32 26
-7 -49 75 -49 -63 -97 83 51
77 72 -10 -4 -16 -27 -37 116
-49 89 52 49 -10 44 -25 -114
-28 98 -50 66 -11 32 11 17
-86 48 2 -3 0 23 2 -7
-73 28 -15 26 -82 7 6 -67
-123 -58 9 13 -15 -27 19 8
2 46 26 -40 -58 2 -23 106
3 75 87 108 -16 1 32 19
-26 30 21 9 26 70 19 54
-49 17 92 77 14 -29 -3 28
-46 33 30 11 -68 33 28 -80
-81 11 20 57 10 -56 30 23
40 114 25 -7 -17 20 -72 66
73 17 88 127 21 -53 79 45

model/conv2d_6/Conv2D i1 [16, 3, 3, 16]
00000000: 08e2 f3b4 efbf ec21 1ef5 f84e fc20 d8f5
00000010: f8e9 0acc f12f ed3b 07c9 f24a c70f fae2
00000020: f7b4 edf4 0f1c dee1 2103 ea1e 0723 eaf7
00000030: 02f6 0aac d9fc d834 39d4 f559 19f9 140c
00000040: f1b9 06ec f814 0630 07bb f61d dfec 2908
00000050: 06cc edfd 3c02 fc21 04ce cc0a 1031 050e
00000060: defc cdec b200 0918 ecc6 137f 07fe 3d12
00000070: d5e5 e9ee de00 003e ffee d810 2aec ff18
00000080: da0a e842 1fb9 dd20 1715 afe2 fa41 242a
00000090: 5c07 9e08 1739 ed4f fa01 e0b8 2bc7 b2eb
000000a0: 4c17 b9da 20df da42 f8d0 e0c1 e1f9 c206
000000b0: 52d5 18be 5dc4 f855 fcde afc8 d9c3 e200
000000c0: 3104 a4e5 014c b9e3 e8c5 d29b 0d8b e80a
000000d0: 2918 e6e5 b0d0 b0fc f4ab a0bf 17b2 cee8
000000e0: 380c 28f0 1491 c5b6 15a0 b8e2 07ad 10e8
000000f0: 171d dc3a 493f cbb2 044e b0b6 55ee c71b
8 -30 -13 -76 -17 -65 -20 33
30 -11 -8 78 -4 32 -40 -11
-8 -23 10 -52 -15 47 -19 59
7 -55 -14 74 -57 15 -6 -30
-9 -76 -19 -12 15 28 -34 -31
33 3 -22 30 7 35 -22 -9
2 -10 10 -84 -39 -4 -40 52
57 -44 -11 89 25 -7 20 12
-15 -71 6 -20 -8 20 6 48
7 -69 -10 29 -33 -20 41 8
6 -52 -19 -3 60 2 -4 33
4 -50 -52 10 16 49 5 14
-34 -4 -51 -20 -78 0 9 24
-20 -58 19 127 7 -2 61 18
-43 -27 -23 -18 -34 0 0 62
-1 -18 -40 16 42 -20 -1 24
-38 10 -24 66 31 -71 -35 32
23 21 -81 -30 -6 65 36 42
92 7 -98 8 23 57 -19 79
-6 1 -32 -72 43 -57 -78 -21
76 23 -71 -38 32 -33 -38 66
-8 -48 -32 -63 -31 -7 -62 6
82 -43 24 -66 93 -60 -8 85
-4 -34 -81 -56 -39 -61 -30 0
49 4 -92 -27 1 76 -71 -29
-24 -59 -46 -101 13 -117 -24 10
41 24 -26 -27 -80 -48 -80 -4
-12 -85 -96 -65 23 -78 -50 -24
56 12 40 -16 20 -111 -59 -74
21 -96 -72 -30 7 -83 16 -24
23 29 -36 58 73 63 -53 -78
4 78 -80 -74 85 -18 -57 27
