models/resnet8/resnet8-model-optimized.tflite (tflite, 95768 bytes, 10 tensors)

model/dense/MatMul i1 [10, 64] scale=0.013606761 zero_point=0
0	0x0d	0.17688788
1	0x1a	0.35377577
2	0x1c	0.3809893
3	0x0a	0.1360676
4	0xdf	-0.4490231
5	0x9a	-1.3878896
6	0xc2	-0.84361917
7	0xfc	-0.054427043
8	0x0c	0.16328113
9	0xae	-1.1157544
10	0x16	0.29934874
11	0x1a	0.35377577
12	0xb3	-1.0477206
13	0x9f	-1.3198558
14	0x20	0.43541634
15	0xe9	-0.3129555
16	0xce	-0.680338
17	0x58	1.197395
18	0x0d	0.17688788
19	0x34	0.70755154
20	0xdd	-0.4762366
21	0xfe	-0.027213521
22	0x1f	0.42180958
23	0xe5	-0.36738253
24	0x01	0.013606761
25	0x14	0.2721352
26	0xac	-1.1429679
27	0x20	0.43541634
28	0x42	0.8980462
29	0x16	0.29934874
30	0x1a	0.35377577
31	0x11	0.23131493
32	0xe1	-0.42180958
33	0x29	0.5578772
34	0x04	0.054427043
35	0x2d	0.6123042
36	0x81	-1.7280586
37	0xfc	-0.054427043
38	0xea	-0.29934874
39	0xd2	-0.625911
40	0x38	0.7619786
41	0x14	0.2721352
42	0x4d	1.0477206
43	0x25	0.50345016
44	0x17	0.3129555
45	0xde	-0.46262985
46	0xf5	-0.14967437
47	0xcb	-0.7211583
48	0x1b	0.36738253
49	0xf1	-0.20410141
50	0xdc	-0.48984337
51	0x25	0.50345016
52	0xb4	-1.0341138
53	0xf8	-0.108854085
54	0x3a	0.78919214
55	0xae	-1.1157544
56	0x12	0.24492168
57	0xce	-0.680338
58	0xe5	-0.36738253
59	0xac	-1.1429679
60	0xe7	-0.340169
61	0xf9	-0.09524733
62	0xa0	-1.306249
63	0xc1	-0.8572259
64	0x28	0.5442704
65	0xf1	-0.20410141
66	0x0d	0.17688788
67	0x1b	0.36738253
68	0x58	1.197395
69	0xff	-0.013606761
70	0xed	-0.25852844
71	0x1c	0.3809893
72	0xc1	-0.8572259
73	0x5e	1.2790354
74	0xbd	-0.911653
75	0xb8	-0.97968674
76	0x2a	0.57148397
77	0xfa	-0.081640564
78	0x22	0.46262985
79	0xfa	-0.081640564
80	0x06	0.081640564
81	0xcb	-0.7211583
82	0xfd	-0.040820282
83	0xf6	-0.1360676
84	0xbd	-0.911653
85	0x36	0.73476505
86	0xd3	-0.6123042
87	0xd9	-0.53066367
88	0x3a	0.78919214
89	0x0b	0.14967437
90	0xb5	-1.0205071
91	0xb7	-0.9932935
92	0xc1	-0.8572259
93	0x04	0.054427043
94	0xd6	-0.57148397
95	0x33	0.6939448
96	0x32	0.680338
97	0x01	0.013606761
98	0xbf	-0.88443947
99	0x1a	0.35377577
100	0x0f	0.20410141
101	0x3c	0.81640565
102	0x27	0.53066367
103	0xfc	-0.054427043
104	0xab	-1.1565746
105	0xc7	-0.77558535
106	0xbe	-0.8980462
107	0xf8	-0.108854085
108	0x06	0.081640564
109	0xbb	-0.9388665
110	0x09	0.12246084
111	0xf7	-0.12246084
112	0x2a	0.57148397
113	0x36	0.73476505
114	0x35	0.7211583
115	0xd5	-0.5850907
116	0x96	-1.4423167
117	0xf9	-0.09524733
118	0x1e	0.40820283
119	0xd5	-0.5850907
120	0x9d	-1.3470693
121	0x33	0.6939448
122	0xe9	-0.3129555
123	0xc4	-0.81640565
124	0x44	0.9252597
125	0xdb	-0.50345016
126	0xf8	-0.108854085
127	0xf8	-0.108854085
128	0xbf	-0.88443947
129	0xd3	-0.6123042
130	0x12	0.24492168
131	0xe0	-0.43541634
132	0xc1	-0.8572259
133	0x25	0.50345016
134	0x0c	0.16328113
135	0xfb	-0.0680338
136	0x1d	0.39459607
137	0xde	-0.46262985
138	0x42	0.8980462
139	0x1a	0.35377577
140	0xd3	-0.6123042
141	0xb9	-0.96608
142	0x28	0.5442704
143	0xf5	-0.14967437
144	0xf4	-0.16328113
145	0x0d	0.17688788
146	0xd4	-0.5986975
147	0x27	0.53066367
148	0xe3	-0.39459607
149	0x32	0.680338
150	0x3e	0.84361917
151	0xcc	-0.70755154
152	0x51	1.1021476
153	0x32	0.680338
154	0xc6	-0.78919214
155	0x10	0.21770817
156	0xed	-0.25852844
157	0xd7	-0.5578772
158	0xd6	-0.57148397
159	0xd5	-0.5850907
160	0xd9	-0.53066367
161	0xec	-0.2721352
162	0x73	1.5647775
163	0xd7	-0.5578772
164	0x0d	0.17688788
165	0x17	0.3129555
166	0xbf	-0.88443947
167	0x0b	0.14967437
168	0xc1	-0.8572259
169	0xeb	-0.28574198
170	0x14	0.2721352
171	0x0b	0.14967437
172	0xd4	-0.5986975
173	0x1a	0.35377577
174	0xc8	-0.7619786
175	0x9f	-1.3198558
176	0x14	0.2721352
177	0xcc	-0.70755154
178	0xb5	-1.0205071
179	0xc2	-0.84361917
180	0x13	0.25852844
181	0x1a	0.35377577
182	0xdf	-0.4490231
183	0x53	1.1293612
184	0xff	-0.013606761
185	0x3b	0.80279887
186	0x14	0.2721352
187	0x33	0.6939448
188	0xaa	-1.1701814
189	0x1d	0.39459607
190	0x46	0.9524732
191	0x47	0.96608
192	0x08	0.108854085
193	0x0a	0.1360676
194	0x18	0.32656226
195	0xd0	-0.6531245
196	0x0d	0.17688788
197	0x0f	0.20410141
198	0xc6	-0.78919214
199	0x0d	0.17688788
200	0xda	-0.5170569
201	0x14	0.2721352
202	0x0e	0.19049466
203	0xe6	-0.35377577
204	0x04	0.054427043
205	0x15	0.28574198
206	0xc5	-0.80279887
207	0xd2	-0.625911
208	0x1a	0.35377577
209	0x03	0.040820282
210	0xea	-0.29934874
211	0xfd	-0.040820282
212	0x54	1.1429679
213	0x26	0.5170569
214	0xcf	-0.6667313
215	0xde	-0.46262985
216	0xdb	-0.50345016
217	0xef	-0.23131493
218	0x44	0.9252597
219	0x14	0.2721352
220	0x04	0.054427043
221	0xc8	-0.7619786
222	0x1e	0.40820283
223	0x15	0.28574198
224	0xc1	-0.8572259
225	0xe6	-0.35377577
226	0xe3	-0.39459607
227	0x15	0.28574198
228	0x17	0.3129555
229	0xd1	-0.6395177
230	0x32	0.680338
231	0x26	0.5170569
232	0xdf	-0.4490231
233	0x33	0.6939448
234	0x47	0.96608
235	0xaf	-1.1021476
236	0xe3	-0.39459607
237	0x2e	0.625911
238	0x21	0.4490231
239	0x15	0.28574198
240	0xc9	-0.74837184
241	0xb6	-1.0069003
242	0x05	0.0680338
243	0xfe	-0.027213521
244	0x03	0.040820282
245	0xfb	-0.0680338
246	0xda	-0.5170569
247	0xe0	-0.43541634
248	0x14	0.2721352
249	0x0a	0.1360676
250	0xfe	-0.027213521
251	0xf8	-0.108854085
252	0xb6	-1.0069003
253	0x12	0.24492168
254	0x00	0.0
255	0xf1	-0.20410141

model/conv2d_8/Conv2D i1 [64, 1, 1, 32]
0	0x00	0
1	0xec	-20
2	0x16	22
3	0x10	16
4	0x36	54
5	0x1b	27
6	0x45	69
7	0x15	21
8	0xf6	-10
9	0x32	50
10	0xad	-83
11	0x5f	95
12	0xf5	-11
13	0x45	69
14	0x95	-107
15	0x05	5
16	0xdb	-37
17	0xf1	-15
18	0x7f	127
19	0xdc	-36
20	0xf7	-9
21	0x0d	13
22	0x8c	-116
23	0x8e	-114
24	0xe8	-24
25	0xc6	-58
26	0xd2	-46
27	0x0c	12
28	0xcf	-49
29	0x2a	42
30	0xcf	-49
31	0xf3	-13
32	0x08	8
33	0xa1	-95
34	0xaf	-81
35	0xc4	-60
36	0x47	71
37	0xdc	-36
38	0xbb	-69
39	0xc8	-56
40	0x1c	28
41	0xc1	-63
42	0x81	-127
43	0xff	-1
44	0xc0	-64
45	0x27	39
46	0x12	18
47	0xcd	-51
48	0x0e	14
49	0x4b	75
50	0x0f	15
51	0xef	-17
52	0xb3	-77
53	0x06	6
54	0x0b	11
55	0x00	0
56	0xa6	-90
57	0xbe	-66
58	0x25	37
59	0x1c	28
60	0xd9	-39
61	0xfc	-4
62	0x1d	29
63	0xea	-22
64	0xe6	-26
65	0x20	32
66	0x30	48
67	0xbd	-67
68	0x01	1
69	0x28	40
70	0x92	-110
71	0xd5	-43
72	0xdb	-37
73	0xe9	-23
74	0xdd	-35
75	0x0b	11
76	0x21	33
77	0xee	-18
78	0x1c	28
79	0xbc	-68
80	0x3b	59
81	0xc6	-58
82	0x43	67
83	0xf2	-14
84	0xa7	-89
85	0x1b	27
86	0xba	-70
87	0xea	-22
88	0xc5	-59
89	0x8e	-114
90	0x81	-127
91	0xe0	-32
92	0xa7	-89
93	0xf0	-16
94	0x3b	59
95	0x11	17
96	0x13	19
97	0x5c	92
98	0x54	84
99	0x1a	26
100	0x09	9
101	0xec	-20
102	0xea	-22
103	0x81	-127
104	0x2a	42
105	0xae	-82
106	0xa7	-89
107	0xd3	-45
108	0x14	20
109	0xce	-50
110	0x90	-112
111	0xd4	-44
112	0xc0	-64
113	0xe1	-31
114	0x01	1
115	0xe2	-30
116	0xff	-1
117	0xc4	-60
118	0xda	-38
119	0x10	16
120	0xeb	-21
121	0xe5	-27
122	0x96	-106
123	0xf6	-10
124	0xed	-19
125	0xef	-17
126	0xe9	-23
127	0xcb	-53
128	0xa6	-90
129	0x0e	14
130	0x1e	30
131	0x08	8
132	0x81	-127
133	0x08	8
134	0x8a	-118
135	0x8b	-117
136	0xa0	-96
137	0x36	54
138	0x53	83
139	0x99	-103
140	0x88	-120
141	0xb3	-77
142	0xa3	-93
143	0xb7	-73
144	0xde	-34
145	0xc3	-61
146	0x0c	12
147	0xa6	-90
148	0x02	2
149	0xad	-83
150	0xba	-70
151	0xc9	-55
152	0x34	52
153	0xc1	-63
154	0x45	69
155	0x18	24
156	0x0c	12
157	0x23	35
158	0xf9	-7
159	0xe5	-27
160	0xf8	-8
161	0xe1	-31
162	0xfb	-5
163	0xb5	-75
164	0xe1	-31
165	0xce	-50
166	0x1b	27
167	0xe4	-28
168	0xd5	-43
169	0xf4	-12
170	0x7f	127
171	0xa8	-88
172	0xd5	-43
173	0x06	6
174	0x85	-123
175	0xa4	-92
176	0xd2	-46
177	0xed	-19
178	0xeb	-21
179	0xe5	-27
180	0xdd	-35
181	0xff	-1
182	0x28	40
183	0xd9	-39
184	0x2e	46
185	0xfa	-6
186	0xdc	-36
187	0xde	-34
188	0xde	-34
189	0x38	56
190	0xc4	-60
191	0x0f	15
192	0xed	-19
193	0x30	48
194	0x19	25
195	0xe3	-29
196	0xae	-82
197	0xae	-82
198	0xde	-34
199	0x88	-120
200	0x3f	63
201	0x0d	13
202	0xff	-1
203	0x8a	-118
204	0xf9	-7
205	0x8c	-116
206	0xee	-18
207	0x61	97
208	0x95	-107
209	0xc9	-55
210	0xc2	-62
211	0xa3	-93
212	0x02	2
213	0xe5	-27
214	0xf2	-14
215	0x12	18
216	0x81	-127
217	0x03	3
218	0xde	-34
219	0xed	-19
220	0x1c	28
221	0xd3	-45
222	0x83	-125
223	0xe0	-32
224	0xf4	-12
225	0xd9	-39
226	0xe6	-26
227	0xdd	-35
228	0xcf	-49
229	0xa0	-96
230	0x21	33
231	0x25	37
232	0xf7	-9
233	0xae	-82
234	0xfa	-6
235	0xea	-22
236	0xe8	-24
237	0x81	-127
238	0xff	-1
239	0xd0	-48
240	0x03	3
241	0xe6	-26
242	0xf3	-13
243	0xfa	-6
244	0xdc	-36
245	0x14	20
246	0x09	9
247	0xcc	-52
248	0xe0	-32
249	0x66	102
250	0xc0	-64
251	0x9b	-101
252	0x2a	42
253	0x4d	77
254	0xe0	-32
255	0xc6	-58

model/conv2d_7/Conv2D i1 [64, 3, 3, 64]
0	0x0f	15
1	0x03	3
2	0x00	0
3	0xe2	-30
4	0xf9	-7
5	0xf6	-10
6	0x2c	44
7	0x28	40
8	0xbe	-66
9	0xf5	-11
10	0x1b	27
11	0xdf	-33
12	0xf3	-13
13	0x09	9
14	0x09	9
15	0xf6	-10
16	0x32	50
17	0x2a	42
18	0x19	25
19	0x03	3
20	0xfc	-4
21	0xea	-22
22	0x07	7
23	0x02	2
24	0x09	9
25	0xeb	-21
26	0xff	-1
27	0xc2	-62
28	0xde	-34
29	0xe8	-24
30	0xee	-18
31	0x20	32
32	0x11	17
33	0xf5	-11
34	0xbc	-68
35	0xea	-22
36	0x13	19
37	0x1d	29
38	0xd3	-45
39	0x26	38
40	0x0c	12
41	0x16	22
42	0x1e	30
43	0x30	48
44	0xf2	-14
45	0xe7	-25
46	0x04	4
47	0xde	-34
48	0xbf	-65
49	0x11	17
50	0x04	4
51	0xe0	-32
52	0x1c	28
53	0x2e	46
54	0x1b	27
55	0xd0	-48
56	0x0b	11
57	0xd5	-43
58	0xb1	-79
59	0xa3	-93
60	0xe5	-27
61	0xf9	-7
62	0xef	-17
63	0x03	3
64	0x1e	30
65	0xea	-22
66	0x17	23
67	0xf0	-16
68	0xf4	-12
69	0xfe	-2
70	0x1c	28
71	0xfd	-3
72	0xd7	-41
73	0x2f	47
74	0x09	9
75	0xed	-19
76	0x25	37
77	0x00	0
78	0x01	1
79	0x03	3
80	0x4a	74
81	0x26	38
82	0x20	32
83	0x03	3
84	0x07	7
85	0xe4	-28
86	0x25	37
87	0x08	8
88	0xe3	-29
89	0xe5	-27
90	0x0d	13
91	0xe4	-28
92	0xf6	-10
93	0xde	-34
94	0x23	35
95	0xe2	-30
96	0x22	34
97	0xd8	-40
98	0x07	7
99	0x14	20
100	0x19	25
101	0x19	25
102	0xc0	-64
103	0x27	39
104	0x10	16
105	0xfd	-3
106	0x4c	76
107	0xe9	-23
108	0xfc	-4
109	0x23	35
110	0xfc	-4
111	0x11	17
112	0xe3	-29
113	0x06	6
114	0x28	40
115	0x0b	11
116	0x1d	29
117	0x4d	77
118	0x05	5
119	0xfc	-4
120	0xc1	-63
121	0xbc	-68
122	0xcb	-53
123	0xe5	-27
124	0x36	54
125	0x1b	27
126	0x06	6
127	0xd1	-47
128	0xe4	-28
129	0xf9	-7
130	0xdc	-36
131	0x31	49
132	0xf3	-13
133	0xa9	-87
134	0xf6	-10
135	0x15	21
136	0xda	-38
137	0xcc	-52
138	0xc1	-63
139	0x21	33
140	0x0e	14
141	0xd4	-44
142	0xd7	-41
143	0x08	8
144	0x4c	76
145	0xff	-1
146	0x0e	14
147	0xf3	-13
148	0x2a	42
149	0xbe	-66
150	0x33	51
151	0x11	17
152	0xed	-19
153	0xeb	-21
154	0xeb	-21
155	0x19	25
156	0x04	4
157	0xb2	-78
158	0x10	16
159	0x1d	29
160	0xfc	-4
161	0xf4	-12
162	0x20	32
163	0xd6	-42
164	0x48	72
165	0x0e	14
166	0xe7	-25
167	0x10	16
168	0x1b	27
169	0xe3	-29
170	0x7f	127
171	0x3b	59
172	0x03	3
173	0xd8	-40
174	0xfc	-4
175	0x0b	11
176	0x0b	11
177	0x09	9
178	0x03	3
179	0xf3	-13
180	0x05	5
181	0x41	65
182	0xe7	-25
183	0x41	65
184	0xb4	-76
185	0xc6	-58
186	0x04	4
187	0xf8	-8
188	0x34	52
189	0xf4	-12
190	0xdb	-37
191	0xe4	-28
192	0xf3	-13
193	0x24	36
194	0xea	-22
195	0xee	-18
196	0x17	23
197	0x08	8
198	0xfb	-5
199	0xfd	-3
200	0xc6	-58
201	0xfe	-2
202	0x36	54
203	0xcd	-51
204	0xe9	-23
205	0x1c	28
206	0x14	20
207	0xd5	-43
208	0x1c	28
209	0x2c	44
210	0x1a	26
211	0x17	23
212	0x37	55
213	0xd6	-42
214	0x2b	43
215	0x07	7
216	0x17	23
217	0xf6	-10
218	0xd0	-48
219	0xe1	-31
220	0xeb	-21
221	0x18	24
222	0x00	0
223	0xee	-18
224	0xdb	-37
225	0xe5	-27
226	0xb7	-73
227	0xe3	-29
228	0x10	16
229	0x21	33
230	0xc7	-57
231	0x02	2
232	0x10	16
233	0xfd	-3
234	0xeb	-21
235	0x12	18
236	0xe5	-27
237	0xfe	-2
238	0xe5	-27
239	0xf9	-7
240	0xd9	-39
241	0xd5	-43
242	0x16	22
243	0x06	6
244	0x31	49
245	0xf9	-7
246	0x16	22
247	0xe8	-24
248	0x11	17
249	0xaa	-86
250	0xe9	-23
251	0xa2	-94
252	0xe4	-28
253	0x1d	29
254	0x06	6
255	0x0b	11

model/conv2d_6/Conv2D i1 [64, 3, 3, 32]
0	0x14	20
1	0xfd	-3
2	0x13	19
3	0x24	36
4	0xbc	-68
5	0x06	6
6	0xf0	-16
7	0x49	73
8	0x37	55
9	0xec	-20
10	0x30	48
11	0x1c	28
12	0xf2	-14
13	0xff	-1
14	0xe0	-32
15	0x0b	11
16	0xee	-18
17	0x02	2
18	0x05	5
19	0x03	3
20	0x0a	10
21	0xfd	-3
22	0xcb	-53
23	0xbb	-69
24	0x07	7
25	0x16	22
26	0xed	-19
27	0xf4	-12
28	0x27	39
29	0xd2	-46
30	0x07	7
31	0xe9	-23
32	0x14	20
33	0x13	19
34	0xf3	-13
35	0x0a	10
36	0xb2	-78
37	0x27	39
38	0xe8	-24
39	0x29	41
40	0xfc	-4
41	0x1b	27
42	0x32	50
43	0x31	49
44	0xeb	-21
45	0x32	50
46	0xed	-19
47	0xf1	-15
48	0xdb	-37
49	0xe6	-26
50	0x22	34
51	0xf3	-13
52	0x09	9
53	0x17	23
54	0xc1	-63
55	0xc4	-60
56	0x17	23
57	0xf7	-9
58	0xda	-38
59	0xe0	-32
60	0x2a	42
61	0xd8	-40
62	0xfd	-3
63	0xe1	-31
64	0x10	16
65	0x0e	14
66	0xf6	-10
67	0xd2	-46
68	0xcf	-49
69	0xf2	-14
70	0x06	6
71	0xf1	-15
72	0xff	-1
73	0x2f	47
74	0xfc	-4
75	0x00	0
76	0x14	20
77	0x2e	46
78	0xe4	-28
79	0xea	-22
80	0xe8	-24
81	0xcb	-53
82	0x0c	12
83	0xf7	-9
84	0x10	16
85	0x23	35
86	0xf0	-16
87	0xd6	-42
88	0x26	38
89	0xf7	-9
90	0xd4	-44
91	0xe7	-25
92	0x1f	31
93	0xce	-50
94	0xe2	-30
95	0xe4	-28
96	0x21	33
97	0xe2	-30
98	0x16	22
99	0x14	20
100	0xd0	-48
101	0x12	18
102	0xd6	-42
103	0x40	64
104	0x26	38
105	0xec	-20
106	0xdf	-33
107	0x35	53
108	0xea	-22
109	0x01	1
110	0xf2	-14
111	0x28	40
112	0xec	-20
113	0x24	36
114	0x21	33
115	0x04	4
116	0xf5	-11
117	0xf3	-13
118	0xce	-50
119	0xca	-54
120	0x05	5
121	0xff	-1
122	0xf6	-10
123	0xf6	-10
124	0x0d	13
125	0xb1	-79
126	0x1b	27
127	0xee	-18
128	0x21	33
129	0xde	-34
130	0xd2	-46
131	0x02	2
132	0xc4	-60
133	0x1e	30
134	0xd0	-48
135	0x31	49
136	0x04	4
137	0x22	34
138	0xf8	-8
139	0x2e	46
140	0xe0	-32
141	0x0e	14
142	0xe5	-27
143	0x47	71
144	0xf9	-7
145	0x22	34
146	0x29	41
147	0xe7	-25
148	0xf6	-10
149	0xf8	-8
150	0xb8	-72
151	0xf0	-16
152	0x1f	31
153	0xe0	-32
154	0xd9	-39
155	0xf3	-13
156	0xfa	-6
157	0x98	-104
158	0x13	19
159	0xe6	-26
160	0x22	34
161	0xd3	-45
162	0xc2	-62
163	0xdc	-36
164	0xc5	-59
165	0xec	-20
166	0xea	-22
167	0xff	-1
168	0x3a	58
169	0x13	19
170	0xd1	-47
171	0x01	1
172	0x07	7
173	0x08	8
174	0xf8	-8
175	0x4c	76
176	0xe4	-28
177	0x16	22
178	0x41	65
179	0xd4	-44
180	0x02	2
181	0x19	25
182	0xfd	-3
183	0x0a	10
184	0x3c	60
185	0xcc	-52
186	0xd0	-48
187	0xf1	-15
188	0x16	22
189	0x8b	-117
190	0x01	1
191	0xe9	-23
192	0x36	54
193	0xd9	-39
194	0x09	9
195	0x05	5
196	0xae	-82
197	0xf1	-15
198	0xac	-84
199	0x22	34
200	0x13	19
201	0xd9	-39
202	0xbc	-68
203	0x2f	47
204	0x10	16
205	0xec	-20
206	0x1d	29
207	0x02	2
208	0x01	1
209	0x44	68
210	0x22	34
211	0xec	-20
212	0xf2	-14
213	0xe4	-28
214	0xdf	-33
215	0x0f	15
216	0x0f	15
217	0x0f	15
218	0x0d	13
219	0xb4	-76
220	0x01	1
221	0xd2	-46
222	0x1a	26
223	0x03	3
224	0x15	21
225	0xad	-83
226	0xe5	-27
227	0x06	6
228	0x88	-120
229	0xe7	-25
230	0x9b	-101
231	0x39	57
232	0x17	23
233	0xef	-17
234	0xeb	-21
235	0x1f	31
236	0xfb	-5
237	0xfe	-2
238	0xed	-19
239	0x0d	13
240	0xe2	-30
241	0x18	24
242	0x31	49
243	0xd3	-45
244	0xdf	-33
245	0xdd	-35
246	0xd4	-44
247	0x14	20
248	0x2d	45
249	0x0f	15
250	0xfa	-6
251	0xd5	-43
252	0x0e	14
253	0xb4	-76
254	0x35	53
255	0x10	16

model/conv2d_5/Conv2D i1 [32, 1, 1, 16]
0	0x49	73
1	0x05	5
2	0xfd	-3
3	0xb1	-79
4	0x28	40
5	0x0a	10
6	0x09	9
7	0xa5	-91
8	0x5e	94
9	0x11	17
10	0x27	39
11	0x7f	127
12	0x10	16
13	0x75	117
14	0xfd	-3
15	0x54	84
16	0x1c	28
17	0x81	-127
18	0x5d	93
19	0x76	118
20	0x39	57
21	0x01	1
22	0x3c	60
23	0xf5	-11
24	0xb8	-72
25	0xdf	-33
26	0x13	19
27	0x99	-103
28	0x22	34
29	0xc7	-57
30	0x8f	-113
31	0xc7	-57
32	0x84	-124
33	0xfc	-4
34	0xcc	-52
35	0x30	48
36	0xa9	-87
37	0xa8	-88
38	0x09	9
39	0x32	50
40	0x00	0
41	0x2c	44
42	0x01	1
43	0xdd	-35
44	0x21	33
45	0x7f	127
46	0xe0	-32
47	0x12	18
48	0x81	-127
49	0xb9	-71
50	0x12	18
51	0xef	-17
52	0xa0	-96
53	0x35	53
54	0x2d	45
55	0xf9	-7
56	0x15	21
57	0x96	-106
58	0x2c	44
59	0x42	66
60	0x13	19
61	0x02	2
62	0x4f	79
63	0x0c	12
64	0xde	-34
65	0x21	33
66	0x21	33
67	0x09	9
68	0xff	-1
69	0xfc	-4
70	0x34	52
71	0xe8	-24
72	0x01	1
73	0x41	65
74	0x29	41
75	0x35	53
76	0xfb	-5
77	0xd6	-42
78	0x81	-127
79	0xd7	-41
80	0xf7	-9
81	0x0b	11
82	0xee	-18
83	0x03	3
84	0xf0	-16
85	0xe8	-24
86	0xe3	-29
87	0x29	41
88	0xe6	-26
89	0x03	3
90	0x05	5
91	0xff	-1
92	0xed	-19
93	0x81	-127
94	0xf5	-11
95	0xf2	-14
96	0xf5	-11
97	0xe7	-25
98	0x21	33
99	0xbf	-65
100	0xa2	-94
101	0x21	33
102	0x81	-127
103	0x82	-126
104	0xac	-84
105	0x02	2
106	0x9f	-97
107	0xf3	-13
108	0xf9	-7
109	0xbd	-67
110	0xe8	-24
111	0x00	0
112	0xfd	-3
113	0xc7	-57
114	0x01	1
115	0xae	-82
116	0x58	88
117	0x18	24
118	0xc3	-61
119	0xed	-19
120	0x0f	15
121	0x00	0
122	0xe0	-32
123	0xd4	-44
124	0x07	7
125	0x81	-127
126	0x27	39
127	0x0d	13
128	0x32	50
129	0xca	-54
130	0x81	-127
131	0xfa	-6
132	0xc4	-60
133	0x0e	14
134	0xe5	-27
135	0x3d	61
136	0xcf	-49
137	0x25	37
138	0x15	21
139	0x52	82
140	0xbf	-65
141	0x0d	13
142	0x33	51
143	0x08	8
144	0x23	35
145	0xd8	-40
146	0x26	38
147	0x25	37
148	0xdf	-33
149	0x07	7
150	0x19	25
151	0x9e	-98
152	0x05	5
153	0x3f	63
154	0x7f	127
155	0xf5	-11
156	0x97	-105
157	0xfe	-2
158	0x24	36
159	0x9d	-99
160	0x81	-127
161	0x0c	12
162	0x0f	15
163	0x05	5
164	0xe7	-25
165	0x0c	12
166	0xd3	-45
167	0xfd	-3
168	0xda	-38
169	0xeb	-21
170	0xbf	-65
171	0xdd	-35
172	0xd6	-42
173	0xe7	-25
174	0x4a	74
175	0xbd	-67
176	0x01	1
177	0xd6	-42
178	0x81	-127
179	0x22	34
180	0x44	68
181	0x1f	31
182	0xd2	-46
183	0xc2	-62
184	0x00	0
185	0x1a	26
186	0x43	67
187	0x4f	79
188	0x02	2
189	0x0d	13
190	0xa2	-94
191	0x0b	11
192	0x6e	110
193	0x81	-127
194	0x2d	45
195	0xba	-70
196	0xc5	-59
197	0x2f	47
198	0xec	-20
199	0xc6	-58
200	0x00	0
201	0x15	21
202	0xf7	-9
203	0x71	113
204	0x32	50
205	0x20	32
206	0xdf	-33
207	0xe2	-30
208	0x11	17
209	0xc3	-61
210	0xe9	-23
211	0x00	0
212	0xff	-1
213	0xf8	-8
214	0xf6	-10
215	0x07	7
216	0xe8	-24
217	0xcb	-53
218	0x07	7
219	0x29	41
220	0x10	16
221	0xd8	-40
222	0x81	-127
223	0xf5	-11
224	0xf0	-16
225	0x38	56
226	0xec	-20
227	0x01	1
228	0x01	1
229	0x3c	60
230	0xe9	-23
231	0x2b	43
232	0xde	-34
233	0xb1	-79
234	0x31	49
235	0xd7	-41
236	0x81	-127
237	0x2a	42
238	0x35	53
239	0x41	65
240	0x23	35
241	0xfe	-2
242	0x19	25
243	0x03	3
244	0xe9	-23
245	0xe2	-30
246	0x08	8
247	0xb5	-75
248	0x26	38
249	0x09	9
250	0x26	38
251	0x0a	10
252	0x2f	47
253	0x7a	122
254	0x7f	127
255	0x1f	31

model/conv2d_4/Conv2D i1 [32, 3, 3, 32]
0	0x38	56
1	0xfd	-3
2	0xe6	-26
3	0x9a	-102
4	0xcf	-49
5	0x12	18
6	0x03	3
7	0x00	0
8	0x06	6
9	0xf1	-15
10	0xe3	-29
11	0x0a	10
12	0xba	-70
13	0x0d	13
14	0x04	4
15	0xce	-50
16	0xe4	-28
17	0xf0	-16
18	0xc2	-62
19	0xe6	-26
20	0xc2	-62
21	0xf5	-11
22	0xdb	-37
23	0x9e	-98
24	0x2a	42
25	0xe9	-23
26	0x15	21
27	0x1f	31
28	0xf6	-10
29	0x14	20
30	0x00	0
31	0x93	-109
32	0x1e	30
33	0x15	21
34	0xfc	-4
35	0xb9	-71
36	0xf7	-9
37	0xf7	-9
38	0x14	20
39	0x22	34
40	0xf3	-13
41	0xe7	-25
42	0xf5	-11
43	0x31	49
44	0xea	-22
45	0x1d	29
46	0x1a	26
47	0xe2	-30
48	0x09	9
49	0x2a	42
50	0xdb	-37
51	0xe0	-32
52	0xbb	-69
53	0xff	-1
54	0x0d	13
55	0x8e	-114
56	0x0b	11
57	0xf1	-15
58	0x3d	61
59	0x38	56
60	0x1a	26
61	0xfa	-6
62	0x0f	15
63	0x97	-105
64	0xf9	-7
65	0xd7	-41
66	0xcd	-51
67	0xb5	-75
68	0xe3	-29
69	0xdd	-35
70	0xf3	-13
71	0x51	81
72	0xea	-22
73	0xf9	-7
74	0xf4	-12
75	0x3e	62
76	0x03	3
77	0x22	34
78	0xfb	-5
79	0x07	7
80	0xd1	-47
81	0x01	1
82	0xf3	-13
83	0xdc	-36
84	0xd3	-45
85	0xec	-20
86	0xdd	-35
87	0xbf	-65
88	0xf4	-12
89	0xfd	-3
90	0xef	-17
91	0x42	66
92	0x05	5
93	0x9d	-99
94	0xca	-54
95	0xbf	-65
96	0x39	57
97	0xd4	-44
98	0xee	-18
99	0xde	-34
100	0x23	35
101	0x1f	31
102	0x11	17
103	0xf6	-10
104	0x0a	10
105	0x0a	10
106	0xe8	-24
107	0x16	22
108	0xcf	-49
109	0xf7	-9
110	0xe6	-26
111	0xd5	-43
112	0x1e	30
113	0xbc	-68
114	0x1b	27
115	0x21	33
116	0x18	24
117	0x19	25
118	0x04	4
119	0xfd	-3
120	0x23	35
121	0xe6	-26
122	0x00	0
123	0xd7	-41
124	0xf7	-9
125	0x18	24
126	0x11	17
127	0xec	-20
128	0x33	51
129	0xff	-1
130	0xf9	-7
131	0x13	19
132	0x34	52
133	0x14	20
134	0x00	0
135	0xfa	-6
136	0xf0	-16
137	0xe6	-26
138	0xf6	-10
139	0x38	56
140	0x26	38
141	0x09	9
142	0x12	18
143	0xfd	-3
144	0x1d	29
145	0x04	4
146	0x1b	27
147	0xf5	-11
148	0xf7	-9
149	0x18	24
150	0x2e	46
151	0xd2	-46
152	0xfd	-3
153	0xfd	-3
154	0x0c	12
155	0x0a	10
156	0x05	5
157	0x02	2
158	0x0e	14
159	0xf7	-9
160	0x23	35
161	0xc8	-56
162	0xb0	-80
163	0x21	33
164	0x0e	14
165	0xdc	-36
166	0xf9	-7
167	0x41	65
168	0xf3	-13
169	0x10	16
170	0xdd	-35
171	0x18	24
172	0x2c	44
173	0x00	0
174	0xd1	-47
175	0x23	35
176	0xcb	-53
177	0xd7	-41
178	0x04	4
179	0x1d	29
180	0x2c	44
181	0x12	18
182	0x14	20
183	0x07	7
184	0xec	-20
185	0x09	9
186	0xd9	-39
187	0xfa	-6
188	0xf3	-13
189	0xbd	-67
190	0xbe	-66
191	0x21	33
192	0x29	41
193	0x8d	-115
194	0x87	-121
195	0x14	20
196	0xd4	-44
197	0xf1	-15
198	0xd7	-41
199	0xd0	-48
200	0xf7	-9
201	0x29	41
202	0xcb	-53
203	0x05	5
204	0xd7	-41
205	0xe4	-28
206	0xda	-38
207	0xfe	-2
208	0xf5	-11
209	0xc0	-64
210	0x22	34
211	0xff	-1
212	0x22	34
213	0xf0	-16
214	0x13	19
215	0x4a	74
216	0x19	25
217	0x08	8
218	0xc1	-63
219	0xe7	-25
220	0xe0	-32
221	0x36	54
222	0x27	39
223	0x16	22
224	0x15	21
225	0xd9	-39
226	0x9f	-97
227	0x26	38
228	0xda	-38
229	0xbd	-67
230	0x07	7
231	0xfb	-5
232	0xf4	-12
233	0x2a	42
234	0x09	9
235	0x16	22
236	0xf1	-15
237	0xdb	-37
238	0xf8	-8
239	0x0f	15
240	0x15	21
241	0xfd	-3
242	0x26	38
243	0x12	18
244	0x1f	31
245	0x1e	30
246	0x15	21
247	0x36	54
248	0x0b	11
249	0xdb	-37
250	0xc4	-60
251	0xd7	-41
252	0xcc	-52
253	0x08	8
254	0xfe	-2
255	0x0a	10

model/conv2d_3/Conv2D i1 [32, 3, 3, 16]
0	0xf3	-13
1	0x25	37
2	0x0b	11
3	0x34	52
4	0xe0	-32
5	0xd7	-41
6	0x25	37
7	0x03	3
8	0x03	3
9	0xdd	-35
10	0xf8	-8
11	0xdf	-33
12	0x07	7
13	0xe0	-32
14	0x27	39
15	0xec	-20
16	0x3a	58
17	0x19	25
18	0x02	2
19	0x3e	62
20	0xdd	-35
21	0xe2	-30
22	0x6b	107
23	0xfa	-6
24	0x44	68
25	0xd2	-46
26	0x0f	15
27	0x4d	77
28	0x2c	44
29	0x55	85
30	0x4a	74
31	0xed	-19
32	0x1a	26
33	0xfd	-3
34	0xda	-38
35	0x29	41
36	0xff	-1
37	0x02	2
38	0x34	52
39	0xd5	-43
40	0x22	34
41	0xb6	-74
42	0x20	32
43	0x27	39
44	0x11	17
45	0xd7	-41
46	0x2d	45
47	0xe3	-29
48	0x17	23
49	0xfa	-6
50	0x1e	30
51	0x2c	44
52	0xdb	-37
53	0x16	22
54	0x72	114
55	0x0a	10
56	0x25	37
57	0xe9	-23
58	0xef	-17
59	0xfc	-4
60	0xdf	-33
61	0x12	18
62	0xf8	-8
63	0xe1	-31
64	0x2c	44
65	0x27	39
66	0x11	17
67	0x3e	62
68	0xe2	-30
69	0x42	66
70	0x7f	127
71	0x29	41
72	0x36	54
73	0xd5	-43
74	0x04	4
75	0x44	68
76	0xda	-38
77	0x28	40
78	0xf3	-13
79	0xcd	-51
80	0x29	41
81	0x06	6
82	0xe9	-23
83	0x13	19
84	0xde	-34
85	0x2d	45
86	0x4b	75
87	0x12	18
88	0x3a	58
89	0xc9	-55
90	0x07	7
91	0x39	57
92	0xeb	-21
93	0x09	9
94	0xf3	-13
95	0xe1	-31
96	0xff	-1
97	0xdd	-35
98	0x1c	28
99	0xd9	-39
100	0xe7	-25
101	0x2b	43
102	0x6b	107
103	0x13	19
104	0x2a	42
105	0xf1	-15
106	0xee	-18
107	0xb3	-77
108	0xed	-19
109	0xc8	-56
110	0xc3	-61
111	0xee	-18
112	0x19	25
113	0xf3	-13
114	0x2b	43
115	0xf5	-11
116	0xe8	-24
117	0x5a	90
118	0x6f	111
119	0xfd	-3
120	0x0f	15
121	0xf8	-8
122	0xf7	-9
123	0xd4	-44
124	0xe4	-28
125	0x02	2
126	0xba	-70
127	0xf9	-7
128	0x1b	27
129	0xfb	-5
130	0xf7	-9
131	0xb7	-73
132	0xea	-22
133	0x42	66
134	0x17	23
135	0xf3	-13
136	0xeb	-21
137	0xcc	-52
138	0xf7	-9
139	0xf3	-13
140	0xda	-38
141	0x04	4
142	0xcd	-51
143	0x16	22
144	0x08	8
145	0xf6	-10
146	0xaa	-86
147	0x23	35
148	0x13	19
149	0x04	4
150	0xfe	-2
151	0x06	6
152	0x0e	14
153	0xfd	-3
154	0x23	35
155	0xf0	-16
156	0x01	1
157	0x19	25
158	0x18	24
159	0xfc	-4
160	0x14	20
161	0x1b	27
162	0xa7	-89
163	0x2d	45
164	0x17	23
165	0x0a	10
166	0xf8	-8
167	0xf2	-14
168	0x0f	15
169	0x0d	13
170	0x30	48
171	0xf3	-13
172	0xf0	-16
173	0x17	23
174	0x17	23
175	0x09	9
176	0x0a	10
177	0x15	21
178	0xa3	-93
179	0x0c	12
180	0x05	5
181	0x07	7
182	0xd4	-44
183	0xe8	-24
184	0xf9	-7
185	0xf3	-13
186	0x1f	31
187	0xff	-1
188	0xe0	-32
189	0x05	5
190	0x0e	14
191	0x03	3
192	0x07	7
193	0x0f	15
194	0x8d	-115
195	0x10	16
196	0x06	6
197	0xeb	-21
198	0xee	-18
199	0x02	2
200	0x09	9
201	0xea	-22
202	0x34	52
203	0xf3	-13
204	0xa6	-90
205	0x22	34
206	0xf8	-8
207	0xfe	-2
208	0xfa	-6
209	0x20	32
210	0x81	-127
211	0x32	50
212	0xf9	-7
213	0x09	9
214	0xee	-18
215	0xec	-20
216	0xe9	-23
217	0x01	1
218	0x24	36
219	0xef	-17
220	0x8a	-118
221	0x24	36
222	0xfb	-5
223	0xe4	-28
224	0xf5	-11
225	0x1a	26
226	0x95	-107
227	0x0a	10
228	0xee	-18
229	0xff	-1
230	0xcb	-53
231	0xe7	-25
232	0xe6	-26
233	0xf4	-12
234	0x28	40
235	0xe8	-24
236	0x9a	-102
237	0x14	20
238	0xec	-20
239	0xe5	-27
240	0xe9	-23
241	0x27	39
242	0xb7	-73
243	0x0a	10
244	0xf2	-14
245	0x08	8
246	0xdc	-36
247	0xf4	-12
248	0xf1	-15
249	0xed	-19
250	0x2d	45
251	0xf6	-10
252	0xac	-84
253	0x25	37
254	0xff	-1
255	0xf2	-14

model/conv2d_2/Conv2D i1 [16, 3, 3, 16]
0	0xde	-34
1	0xec	-20
2	0xfa	-6
3	0x09	9
4	0x06	6
5	0x29	41
6	0x7f	127
7	0xf6	-10
8	0x0f	15
9	0xd9	-39
10	0x46	70
11	0x0e	14
12	0x10	16
13	0xf6	-10
14	0xea	-22
15	0xcf	-49
16	0x18	24
17	0xe4	-28
18	0xf4	-12
19	0x02	2
20	0x0a	10
21	0x0c	12
22	0x1d	29
23	0xd8	-40
24	0x10	16
25	0xe6	-26
26	0x65	101
27	0xef	-17
28	0x0b	11
29	0x0e	14
30	0xd2	-46
31	0xa6	-90
32	0xde	-34
33	0xf4	-12
34	0x0d	13
35	0xf2	-14
36	0x0f	15
37	0xd0	-48
38	0x23	35
39	0xef	-17
40	0x31	49
41	0x03	3
42	0x52	82
43	0xdb	-37
44	0xfe	-2
45	0x06	6
46	0xfa	-6
47	0xc3	-61
48	0xfa	-6
49	0xf4	-12
50	0xe9	-23
51	0x15	21
52	0x1d	29
53	0xd3	-45
54	0x4e	78
55	0xe1	-31
56	0x13	19
57	0xeb	-21
58	0x54	84
59	0xec	-20
60	0xfb	-5
61	0x0e	14
62	0xda	-38
63	0xd0	-48
64	0xf6	-10
65	0xf9	-7
66	0x11	17
67	0x05	5
68	0x1f	31
69	0xc5	-59
70	0x05	5
71	0x08	8
72	0x2f	47
73	0xf9	-7
74	0xc7	-57
75	0xcf	-49
76	0xff	-1
77	0xf9	-7
78	0xe6	-26
79	0xe1	-31
80	0xc8	-56
81	0x01	1
82	0x00	0
83	0xeb	-21
84	0x1a	26
85	0xe8	-24
86	0x27	39
87	0x04	4
88	0x1f	31
89	0xff	-1
90	0x28	40
91	0xf6	-10
92	0x07	7
93	0xf9	-7
94	0x06	6
95	0xfd	-3
96	0xf3	-13
97	0xdb	-37
98	0x06	6
99	0xdd	-35
100	0x3f	63
101	0xa1	-95
102	0x1c	28
103	0xec	-20
104	0x1c	28
105	0xf0	-16
106	0xea	-22
107	0xe0	-32
108	0xf2	-14
109	0x01	1
110	0x00	0
111	0xf1	-15
112	0xed	-19
113	0xe0	-32
114	0xf8	-8
115	0x0a	10
116	0x1c	28
117	0xdc	-36
118	0x03	3
119	0xf9	-7
120	0x0a	10
121	0x08	8
122	0x26	38
123	0xf6	-10
124	0xf4	-12
125	0x04	4
126	0x0e	14
127	0xe1	-31
128	0xf2	-14
129	0x05	5
130	0xec	-20
131	0x28	40
132	0x0c	12
133	0xe8	-24
134	0x2e	46
135	0xe8	-24
136	0xb3	-77
137	0x0d	13
138	0x06	6
139	0xf6	-10
140	0x03	3
141	0xf9	-7
142	0x0a	10
143	0xf8	-8
144	0x06	6
145	0x17	23
146	0x0f	15
147	0xd4	-44
148	0x01	1
149	0x26	38
150	0xf2	-14
151	0x01	1
152	0x40	64
153	0x19	25
154	0x18	24
155	0xfd	-3
156	0x09	9
157	0xf3	-13
158	0xf2	-14
159	0x0b	11
160	0x02	2
161	0x08	8
162	0x0a	10
163	0xf2	-14
164	0xde	-34
165	0x07	7
166	0x02	2
167	0xee	-18
168	0x14	20
169	0x0e	14
170	0xf2	-14
171	0xff	-1
172	0x03	3
173	0xd0	-48
174	0xfc	-4
175	0xf7	-9
176	0xe1	-31
177	0x34	52
178	0x06	6
179	0x09	9
180	0xd7	-41
181	0xe6	-26
182	0xe5	-27
183	0xe6	-26
184	0x17	23
185	0xdb	-37
186	0x0a	10
187	0xf0	-16
188	0xfa	-6
189	0x81	-127
190	0xd4	-44
191	0xe7	-25
192	0xfe	-2
193	0x2b	43
194	0x18	24
195	0xeb	-21
196	0xe6	-26
197	0x10	16
198	0xf2	-14
199	0xe6	-26
200	0x1b	27
201	0x0e	14
202	0x1d	29
203	0xed	-19
204	0x11	17
205	0xdb	-37
206	0xdd	-35
207	0xe8	-24
208	0xf9	-7
209	0x16	22
210	0x18	24
211	0x15	21
212	0xe9	-23
213	0xf6	-10
214	0x07	7
215	0xf9	-7
216	0x04	4
217	0x08	8
218	0x12	18
219	0x04	4
220	0xf5	-11
221	0xdd	-35
222	0xf6	-10
223	0xd5	-43
224	0xe1	-31
225	0x25	37
226	0x1b	27
227	0x19	25
228	0xdb	-37
229	0xf7	-9
230	0xf1	-15
231	0xea	-22
232	0x01	1
233	0xcf	-49
234	0x0a	10
235	0xed	-19
236	0xf8	-8
237	0xa8	-88
238	0xdc	-36
239	0xb0	-80
240	0xfc	-4
241	0x2f	47
242	0x21	33
243	0xea	-22
244	0xe1	-31
245	0xf0	-16
246	0x0b	11
247	0xe9	-23
248	0x1d	29
249	0xe8	-24
250	0x15	21
251	0xe5	-27
252	0x22	34
253	0xc5	-59
254	0xd3	-45
255	0x0d	13

model/conv2d_1/Conv2D i1 [16, 3, 3, 16]
0	0x07	7
1	0x06	6
2	0xf7	-9
3	0x2d	45
4	0xec	-20
5	0xde	-34
6	0x25	37
7	0xee	-18
8	0xfc	-4
9	0xe6	-26
10	0xd1	-47
11	0xf0	-16
12	0xf8	-8
13	0xff	-1
14	0x04	4
15	0x00	0
16	0xdd	-35
17	0x32	50
18	0x0c	12
19	0xca	-54
20	0x12	18
21	0x1b	27
22	0xdd	-35
23	0x50	80
24	0xfe	-2
25	0x23	35
26	0x1b	27
27	0x08	8
28	0x09	9
29	0xfa	-6
30	0x05	5
31	0x04	4
32	0x07	7
33	0xf2	-14
34	0xad	-83
35	0x06	6
36	0xf8	-8
37	0xd5	-43
38	0x20	32
39	0xa2	-94
40	0xfa	-6
41	0xc2	-62
42	0xf3	-13
43	0xec	-20
44	0xf9	-7
45	0xfa	-6
46	0x02	2
47	0x03	3
48	0x1e	30
49	0xeb	-21
50	0xbe	-66
51	0x21	33
52	0xec	-20
53	0xff	-1
54	0x15	21
55	0xfc	-4
56	0xf6	-10
57	0xfb	-5
58	0xda	-38
59	0xf9	-7
60	0xf3	-13
61	0x02	2
62	0x02	2
63	0x02	2
64	0xd5	-43
65	0x1a	26
66	0x23	35
67	0xc0	-64
68	0x18	24
69	0xf4	-12
70	0xdc	-36
71	0x56	86
72	0xfd	-3
73	0x57	87
74	0x31	49
75	0x03	3
76	0x0b	11
77	0xfc	-4
78	0xff	-1
79	0x14	20
80	0x27	39
81	0xf0	-16
82	0x9d	-99
83	0x17	23
84	0xfd	-3
85	0x05	5
86	0x12	18
87	0x81	-127
88	0xf3	-13
89	0x93	-109
90	0x20	32
91	0xee	-18
92	0x06	6
93	0x02	2
94	0x03	3
95	0xfe	-2
96	0x22	34
97	0xf0	-16
98	0xd5	-43
99	0x10	16
100	0xf3	-13
101	0x0e	14
102	0x03	3
103	0x13	19
104	0xfa	-6
105	0xf4	-12
106	0xd5	-43
107	0x0c	12
108	0xe0	-32
109	0x08	8
110	0xfd	-3
111	0xec	-20
112	0xf2	-14
113	0x23	35
114	0x2f	47
115	0xf8	-8
116	0x07	7
117	0xb0	-80
118	0xea	-22
119	0x1c	28
120	0x00	0
121	0x25	37
122	0x12	18
123	0xf1	-15
124	0x1b	27
125	0x06	6
126	0xf7	-9
127	0x14	20
128	0x28	40
129	0xf3	-13
130	0xbe	-66
131	0xcb	-53
132	0xfc	-4
133	0x19	25
134	0x09	9
135	0xbf	-65
136	0xfc	-4
137	0xa9	-87
138	0x1b	27
139	0x0b	11
140	0xfd	-3
141	0xfc	-4
142	0xff	-1
143	0xe3	-29
144	0xe5	-27
145	0xf9	-7
146	0x27	39
147	0x46	70
148	0x49	73
149	0xf6	-10
150	0x19	25
151	0x0e	14
152	0x1b	27
153	0x47	71
154	0xc3	-61
155	0xf9	-7
156	0x13	19
157	0xfd	-3
158	0xe4	-28
159	0xf2	-14
160	0x06	6
161	0x04	4
162	0x05	5
163	0x0f	15
164	0x2d	45
165	0x14	20
166	0x00	0
167	0x19	25
168	0x08	8
169	0x0b	11
170	0xb9	-71
171	0x18	24
172	0x0e	14
173	0x11	17
174	0xe8	-24
175	0x07	7
176	0x06	6
177	0xec	-20
178	0xf4	-12
179	0x07	7
180	0xf0	-16
181	0x17	23
182	0x0e	14
183	0xff	-1
184	0xf1	-15
185	0x24	36
186	0xcb	-53
187	0x17	23
188	0xf6	-10
189	0xe2	-30
190	0xe2	-30
191	0x1d	29
192	0xeb	-21
193	0xfd	-3
194	0xf0	-16
195	0x2a	42
196	0xea	-22
197	0x04	4
198	0xf0	-16
199	0x0a	10
200	0x0f	15
201	0x05	5
202	0x90	-112
203	0x00	0
204	0x16	22
205	0xf1	-15
206	0x20	32
207	0x00	0
208	0x0b	11
209	0xf6	-10
210	0xf1	-15
211	0x0d	13
212	0x13	19
213	0x0e	14
214	0xf8	-8
215	0xde	-34
216	0x0c	12
217	0x06	6
218	0x8d	-115
219	0x03	3
220	0x2d	45
221	0x19	25
222	0x01	1
223	0x0d	13
224	0x19	25
225	0x02	2
226	0xed	-19
227	0x10	16
228	0x1f	31
229	0xd3	-45
230	0xff	-1
231	0xf8	-8
232	0xe5	-27
233	0x18	24
234	0x9e	-98
235	0x14	20
236	0x3d	61
237	0x23	35
238	0x00	0
239	0x11	17
240	0xd2	-46
241	0xe6	-26
242	0xed	-19
243	0xd8	-40
244	0xa9	-87
245	0xf5	-11
246	0xe5	-27
247	0x16	22
248	0x06	6
249	0x13	19
250	0x81	-127
251	0x01	1
252	0x10	16
253	0x02	2
254	0x52	82
255	0xe8	-24

model/conv2d/Conv2D i1 [16, 3, 3, 3]
0	0xbf	-65
1	0xb3	-77
2	0x9a	-102
3	0xb1	-79
4	0x39	57
5	0x33	51
6	0x15	21
7	0x60	96
8	0xfb	-5
9	0x02	2
10	0x12	18
11	0x27	39
12	0x7f	127
13	0x54	84
14	0x20	32
15	0xeb	-21
16	0xa8	-88
17	0x03	3
18	0x44	68
19	0x15	21
20	0xc2	-62
21	0xf6	-10
22	0xe5	-27
23	0x2a	42
24	0xff	-1
25	0xa5	-91
26	0xfb	-5
27	0xe3	-29
28	0x18	24
29	0x56	86
30	0xb0	-80
31	0xd6	-42
32	0x2e	46
33	0x79	121
34	0xcc	-52
35	0xae	-82
36	0xa0	-96
37	0x4e	78
38	0x4d	77
39	0x08	8
40	0xaf	-81
41	0x52	82
42	0x7f	127
43	0x29	41
44	0x8c	-116
45	0xd7	-41
46	0x22	34
47	0x43	67
48	0xa6	-90
49	0x1c	28
50	0xec	-20
51	0x1f	31
52	0x0d	13
53	0x88	-120
54	0x17	23
55	0x1b	27
56	0x1e	30
57	0xa7	-89
58	0xae	-82
59	0xf9	-7
60	0x19	25
61	0x41	65
62	0x00	0
63	0x74	116
64	0x19	25
65	0xf3	-13
66	0x9a	-102
67	0x81	-127
68	0xa6	-90
69	0x34	52
70	0x65	101
71	0x30	48
72	0x51	81
73	0xe6	-26
74	0xfb	-5
75	0xba	-70
76	0xe9	-23
77	0xcc	-52
78	0xde	-34
79	0x28	40
80	0x5b	91
81	0x17	23
82	0x4a	74
83	0x35	53
84	0x30	48
85	0xa3	-93
86	0x81	-127
87	0x28	40
88	0xcc	-52
89	0xbd	-67
90	0xfc	-4
91	0xb1	-79
92	0x37	55
93	0x36	54
94	0x25	37
95	0x72	114
96	0xc8	-56
97	0xf8	-8
98	0xf1	-15
99	0x15	21
100	0x07	7
101	0x13	19
102	0x0b	11
103	0x49	73
104	0x5f	95
105	0x97	-105
106	0xe1	-31
107	0x8f	-113
108	0xf3	-13
109	0x1c	28
110	0x21	33
111	0x26	38
112	0xa1	-95
113	0x22	34
114	0x5f	95
115	0x93	-109
116	0xd9	-39
117	0xcc	-52
118	0xb4	-76
119	0x3c	60
120	0x0c	12
121	0xca	-54
122	0xf1	-15
123	0x65	101
124	0xc8	-56
125	0x26	38
126	0xbe	-66
127	0x7f	127
128	0xf4	-12
129	0xcc	-52
130	0x12	18
131	0x03	3
132	0xe4	-28
133	0x7e	126
134	0xaf	-81
135	0xf2	-14
136	0xde	-34
137	0x0e	14
138	0xbd	-67
139	0x64	100
140	0x7f	127
141	0xaf	-81
142	0xc6	-58
143	0xfe	-2
144	0xbf	-65
145	0xfe	-2
146	0xf3	-13
147	0x44	68
148	0x16	22
149	0xf6	-10
150	0x1e	30
151	0x00	0
152	0xcc	-52
153	0x24	36
154	0x25	37
155	0x1a	26
156	0x11	17
157	0x9c	-100
158	0x8e	-114
159	0x47	71
160	0x27	39
161	0x17	23
162	0x7a	122
163	0xe2	-30
164	0x7d	125
165	0x57	87
166	0x69	105
167	0x43	67
168	0xfa	-6
169	0xf2	-14
170	0x5c	92
171	0xcc	-52
172	0xad	-83
173	0xd1	-47
174	0x27	39
175	0x0f	15
176	0xd0	-48
177	0x96	-106
178	0xd2	-46
179	0xdc	-36
180	0xa7	-89
181	0x8f	-113
182	0xb5	-75
183	0x7f	127
184	0x3b	59
185	0xec	-20
186	0xae	-82
187	0xcb	-53
188	0x2e	46
189	0xdf	-33
190	0x09	9
191	0xcf	-49
192	0x20	32
193	0xdf	-33
194	0x51	81
195	0xf4	-12
196	0xdd	-35
197	0x1a	26
198	0x7d	125
199	0x19	25
200	0x31	49
201	0x81	-127
202	0xc5	-59
203	0xdf	-33
204	0xbb	-69
205	0x59	89
206	0x0c	12
207	0x54	84
208	0xf1	-15
209	0x18	24
210	0xe0	-32
211	0xc9	-55
212	0xa3	-93
213	0xd9	-39
214	0x5d	93
215	0xfb	-5
216	0xe8	-24
217	0x16	22
218	0x11	17
219	0x47	71
220	0x62	98
221	0x29	41
222	0x1b	27
223	0x65	101
224	0x2e	46
225	0xff	-1
226	0x8e	-114
227	0xe7	-25
228	0x81	-127
229	0xec	-20
230	0xa5	-91
231	0xf5	-11
232	0xba	-70
233	0x17	23
234	0x74	116
235	0xdb	-37
236	0x1d	29
237	0xb8	-72
238	0x56	86
239	0xc9	-55
240	0x0d	13
241	0xcd	-51
242	0xff	-1
243	0x6f	111
244	0x1d	29
245	0xd8	-40
246	0x31	49
247	0xbc	-68
248	0xfb	-5
249	0x85	-123
250	0x14	20
251	0x3d	61
252	0x24	36
253	0x6a	106
254	0x32	50
255	0x00	0
