models/resnet8-model.tflite (tflite, 318332 bytes, 20 tensors)

model/activation/Relu;model/batch_normalization/FusedBatchNormV3;model/conv2d/BiasAdd/ReadVariableOp;model/conv2d/BiasAdd;model/conv2d_2/Conv2D;model/conv2d/Conv2D f4 [16]
00000000: 1fbd 66bf 391b 8f3f 443e 8f3e d0f5 323e
00000010: 3886 433f fca1 ec3e 67dc 023f 101c 83bf
00000020: 9670 603e 3031 313d c86c 333f 05cc 1e3f
00000030: 7d0d 183f 2897 773f 78fd 323e fe20 98bd
-0.90132326 1.1180183 0.27977192 0.17476583 0.76376677 0.46217334 0.5111756 -1.0242939
0.21917948 0.0432598 0.7008786 0.6203006 0.5939558 0.9671502 0.17479503 -0.07428168

model/activation_1/Relu;model/batch_normalization_1/FusedBatchNormV3;model/conv2d_1/BiasAdd/ReadVariableOp;model/conv2d_1/BiasAdd;model/conv2d_2/Conv2D;model/conv2d_1/Conv2D f4 [16]
00000000: e7c3 e83f 9866 f0bd 31f5 c83d 2b08 04be
00000010: 5321 7bbe fc5c c9bf ff35 bb3e 7754 213f
00000020: 183b 203f 89fd f73e b1d5 503f 0f33 a63e
00000030: 2824 c8bd 3a5b 4d40 4dce a53f a1ce f33f
1.8184785 -0.11738318 0.098123915 -0.12893741 -0.24524431 -1.5731502 0.36564633 0.6301951
0.6259017 0.4843562 0.8157607 0.3246083 -0.09772521 3.208693 1.2953583 1.9047433

model/batch_normalization_2/FusedBatchNormV3;model/conv2d_2/BiasAdd/ReadVariableOp;model/conv2d_2/BiasAdd f4 [16]
00000000: 9865 173f 483c 163f 3a1f 0d3f 1640 7f3e
00000010: a844 f7be b0de 9e3f 6c0b 4b3f 4c4d a4bf
00000020: c114 233f 0e72 84bc 1fff 213f 1086 a03d
00000030: 9f82 82be 6fee 3cbe 0a55 e4be c8fc 823f
0.59139395 0.5868573 0.5512577 0.2492679 -0.48294568 1.2411709 0.79314303 -1.2836089
0.6370354 -0.016167667 0.6327991 0.078380704 -0.2549028 -0.1845033 -0.4459613 1.0233393

model/activation_3/Relu;model/batch_normalization_3/FusedBatchNormV3;model/conv2d_3/BiasAdd/ReadVariableOp;model/conv2d_3/BiasAdd;model/conv2d_5/Conv2D;model/conv2d_3/Conv2D f4 [32]
00000000: dd2e 0b3f 6ec2 5d3d 8720 aa3f ff4d 633f
00000010: 0bf2 0cbe 3209 1bbf 4153 773f 6fd7 a23f
00000020: 444e 2f3f 678f a63f b061 3d3f b5bc 813e
00000030: 990c 34bf 70ac e63e f236 5bbd e175 6b3f
00000040: 34fb a63f 21d4 95be 5005 163f 5af9 6bbe
00000050: ce77 f8be 3dd4 42c0 e79a 503f 68c8 3f3e
00000060: 5d8f 123f 0096 6cbe e8c8 603f a782 1ebf
00000070: 7709 6b3f fee9 ce3e 5fb0 84bd 9a1a db3e
0.5436838 0.0541405 1.3291177 0.8879089 -0.13764207 -0.60560906 0.9661141 1.2721995
0.684788 1.3012513 0.73977184 0.25339285 -0.7033172 0.45053434 -0.053519197 0.91976744
1.3045411 -0.29263404 0.58601856 -0.23044339 -0.48528904 -3.044204 0.8148636 0.18728793
0.57250005 -0.23104095 0.8780656 -0.6191811 0.9181132 0.40412897 -0.064789526 0.42793733

model/batch_normalization_4/FusedBatchNormV3;model/conv2d_4/BiasAdd/ReadVariableOp;model/conv2d_4/BiasAdd f4 [32]
00000000: 141d bb3f 5871 8b3f a414 b6be db01 f03f
00000010: 0af0 1b3e 0a6a f53f 1714 2a3e a7b6 643f
00000020: 33a9 4840 c053 6b3e af62 3e3e 1255 cf3f
00000030: 6c2b 1a3e 30b6 d33f ee5b 1e40 db3d 833e
00000040: 75b3 0a40 4f7a 6d3f 81d2 a4be 3a04 0f40
00000050: d0a1 cb3b 2ad9 e83e bd4c 3bbe ecbb 24be
00000060: 1b3c 893f cb07 8cbf 8b4d 483f 98be adbe
00000070: ec60 2a40 47e6 8dbe a6e8 ab3d 2177 a13f
1.4618249 1.0893965 -0.35562623 1.8750566 0.15228286 1.9172986 0.16609226 0.89341205
3.135327 0.22981167 0.18592332 1.6197836 0.15055627 1.6539974 2.474361 0.2563313
2.1672032 0.92764753 -0.32191852 2.234633 0.006214358 0.45478183 -0.18290992 -0.16087312
1.0721468 -1.0939878 0.7824332 -0.33934474 2.6621656 -0.2771475 0.083939835 1.261448

model/activation_5/Relu;model/batch_normalization_5/FusedBatchNormV3;model/conv2d_6/BiasAdd/ReadVariableOp;model/conv2d_6/BiasAdd;model/conv2d_8/Conv2D;model/conv2d_6/Conv2D f4 [64]
00000000: 1ebc 2ebd 24b3 433f 9e32 c13e bccf 2cbe
00000010: cb65 b43d a2bf 7b3f 01d2 6abf 7bcf afbf
00000020: bb68 b6bf 29d0 ca3e d69e f13e 0c23 58bf
00000030: 0229 00bf 4eed 75bf f25d b0bd 1cc0 fcbe
00000040: d0a2 223e c646 abbe bee9 793e c9e0 85be
00000050: a54c 2d3e d25b 15be 697e 93bc 2bed d1bf
00000060: fb5a 4dbf dc50 263e ef2b 09bf 009d 28bf
00000070: 85c5 30be f33e 80bf b763 95bf b078 a4bd
00000080: 427d fbbe 3012 873e 90ba cabd 9a3a cdbf
00000090: ec29 ea3d 7110 253e b7a2 0bbe ce4f 4abf
000000a0: aeb5 fbbc b0b3 d4be 5ba8 af3d a176 1dbe
000000b0: 566a 0f3f 6022 563e c2d0 afbe ceb4 46be
000000c0: 66ba 7dbe 362d f53d ddd4 e23d 6d8c b2be
000000d0: 8c48 64be 7550 323e 963e 003f d3df 6cbf
000000e0: 5940 7fbe 8f13 2fbf 95e2 e93e 8716 4a3f
000000f0: 98cb 933f b5fd 423f 8697 0cbf 271d c4be
-0.04265987 0.7644522 0.3773393 -0.1687612 0.08808478 0.98339283 -0.9172669 -1.3735193
-1.4250711 0.3961194 0.47191495 -0.8442848 -0.5006257 -0.96065223 -0.08611669 -0.49365318
0.1588242 -0.33452433 0.24405572 -0.2614806 0.16923769 -0.14585808 -0.018004613 -1.6400503
-0.8021695 0.16241783 -0.5358266 -0.65864563 -0.17262848 -1.001921 -1.1671056 -0.08030832
-0.49119002 0.26381063 -0.09898865 -1.6033509 0.11433777 0.16119553 -0.1363629 -0.7902802
-0.03072628 -0.4154334 0.08577033 -0.15377285 0.5602163 0.2091155 -0.34338957 -0.19404909
-0.24778137 0.11971514 0.11075757 -0.3487276 -0.222933 0.17413504 0.500955 -0.9252903
-0.2492689 -0.6838922 0.4568068 0.78940624 1.1546507 0.76168376 -0.54918706 -0.3830349

model/batch_normalization_6/FusedBatchNormV3;model/conv2d_7/BiasAdd/ReadVariableOp;model/conv2d_7/BiasAdd f4 [64]
00000000: eb75 e93f fa92 a63f 500d cb3f 0be6 eb3e
00000010: b852 b0be 7a88 ac3f b3ec a2bf 7ad7 3340
00000020: ee82 bd3f eaca d8bd 6049 b6be e9fd b13f
00000030: 64be bd3f ccfe fb3f 8b44 2540 4023 9ebf
00000040: ad17 3ac0 8932 dfbd 7109 db3f 746b 0ac0
00000050: 6eec 09be 9366 a2bf 90bb 0640 65cc 9ebf
00000060: 7c9b 78be 30c1 09bf 3c56 0240 4a98 0b40
00000070: 46be 7bbf 7752 babe e3eb 3abf 78a4 a43f
00000080: 6ed3 aa3e 0410 e13f 94e8 2640 20d4 e93f
00000090: e0a5 713f 6e25 0abf 2bd1 6440 d845 f7bf
000000a0: 1026 a93f 3a59 1040 d881 30bd 3085 d23f
000000b0: 3ad3 1a40 8373 623f 43fa 3b3e 2b71 68bf
000000c0: c2dd 853f 7fa3 8140 32da 12c0 6494 e53f
000000d0: 7c64 d83f dcf6 753f 7113 bbbe 2b33 db3f
000000e0: 8216 8140 fd53 0abf a9f8 983f ce4b 6940
000000f0: 2615 4340 202b 65bf d891 2b40 95e6 a1bf
1.8239111 1.3013604 1.5863438 0.46073946 -0.3443811 1.3479149 -1.2728485 2.8100266
1.4805582 -0.10585578 -0.35602856 1.3905612 1.4823728 1.9687133 2.5823085 -1.2354507
-2.907695 -0.10898311 1.7112256 -2.1628084 -0.13469097 -1.2687553 2.105198 -1.2406126
-0.24278063 -0.53810406 2.0365133 2.18117 -0.9833721 -0.3639104 -0.73016185 1.2862692
0.33364433 1.7583013 2.6079454 1.826786 0.9439373 -0.53963363 3.5752666 -1.931819
1.3214741 2.255446 -0.04309258 1.6446896 2.4191422 0.88457507 0.18357186 -0.9079768
1.04583 4.051208 -2.2945676 1.793591 1.6905665 0.960798 -0.3653827 1.712499
4.0339975 -0.54034406 1.1950885 3.6452518 3.0481658 -0.8951893 2.6807766 -1.2648493

model/conv2d_5/BiasAdd/ReadVariableOp f4 [32]
00000000: 2dc0 9b3e e231 0c3e 5027 30be 1d70 ab3d
00000010: 485b d3be eec6 0abe 5705 57bd f76c 7bbe
00000020: 9653 40be dfe0 f2be b46b 7abd 6d85 9ebe
00000030: 7821 e2bc 8fac a73c e836 4b3d ab0b 2fbe
00000040: 156f 8cbd dad5 203d 117d 17bf 79a8 c0bc
00000050: dfb7 9abe c591 01be 503b ddbe 917b 5b3d
00000060: 790f b9be 484a fbbe bd7e 8fbe 34a6 b23d
00000070: 6210 85be 17a4 babc d8d3 cdbe 6e97 5abe
0.30420056 0.13690904 -0.17202497 0.08370993 -0.4128058 -0.13552448 -0.052495327 -0.24553286
-0.18781886 -0.47437188 -0.06113787 -0.3096117 -0.02760385 0.020468025 0.04961291 -0.17094295
-0.06857125 0.039266445 -0.5917521 -0.023517834 -0.30218408 -0.12653263 -0.43209314 0.05358464
-0.36144617 -0.4908011 -0.2802638 0.08723107 -0.25989062 -0.022783322 -0.40200686 -0.21346828

model/conv2d_8/BiasAdd/ReadVariableOp f4 [64]
00000000: 73bc ebbe c370 1fbf 4880 0bbf f318 2ebf
00000010: 5eae d7be 2d0a 15bf 79aa f3be 0d3e dbbe
00000020: ef97 a5be 1a32 36bf 8dd3 32bf 8a09 27bf
00000030: b03b 38bf 496d e2be 8da3 2ebf cc24 c9be
00000040: 2042 1bbf ac9b 00bf 9ddc 26bf 8c72 52bf
00000050: 4ba0 1abf 6be0 08bf 8c2c b1be c07e 46bf
00000060: f340 e9be 82c2 0abf 4b4b 23bf 8b58 97be
00000070: 9086 38bf 5893 57bf 86e6 b1be 7da4 b5be
00000080: 5340 39bf 28e6 31bf f0cc e1be 1123 10bf
00000090: e283 50bf f345 3bbf fdd0 41bf 92bd 47bf
000000a0: b78a d7be 8718 51be 24fe 87be 3869 eabe
000000b0: 5f39 01bf ef49 1cbf 34b1 3fbf 95a7 35bf
000000c0: 3cc3 c2be 6cc0 0abf 97f5 40bf 6ca2 00be
000000d0: f3b2 e8be ca0e 15bf 9aaa 13bf 831a 25bf
000000e0: fa16 07bf c840 f8be f607 12bf f963 2cbf
000000f0: 7de2 02bf 4ff3 2cbf 4781 2abf 94b7 1fbf
-0.46042213 -0.62281436 -0.54492617 -0.6800682 -0.4212522 -0.5821865 -0.47590998 -0.42820778
-0.3234248 -0.711702 -0.6985405 -0.6524893 -0.71966076 -0.44224003 -0.6821831 -0.39285886
-0.60647774 -0.50237536 -0.6518038 -0.82206035 -0.6040084 -0.53467435 -0.346043 -0.77537155
-0.45557365 -0.54203045 -0.6378676 -0.2955974 -0.72080326 -0.84209204 -0.34746188 -0.35477057
-0.72363776 -0.69491816 -0.44101667 -0.5630351 -0.8145124 -0.7315361 -0.75709516 -0.78023636
-0.4209802 -0.20419513 -0.2656108 -0.457834 -0.50478166 -0.61050314 -0.74879766 -0.70958835
-0.38039577 -0.5419986 -0.7537474 -0.12561959 -0.45449027 -0.5822569 -0.5768219 -0.6449358
-0.52769434 -0.48486924 -0.570434 -0.67340046 -0.51126844 -0.6755876 -0.6660351 -0.62389493

model/conv2d/Conv2D f4 [16, 3, 3, 3]
00000000: 8a40 243f a941 873f 7c37 773f 3695 20bf
00000010: d462 d83d fc09 d03e 59b9 3cbf d510 88be
00000020: 6450 21be 52bd 0c3e 23c3 4f3f 881c 5f3f
00000030: 08ec cfbe ddd1 633e b602 0e3f d9ef 86be
00000040: 6935 90be 7b18 2b3e 927f 0bbe a659 9e3e
00000050: 9f5d 763e 46de c8be 168a bb3d 215a f6be
00000060: f9fb 6a3d d245 05bf 30db 04bf b71f 93be
00000070: 4671 58bf 12c7 b0bd 9436 22bd 83ee 2abf
00000080: 01aa 24be 871c 4b3e c2f0 b5be 786f 82be
00000090: 3061 79be 2239 bfbe 6570 de3d c723 21bc
000000a0: 51ee d8bd 704f b93d 8fcf a23e 2447 d63d
000000b0: 6343 8a3e 403d 00be 69b9 10be c5a7 e53d
000000c0: 822e c7bd fe54 83bc f4a8 dc3d e3b8 63be
000000d0: 252d ddbd a162 38bd 7ca5 a13f a2e9 c0be
000000e0: 06e6 233e dd33 d73c 0dae 29bf 88ab fe3c
000000f0: 9e8d 91bf 43e9 a9bf 90b1 9ebd b230 d43f
00000100: 65b3 4d3f 81df 393e e328 edbe 4a40 043f
00000110: b9ea 0f3d 7876 b1bf ec6e eebe a384 c1be
00000120: c0c4 093f ba90 4b3f 0453 ffbe b071 c4be
00000130: fb28 5b3d eec0 b9be 4908 2dbf f0f8 773f
00000140: 029d 3b3f 4309 e13f c980 1ec0 1610 0ac0
00000150: 2b39 3e40 b119 513e 83f7 ccbe d1d1 36bf
00000160: df9a a1bd c6d6 943d 8626 5340 c13a 2e3f
00000170: 3fd4 4e3f d04a c3bd 3977 58c0 e92a a1bf
00000180: c3bf 4b3f 8d35 793f 0f61 1b40 d894 2fbf
00000190: 89a8 03bf e986 f53c f901 5fc0 6df6 8ebf
000001a0: 8f19 ea3a 15ee d2bf 31ec 5140 b492 c03f
000001b0: 36a1 91bf a1aa 3ac0 87a4 8dbf 6568 16c0
000001c0: f7f7 843d 7388 a3bf 765b c53e 2ed4 1140
000001d0: a0de 833e df67 0940 c854 cf3e e025 0f40
000001e0: 0883 ffbf 5f31 bebf f4b8 42c0 3112 6a3f
000001f0: e8ae 7140 5da3 fd3f 93c6 a63f 0bee 61bf
00000200: bff9 533f 169f a6bf d39c df3f da42 28bf
00000210: 00c3 efbf 47a3 2a40 0c70 9cbf 140d fdbe
00000220: 8a42 903e 608d ca3e 2785 a73f b4d7 c0bd
00000230: 95e7 c73f 89d7 0d3e cd6f 6fbf 2a21 0d40
00000240: e59a 1fc0 e84e e3bf 2b05 6dbf c82d 03c0
00000250: e188 0fc0 5285 8fbf dc95 c83f 6ecb 5ebf
00000260: 6d56 cf3f c243 413f b41c ab3d bad9 09bd
00000270: 4fdd e13f ff5f 0740 8017 9c3f d742 7c3f
00000280: 1fc1 a1bf b337 cfbf 9bd0 fcbe 0e38 c93e
00000290: ac18 d73f 03d6 acbf 465e 41bf 0389 59bf
000002a0: e303 083f e8f9 f73e a136 763e 5355 a0be
000002b0: 8243 5abc acbc 033f 7c51 b0be 6185 9b3e
000002c0: a655 1bbf 0022 6e3f 92c5 d33f 9b85 1f3f
000002d0: 0f5c 883e be7f 88bf 8e84 5dbf 0105 ffbe
000002e0: 858f 57bf 736b 12c0 8a39 6d3f 2f53 aa3f
000002f0: 8d39 21bf 9294 fabe 388f 3abf e0d7 9fbf
00000300: e5be 333e f48a 5a3e 0518 3bbe 615f b8bd
00000310: b9d2 0fbe 2a3e 9c3f 8d5c 253f d323 023f
00000320: 76fb 0c40 579b 1f3d 97bb 9fbd 0a00 e43f
00000330: 2dbf 29c0 5bb5 12c0 ae98 d93f ea93 573f
00000340: 61f2 6bbf f3cd 05c0 cc2f 983f 0aaf 65bf
00000350: 84e5 25bf 92da 4f3f d06c 953f 2c99 a93f
00000360: 9f11 62bf 1554 983f 7371 aabf 3c93 86bf
00000370: f43a f53d 03f8 43bf 0b0f 2b3f ed07 9f3e
00000380: 77c2 80bd 0771 5abf 81f0 ed3f 55b5 d63f
00000390: 69d7 febf c972 e8bc 279e 373f ebfb e0be
000003a0: 8323 3a3f 1340 bb3f f63c 08be 4880 fb3f
000003b0: a210 6f3e de50 a8bf 7a1b a4bf 279f 8bbf
000003c0: e603 853e 2b9d b5be 119d 1b3f 5b76 d5bf
000003d0: bf85 73bf deaa 36bf a414 bfbe cd8c 7d3f
000003e0: 0b92 36bf 4a30 cdbf b71e 5a40 0ffd 833f
000003f0: b136 cbbd 05cb 20c0 db41 8e3d 4f7a e23f
0.6416098 1.0566913 0.9656904 -0.6272768 0.10565725 0.40632617 -0.7372032 -0.26575342
-0.15753323 0.13744095 0.8115713 0.8715291 -0.40609765 0.22248025 0.55472887 -0.26354864
-0.2816575 0.16708557 -0.13622883 0.3092777 0.24059151 -0.3923208 0.09157197 -0.48115638
0.057369206 -0.5205966 -0.51896954 -0.28735134 -0.8454784 -0.0863172 -0.03960283 -0.6677019
-0.16080476 0.19835101 -0.35535246 -0.2547567 -0.2435348 -0.37348276 0.10861281 -0.00983519
-0.1059233 0.090483546 0.3179898 0.10462788 0.27004537 -0.12523365 -0.14133228 0.1121364
-0.097256675 -0.016031738 0.10774413 -0.22238497 -0.10799626 -0.045015935 1.2628627 -0.37678248
0.16005716 0.026269848 -0.66281205 0.031087652 -1.1371343 -1.3274311 -0.07748711 1.6577361
0.8035186 0.18151666 -0.46320257 0.516606 0.03513596 -1.3864279 -0.46569002 -0.37796506
0.5381584 0.7951771 -0.49868023 -0.38367987 0.05350588 -0.36280006 -0.6759077 0.96864223
0.7328645 1.7580951 -2.4766104 -2.1572318 2.9722393 0.20419957 -0.40032586 -0.71413904
-0.078908674 0.07267527 3.2992263 0.680584 0.8079261 -0.09535754 -3.3822768 -1.259122
0.7958948 0.97347337 2.427799 -0.6858649 -0.5142904 0.029971557 -3.4844954 -1.1168953
0.00178604 -1.6478907 3.280041 1.504477 -1.1377323 -2.9166644 -1.1065835 -2.3501217
0.06492608 -1.2776016 0.38546342 2.2785754 0.25755787 2.1469648 0.4049437 2.2366867
-1.9961863 -1.4858817 -3.0425386 0.9143401 3.7763004 1.981548 1.302935 -0.8825385
0.8280296 -1.3017299 1.7469734 -0.6572701 -1.8731384 2.6662157 -1.2221694 -0.4942404
0.28175765 0.39560986 1.308751 -0.09416142 1.5617548 0.13851751 -0.9352997 2.2051492
-2.493829 -1.7758455 -0.9258601 -2.0496693 -2.2427294 -1.1212561 1.5670733 -0.8702916
1.619825 0.75494015 0.08355084 -0.033654906 1.7645663 2.1152341 1.2194672 0.9853949
-1.2637061 -1.6188873 -0.49377903 0.3930058 1.6804404 -1.3502811 -0.75534475 -0.8497469
0.5313093 0.4843285 0.24044277 -0.31315097 -0.013321759 0.51459765 -0.34437168 0.30375198
-0.60677564 0.9302063 1.6544669 0.6231324 0.26632735 -1.0663984 -0.8653039 -0.49808505
-0.8420337 -2.2878082 0.9266592 1.3306636 -0.6297844 -0.48941475 -0.72874784 -1.2487755
0.17553289 0.21342069 -0.18270881 -0.09002567 -0.14045228 1.2206471 0.64594346 0.50835913
2.202848 0.038966503 -0.07799452 1.7812512 -2.6522934 -2.292319 1.6999719 0.84210074
-0.92166716 -2.0906951 1.1889586 -0.89720213 -0.6480334 0.81192887 1.1673832 1.3249869
-0.8830814 1.190066 -1.3315872 -1.0513682 0.11974135 -0.7655031 0.6681983 0.31060734
-0.06287091 -0.85328716 1.8589021 1.6774088 -1.9909488 -0.028375046 0.71725696 -0.43942198
0.72710437 1.4628929 -0.13304505 1.9648523 0.23346189 -1.3149679 -1.2820885 -1.0907944
0.25979537 -0.35471472 0.6078654 -1.6676744 -0.95125955 -0.7135447 -0.37320435 0.9904297
-0.71316594 -1.6030362 3.4081247 1.0311602 -0.09922541 -2.5123913 0.06946155 1.7693576

model/conv2d_1/Conv2D f4 [16, 3, 3, 16]
00000000: 1bda 3cbd b94d 953c 0b0c c0bd c5f3 443e
00000010: d306 bdbe 8e3c cf3c 438f 0d3e d270 c7bc
00000020: ae1d 1e3d 8628 cdbd 5e8f b0bd 26ba 86bd
00000030: 131c b33d cbc0 6a3d d9da b8bd 99eb 853d
00000040: abe3 0dbe 02f7 543c 9e51 18be 061e 83bd
00000050: c172 9fbd 1ac4 b2bd 89fe 02bc edec 133b
00000060: a120 5bbd e662 01bd 2e7c b13d 4f72 20be
00000070: d9b7 ecbd 2f17 88bd f735 85bc bd96 2a3e
00000080: b4c0 1dbe 519b 00bd e10b 20be 3532 74bc
00000090: aef7 f13c 342a b33c 3b2c 81be db75 27bd
000000a0: 0100 9bbd 7a3c b4ba db31 9e3c 0ab4 a63d
000000b0: c3d3 613c d223 a13d 7261 8bbe a2d4 f6bd
000000c0: d7a0 2c3c 1c32 d33d 44ef fbbd dd12 2d3e
000000d0: 7555 c43c 4fcf 6f3d feb2 913d 7d71 e83c
000000e0: bc7f cabb 6bbf 12be f596 31bd 22cd 3cbd
000000f0: 4a94 20be e66a c33d 459b 92be 906f 8fbc
00000100: ba53 a0bd 7c92 003d 6250 c9bd 3f6e 8bbd
00000110: b08f 56be 6a8d 053c 6ab7 8fbc fa4e a0bd
00000120: 9f90 a6bd 46bc 2b3c ab5f 023d a5bd e5bc
00000130: 9b51 a1bd 295a e53c c5dc 68be f5c3 323d
00000140: 9155 19be cd10 793c 1d68 18be bbb1 7e3d
00000150: 501b a4bd 48f6 8fbe b9ba cd3d 9104 82bd
00000160: d39a 1b3d 0ece bf3d f11b f03d b900 2fbd
00000170: 23ae 4d3d 3a5e 90bd 12de 073e 9434 633d
00000180: 849d 993d c91d f13d 4073 5dbd 35fc 44be
00000190: 999f debd e32c bcbd 1e57 9a3c 6924 fe3d
000001a0: 8991 783c e3f6 17be 41a4 7a3e e1dc cabd
000001b0: 7a5c 25be f4c8 a6bd 3c46 99bd 494f 333c
000001c0: 8f93 5f3b af60 d93d c8c5 8dbd fad0 a8bd
000001d0: 73fc 9c3e d5a3 1d3d 059e 95be a6cb 843d
000001e0: b170 963d 24d3 febc 42bd 69be be7a 0fbd
000001f0: b885 f9bd 18e1 263d 25b2 25bd 661f 5dbe
00000200: 6b16 20bd 7785 783d 94e1 51be e13c b7bc
00000210: a02e d23c 971a 5f3e 87a3 53bd cbf6 a7bc
00000220: 2ed9 52bc fa99 743e d105 833e 651a 073d
00000230: 8fb1 7f3c b634 bbbd 4346 eabd 8c26 3fbd
00000240: 7453 57bc f01a 26bd 9a93 47be 914e 82bd
00000250: 528f b33d 4aca 863e 32fa 453e ea18 dbbc
00000260: d99a 4f3e 6793 8f3d 4b8d 5cbd 3bcc f83a
00000270: 2feb e53c fc69 6fbd eb16 16bd c056 e13d
00000280: 1b9d 4d3d d62a a1bb 982c 55bc 4dd0 9bbc
00000290: 9e08 ec3d 7ddf 1a3d 5f41 3d3e fab5 ac3d
000002a0: cc8c c5bc 41e2 213e 4e79 2bbe fad0 ebbd
000002b0: 8ce1 e1bd 2b4f 93bb f8cd a53d 8432 b13d
000002c0: e3d4 5d3e 7e27 773c 66ce 12be 3710 84bd
000002d0: 8945 813c 144d e63d 878b 6a3d 7470 213d
000002e0: 8016 123e 4782 333e c023 3abe 49d0 87be
000002f0: d4f3 fb3b 69c5 d43d 8c0b 29be 7d5e 543d
00000300: a62f 64be 00e9 21bd eef6 46be 3374 0abd
00000310: e395 7a3e dff1 af3e 4b42 083d bdb5 bcbd
00000320: ba24 c63d 7f35 4abe 79aa a53d 2709 063e
00000330: 8b10 533d d421 b83c 3050 24be 60a7 3c3d
00000340: f924 6b3c 591c cc3c 583b fbbd 25df 8e3d
00000350: 8f8e bebd eb42 d9ba 85c1 7cbd 2560 ca3d
00000360: 8625 99bc d5ed 833d 7a6c 5cbd dac2 ebbc
00000370: b8a9 01be 0dc7 3b3e 4920 3f3d 2f10 c93b
00000380: f18b 6f3e efc7 773c 3a37 67bb da44 463e
00000390: 364e c4bc 3f41 82be 8482 25bd d944 643e
000003a0: 2552 7ebe 067c c3bd 34ca debd 8813 973d
000003b0: 1114 173c bc60 7a3d d8fb cd3d 6961 4f3d
000003c0: d812 24be fa8b b2bc 2656 dbbd 6653 aabd
000003d0: 6b5b 65be 3329 bc3d f64f a2bd ccd4 023c
000003e0: b338 a9bd b55d 89be 166c bf3d b7ff ce3d
000003f0: f816 253e 68aa 45be 27de a6bd 7b1a 66bd
-0.04610644 0.018225538 -0.09377297 0.19233616 -0.3691927 0.02529743 0.13824181 -0.02434579
0.038602524 -0.10017495 -0.08621095 -0.06578474 0.08745589 0.057312768 -0.09026117 0.06539077
-0.1385638 0.012998344 -0.14874884 -0.06402211 -0.077855594 -0.0872881 -0.007995256 0.0022571639
-0.053497914 -0.031588458 0.086662635 -0.15668605 -0.11558504 -0.06645047 -0.016261084 0.16659065
-0.15405542 -0.03139812 -0.15629531 -0.014904548 0.029537048 0.02187071 -0.25229058 -0.04088388
-0.0756836 -0.0013750934 0.019310882 0.081398085 0.013783398 0.0786816 -0.27222782 -0.12052275
0.010536394 0.10312292 -0.12301496 0.16901727 0.02396653 0.058547314 0.07114218 0.028374428
-0.006179778 -0.14330833 -0.043356854 -0.046094067 -0.15681568 0.09541874 -0.28634086 -0.017509252
-0.078284696 0.0313897 -0.09829785 -0.06808137 -0.2095325 0.0081513915 -0.017543513 -0.078275636
-0.08133053 0.0104819 0.031829517 -0.028044531 -0.07876893 0.027997093 -0.22740467 0.04364391
-0.14974047 0.0152017595 -0.14883466 0.062181216 -0.08013022 -0.28117585 0.1004538 -0.06348527
0.03798945 0.09365474 0.117240794 -0.0427253 0.050214898 -0.07049222 0.13268307 0.055470064
0.07500747 0.11773259 -0.05406499 -0.19236834 -0.108702846 -0.09188249 0.018840369 0.124092884
0.015171417 -0.14840274 0.2447672 -0.099054106 -0.16148558 -0.081437975 -0.07484099 0.010944196
0.0034115051 0.10614144 -0.069224894 -0.08242984 0.30661353 0.03848632 -0.29222122 0.06484155
0.07345713 -0.03110654 -0.22826102 -0.035029165 -0.12183708 0.04074201 -0.040453095 -0.21594009
-0.03908388 0.060674157 -0.20496207 -0.022367897 0.025656998 0.21787487 -0.051669624 -0.020503422
-0.0128691625 0.23886862 0.25590375 0.032984156 0.015606298 -0.09140913 -0.114391826 -0.04666762
-0.013142455 -0.040553033 -0.194899 -0.063626416 0.087675706 0.2632621 0.19333723 -0.026745278
0.20273913 0.07010537 -0.053845685 0.0018981764 0.028066246 -0.058450684 -0.03664295 0.110028744
0.050198656 -0.0049184365 -0.01301112 -0.019020224 0.11525081 0.03781079 0.18481968 0.08433147
-0.024114989 0.15808965 -0.16745493 -0.115144685 -0.11029348 -0.0044955215 0.08095926 0.08652213
0.21663241 0.015085099 -0.14336547 -0.06448405 0.015780227 0.1124517 0.05726197 0.039413884
0.14266396 0.17530166 -0.181777 -0.26526096 0.0076889787 0.103892155 -0.16508311 0.051847924
-0.22283801 -0.039528847 -0.19430134 -0.033802222 0.2447124 0.3436422 0.033266347 -0.09214351
0.09674974 -0.1974697 0.08089156 0.13089429 0.05152945 0.022477068 -0.16046214 0.04605806
0.014352077 0.024915861 -0.12267178 0.06976155 -0.09304535 -0.0016575729 -0.061707992 0.09881619
-0.01869465 0.06441847 -0.05381439 -0.028779436 -0.12662399 0.1833765 0.04666165 0.0061359624
0.23393227 0.0151233515 -0.003528072 0.19362202 -0.023963075 -0.25440404 -0.040407673 0.22291888
-0.24836023 -0.0954514 -0.10878411 0.07376772 0.009221093 0.06112741 0.10057801 0.050630007
-0.16022813 -0.021795262 -0.10709791 -0.08316688 -0.22398154 0.091875456 -0.079254076 0.007985305
-0.08262768 -0.26829305 0.09346788 0.101073675 0.16122043 -0.19303286 -0.08147841 -0.056177597

model/conv2d_2/Conv2D f4 [16, 3, 3, 16]
00000000: 7549 2fbe 0895 5e3d c697 a03d 0651 bdbd
00000010: 7486 abbd 5d3d bcbc bb18 d33d 5960 5d3d
00000020: e934 503d 3ee2 7a3d 01d9 db3d 0227 3a3d
00000030: 087b 78bd 70ef 8b3c 1e5f c7ba cfa5 213e
00000040: a8cd bfbb 22bf 533e 90f7 193e 06a3 b0bd
00000050: e1d7 c8bd b86a 0fbd 12f2 eb3d 5a38 dc3b
00000060: 6eff 863d 61b7 bd3c 1d09 543d 10af 483d
00000070: d3ec b3bd aaea 5e3b f920 58bd 07d4 23bd
00000080: bba5 f13d 2f4b fc3c e7f2 d23c b166 103b
00000090: eca6 10be 48d8 40bd e051 0a3d b594 04bd
000000a0: f019 ef3c 9901 85be 11ce 6ebd dc9f 9dbd
000000b0: 5bf8 81bd 27d7 4b3c 72f5 8f3d 6974 afbd
000000c0: 3518 8abd e36f 9d3d ad4a c13d e290 4e3d
000000d0: 4af9 0ebe c5c8 f73d fafb a5bd dbda 12bd
000000e0: 5512 723d af77 2dbc 8730 aa3c 72f6 563d
000000f0: 33ad 18be cb2a 19be faf6 a93c 5a2c 703b
00000100: 372e b93c c8bb d33c c42b 5cbd c096 813d
00000110: 378d 433c 577c ac3d 1fe3 bfbd 0c43 6dbd
00000120: ecb7 6b3d 136b 733d 0089 2fbb 232d 873d
00000130: ded1 eabd 3add 8bbb 6a33 ddbc d174 02be
00000140: 72d6 963d 1004 0cbe 8776 81bd 8f53 0c3d
00000150: dbaa 743d 41fd 1dbd 28f5 123e fde7 9cbd
00000160: 272a c93d 64d1 42be c01a edbc d48d 9bbc
00000170: 09fa fabc f60b 5d3d 574a bd3d 5f3a 18be
00000180: bb58 803d f0bb 88bd 67a2 073e 9078 6c3d
00000190: 515e 15be 2548 a2bc f0ce 6a3c 658f 58bd
000001a0: f04d ce3d 30c7 18be 2bf8 02bc 7709 ee3c
000001b0: e990 66be b190 72bc adae b9bb f9b5 56bb
000001c0: b5a8 2ebd 46c7 373b 8d91 c3bb ed9e 92bc
000001d0: 58f4 44be 4476 87bc 4c29 70bd c550 06be
000001e0: 0987 e7bc 2564 df3c 157c 133d 3174 50bd
000001f0: 0df1 39be 8daa 023d c459 49bc 568b dbbd
00000200: f4ee a9bd daeb 8cbe fe3c 233d fa80 1dbe
00000210: c328 49bd 2fa2 aebc 98be 593d 0ee4 42be
00000220: 561f 8b3c 6914 98bd c348 3ebc f10c adbb
00000230: 8a5f 6c3c 1738 8ebd b561 233e 3c1f 49bd
00000240: 436c 9a3d 2283 63bd 91ea 043e 74d3 123e
00000250: c33b ac3d eb4d e73d 81cb 82be a8a8 163d
00000260: 4c29 193d 49c7 7dbe 202e 01be a7f1 703e
00000270: 50d0 40bd e2f0 a7bd 7449 2b3d 440c 12be
00000280: 4111 f3bd f016 7abe 10ff 633c 6367 41bd
00000290: f3d2 723c 2d62 9cbd f816 f1bd 23ed e63d
000002a0: c32a 2dbc 2d9d df3d 67b9 02be 206d 16bd
000002b0: 09d0 d2bd e4e0 143d 5db9 95bd 5679 043e
000002c0: f772 643b aef1 033d 4ec4 78be bc30 8fbd
000002d0: bfa6 ccbc 6089 ce3c 2b0b 06be b274 e2b9
000002e0: 9933 13bd 69fd 24be 1e8c d13c fbce 15be
000002f0: ded1 08bd 47fd 963d 5262 29be b856 ccbc
00000300: 930b 17be af42 0c3e 9996 64bd f941 5e3e
00000310: de9d 483d 4001 27bc 6296 883d 025a dfbc
00000320: e2a1 643e f5bb 433e bb17 2dbe f2bf 25bc
00000330: 8290 1dbc 3f2c 6dbe 7e13 bdbd b772 913d
00000340: defd 033e 1e5c 06be 8432 303c 475a a2bd
00000350: 2e09 e23c bd46 bebd 2710 d93d bf14 17bd
00000360: 5b8f 9e3e 9e79 3b3e 96f9 bdbc 157c c8bc
00000370: 90cc 41be d988 acbd 4888 bf3d 02a1 2f3e
00000380: 69ae cc3c 492c 3cbd 6ca0 a2bd 8c8e 12be
00000390: 4ed4 2b3e d4de 0abe 01c8 193c 1745 93bd
000003a0: 5591 9c3e bf1f c83d 3923 2b3d 0db1 a0bc
000003b0: d96c 09be 5d17 283e 8fe9 9cbd 4975 083e
000003c0: 51c9 c1bc 74dc 193d b3ef 0bbe 62ca eb3c
000003d0: 2789 23bd 3819 9a3d 0340 b33d 5ade e2bd
000003e0: 61d1 17bc 857c e93b 842c 04be 04bb 623d
000003f0: bfc4 0c3e 3222 86be a4cb 06bd a5dc b43d
-0.17117865 0.054341346 0.078414485 -0.092439696 -0.08375254 -0.022978479 0.10307451 0.054046962
0.05083171 0.061250918 0.107347496 0.045447357 -0.060664207 0.017081946 -0.0015210842 0.15785907
-0.0058533736 0.2067838 0.15035844 -0.08624844 -0.09806801 -0.035013884 0.115207806 0.006720585
0.06591688 0.023158731 0.051766504 0.048995078 -0.08785405 0.0034014382 -0.05276582 -0.039997127
0.11799189 0.03079757 0.02575059 0.0022033865 -0.14126176 -0.047081262 0.03376949 -0.03236838
0.029187173 -0.2597778 -0.05830199 -0.076965064 -0.06346198 0.012441433 0.07029237 -0.08567125
-0.067428984 0.07687356 0.094380714 0.05043114 -0.13962284 0.120988406 -0.08104701 -0.035853248
0.059099514 -0.010587617 0.020775093 0.052481122 -0.1490982 -0.1495773 0.02074765 0.003664753
0.022605045 0.025846377 -0.053752676 0.063275814 0.011935524 0.084221534 -0.09369492 -0.05792527
0.05754845 0.059428286 -0.002678454 0.06600406 -0.1146581 -0.0042683156 -0.027002055 -0.12739874
0.07365121 -0.13673425 -0.063214354 0.034259375 0.059733253 -0.0385716 0.14351332 -0.07661436
0.09822493 -0.19025189 -0.02894342 -0.018988527 -0.030636804 0.053966485 0.09242695 -0.14866017
0.06266924 -0.06676471 0.13245545 0.057732165 -0.1458676 -0.019809792 0.014331564 -0.052871127
0.10073459 -0.14919734 -0.007993738 0.029057248 -0.22516216 -0.014805005 -0.005666575 -0.0032762273
-0.04264136 0.002804236 -0.0059682787 -0.017898047 -0.19233835 -0.016535886 -0.058633134 -0.13116749
-0.028262632 0.027269432 0.036007006 -0.05089206 -0.1815836 0.03190093 -0.012289468 -0.107199356
-0.0829753 -0.2752369 0.03985309 -0.15381232 -0.04911114 -0.02131757 0.05316028 -0.19032308
0.016982716 -0.07425768 -0.011614027 -0.0052810838 0.014427075 -0.06944292 0.15955241 -0.049102053
0.075401805 -0.05554498 0.12980105 0.14338475 0.08409836 0.112941585 -0.25545886 0.036781937
0.0373929 -0.24783053 -0.12615252 0.23529683 -0.047073662 -0.082002416 0.041818097 -0.14262491
-0.11868525 -0.24422812 0.013915792 -0.047217738 0.014820802 -0.07635913 -0.11771959 0.11275699
-0.010569277 0.10918651 -0.12766038 -0.036725163 -0.10293586 0.036347285 -0.07310746 0.12936911
0.0034858563 0.032212906 -0.24293634 -0.06991717 -0.024981854 0.02521199 -0.13090198 -0.00043193024
-0.03593788 -0.16112293 0.025579508 -0.14629738 -0.03340327 0.073725276 -0.16541412 -0.024943694
-0.14750509 0.13697313 -0.055807684 0.21704854 0.04897868 -0.010193169 0.06669308 -0.027264599
0.22327378 0.19114669 -0.16903584 -0.010116564 -0.009616973 -0.2316141 -0.092322335 0.07101958
0.12889811 -0.13121077 0.010754231 -0.07927375 0.027592268 -0.09290836 0.10598784 -0.03688502
0.30968747 0.18308112 -0.0231903 -0.02447323 -0.1892569 -0.08424539 0.093521655 0.17151263
0.024985509 -0.04594067 -0.07940754 -0.1431219 0.16780207 -0.13561565 0.009386064 -0.07190912
0.3057963 0.0977168 0.041781638 -0.019615674 -0.13420428 0.16415162 -0.07661735 0.1332599
-0.023655565 0.037563756 -0.13665657 0.028783027 -0.03992572 0.07524341 0.08752444 -0.110775664
-0.009266228 0.0071254396 -0.12907606 0.055354133 0.13746928 -0.26197964 -0.03290905 0.08831147

model/conv2d_3/Conv2D f4 [32, 3, 3, 16]
00000000: e03f 643d 0622 953c a999 3abe e7fe 95ba
00000010: fd9b 0abe 6618 433c 045c fabd cbad 603c
00000020: 5216 f2bd 6933 1ebe cfea 0e3e 984a a0bd
00000030: 0cf7 ad3d a64a 1f3e 65d3 52be a7fb 233d
00000040: 9500 10bd 39bd 01be d18a 2dbe 3209 d43d
00000050: bc9d 00be 804c d93b d9f9 b0bd dfdc e43d
00000060: c5e0 e9bd 64b3 c33b f45e 82bc 5bd0 d7bc
00000070: 4eec 98bd cf8c cdbd 880f d7bd d654 e3bd
00000080: 0c94 893c 86a1 c0bd 2564 66bd 21a8 aebd
00000090: 68c9 f7bd f1ef 50bb 6270 d13d 686c 013b
000000a0: b126 13bc 721d 92bd e04a 063d b84e 4d3d
000000b0: eede f73d 1222 913d 5b32 94bd 2f0b 8bbc
000000c0: 80ae 9a3d ed6a 02bd 1859 c8bd e0b6 fe3d
000000d0: 592a f03a e707 ed3d 955f 74bd da6b 8bbd
000000e0: 145f c03c 8576 32be 56ae fe3d 5427 1fbd
000000f0: d7cc 24bc 16e5 d43d cc4d b4bd 84be 0abe
00000100: 0e3c bebb e1b5 1ebe 7f1c 16be 4950 483e
00000110: c923 13be d13b 9dbd 5b80 bfbd af80 4f3e
00000120: 7111 9b3d dfdb 7e3d f71a e33d cc2a 8abd
00000130: a52a f53c aa7f 963e 1463 113d d951 91bc
00000140: 8c86 9dbd 0bcb edbd ff6d 07bd 0711 113d
00000150: eaeb 4fbe 35cf aabd 2795 dc3d ba2d fe3d
00000160: 6766 0a3c 8196 a43d 568b b03d 175f 743d
00000170: daff a73d 69b8 d2bc 241d 7b3c 5153 9e3d
00000180: e435 12bd ec72 a53c 95a3 a3bd 8750 4ebe
00000190: 3981 0f3e 5a97 043e 8ce5 11be 86b1 2ebb
000001a0: 4ab7 573d 71ec 8abd c75e 1d3d f4ba 653d
000001b0: eaee 453c d459 11bd 2e94 8d3e 28d8 84bd
000001c0: 9c69 933c b76f 48bd 1615 773d 8631 adbd
000001d0: 1176 1abd 89e8 14bd 0c0b 83bc b3ba 0cbd
000001e0: 1c3f 78bd b983 afbc 7dc4 9ebc 447b bd3b
000001f0: 0ee7 1ebd 21e5 17be ed5c 213e a022 d9bd
00000200: 28aa 92bd 320f 633d b113 02bd 75d6 54bd
00000210: e9d1 6f3d 0404 ae3d dee0 363e b008 15be
00000220: 98f0 c73b 200e 29bd db48 a4bd 21c2 0fbe
00000230: 000e 063e b4fd 71bd 62cd e73d e87a e9bd
00000240: 2b24 a73d 4c4a a4bd 528b 953d 9080 763d
00000250: fa1d c5bd 3ae1 213b b57c dabd ba0c 053a
00000260: cf0e 31bd 69dd ca3d cbb5 95bb ba39 563d
00000270: ba2d b63d bff7 61bd 8b5e f43b 9d98 19be
00000280: 1fad 92bd 6612 a13d 1687 aa3d 4f4a 0b3e
00000290: ee40 44bc 4abb f93a cd52 b53d 9f30 dd3c
000002a0: 8ad2 763d 7511 cebc 6a9e 21bd 3cc1 f5bc
000002b0: 764f 2bbe 7d04 1c3c 1125 adbc a4b2 773d
000002c0: 9d94 0f3d 5b22 113d dc06 22be ffbd 5abe
000002d0: a8ea 5abc 2e0b 4a3d 5c4a c2bc d48b 6a3d
000002e0: 71ae 033d a6d3 a6bc 103e a8bd 8e03 93bc
000002f0: a59b 10bd 78ff 483b 0e79 a5bd deee 843b
00000300: d75e cb3d 974f bfbc ef5c 1abc 1b74 88bd
00000310: 3b57 833c 76e4 903a 44e7 bebd 67aa bdbc
00000320: 0c3c 86bc 1ed8 8e3d b148 083d c833 803d
00000330: 64e5 aa3d 93f9 7b3d a65f aa3d 8577 13be
00000340: c70f 04be 8afc 8ebb 3144 3f3d 3d3a 533e
00000350: 93fe f73c bd34 1c3c 96fc 6e3d 62de 0d3d
00000360: 9c9d 703d bdbc 5dbe 0287 fbbd 1842 2dbe
00000370: 3461 cabd 2d13 e9bc 7bd9 bd3d 1865 463e
00000380: cbe8 923d 2c54 593d f1d7 9cbc a908 16be
00000390: aa62 29bc 7694 30bd b5f3 403d fbf0 27bd
000003a0: 9560 87bb 31ef 053e d16c afbc 6cbd 9fbc
000003b0: 1590 763c fd4a fd3c 308a eebd 4a41 6cbd
000003c0: 951f a33d 5e03 d13c b39c a43c ce33 883c
000003d0: 0972 a2bd 7360 923c 965d 45bd 878c 40bd
000003e0: 279d 573d 4173 063e 0746 adbd fbbc 57bd
000003f0: 6866 f93d 6494 67bd 871b b03d 7031 33be
0.05572498 0.0182047 -0.18222679 -0.0011443765 -0.13536067 0.0119076725 -0.12224582 0.0137133105
-0.118206635 -0.15449299 0.1395676 -0.07826728 0.08494386 0.1555582 -0.20588453 0.040034916
-0.035156805 -0.12669839 -0.16947486 0.10353316 -0.12560171 0.006631434 -0.08641405 0.1117494
-0.114198245 0.0059723128 -0.015914418 -0.026344469 -0.074669465 -0.10036623 -0.10501009 -0.111001655
0.016794227 -0.09405808 -0.05624785 -0.08528162 -0.12098962 -0.0031881297 0.102265134 0.0019748453
-0.008981393 -0.071345225 0.03278625 0.0501239 0.12103067 0.070865765 -0.07236167 -0.016973106
0.075528145 -0.031840254 -0.09782618 0.124372244 0.0018323167 0.11573773 -0.059661467 -0.068076804
0.023482837 -0.17428024 0.12435596 -0.038855866 -0.010058603 0.10395257 -0.08803901 -0.13549238
-0.005805499 -0.15499069 -0.14659308 0.19561876 -0.1436912 -0.07677425 -0.09350654 0.20263933
0.07571686 0.062221404 0.110891275 -0.06746444 0.029927561 0.29394275 0.03549488 -0.017739223
-0.076916784 -0.11610993 -0.033063885 0.03541663 -0.20304838 -0.08340303 0.10770636 0.124110654
0.008447266 0.08036519 0.08620326 0.059660997 0.08203097 -0.0257227 0.015326772 0.07730735
-0.035695925 0.0201964 -0.07990185 -0.20147906 0.14014138 0.12948361 -0.14247721 -0.0026656105
0.052665032 -0.06783379 0.038420465 0.056086496 0.012080887 -0.035486057 0.27652115 -0.06486541
0.017994694 -0.048934665 0.060322843 -0.084567115 -0.037710253 -0.036354575 -0.015996478 -0.034357738
-0.06060706 -0.021425115 -0.019380802 0.0057825167 -0.03879457 -0.148335 0.15758105 -0.10602307
-0.07161361 0.055434413 -0.03175706 -0.051962335 0.058549795 0.0849686 0.17859218 -0.14554095
0.006101679 -0.041273236 -0.080217086 -0.14038898 0.13091278 -0.05907984 0.113184705 -0.11400396
0.08161195 -0.080219835 0.07301964 0.0601812 -0.09624858 0.0024700896 -0.10668317 0.0005075444
-0.043227013 0.09905512 -0.0045687906 0.052301146 0.088954404 -0.05516791 0.0074575595 -0.14999624
-0.071619265 0.07864837 0.08326547 0.13602565 -0.011978371 0.0019053009 0.088536836 0.027000723
0.06025938 -0.025154809 -0.039457716 -0.029999368 -0.1672953 0.009522554 -0.021135839 0.0604731
0.035053838 0.035433155 -0.15822929 -0.2136154 -0.0133616105 0.049327068 -0.023717098 0.057262257
0.032148782 -0.020364594 -0.082149625 -0.017946031 -0.035304684 0.003066985 -0.0807973 0.0040567955
0.09930199 -0.023353381 -0.009421571 -0.0666277 0.016032806 0.0011054415 -0.09321454 -0.023152543
-0.016386054 0.06974815 0.03327245 0.062598765 0.08344534 0.06151731 0.08319025 -0.14401062
-0.12896644 -0.004363601 0.04669589 0.20627685 0.030272758 0.009534058 0.058346353 0.03463591
0.058744058 -0.21654029 -0.1228161 -0.16919744 -0.09881821 -0.028451527 0.09269997 0.19374502
0.07173308 0.05305879 -0.019145938 -0.14651741 -0.010338465 -0.043110333 0.047107417 -0.0410013
-0.0041313865 0.13079526 -0.021414192 -0.019499503 0.015049 0.030919546 -0.11647451 -0.057679452
0.07965008 0.0255143 0.020094251 0.016626265 -0.07931907 0.017868256 -0.048184954 -0.047009017
0.052640107 0.13129903 -0.08460622 -0.05267046 0.121777356 -0.056538 0.085990004 -0.17499328

model/conv2d_4/Conv2D f4 [32, 3, 3, 32]
00000000: 791d fd3d 68a8 213e 1e4a c53d 248b a63c
00000010: 1571 e2bc 6433 c8be afc0 81bb 8115 7d3d
00000020: 51fe d4bd ce8b 9b3b 287b 273e 75d8 9fbe
00000030: 0ca4 403e 7bcb f23b bbd3 05be ff55 41bd
00000040: b1d6 873d 18a1 aa3d bb99 9bbd fc9d f63c
00000050: 5e10 5dbd e8a3 9abc 0278 163e 8802 bcbd
00000060: 8cec a0bd 294a c5bd 59cd 65bd 1141 143e
00000070: 242f 893e 8b87 ffbc bcc9 2cbc 2603 233e
00000080: 89d2 b43d 8c9c ff3d d66d 9e39 33ab 823d
00000090: 9672 95be 1de0 11be 5072 793b 4174 4ebd
000000a0: 33a3 40be 5707 05be 0190 ad3d 2f24 ccbd
000000b0: de70 cfbc b2a7 e23c 9b4e 313e db6f 4fbc
000000c0: 3515 3ebe 663f 67bd 91f5 0abe b838 123c
000000d0: 6862 19be 683a bdbd 2a7d 4abd 4c63 303e
000000e0: 1e3d 1bbd 9248 223e 58c7 193e b1b6 9abb
000000f0: 3572 90bb 3dba 253d e5d3 0ebc a9e1 d63c
00000100: 7a70 a6be 161f 3c3e 61ed 233c ab1b 2c3d
00000110: e24c ec3c 23b9 273c 73fd e2bd 6cd1 51be
00000120: 8b2f b6bd 1a01 313e d148 433d 6085 afbd
00000130: 40f4 26be 919c 98bd 0e46 963e c337 4cbe
00000140: 3e49 77be b2af 1cbe 1805 fc3d e600 2bbe
00000150: 001e c9bd 525d cebd dc5e a03d 5441 cebd
00000160: 129e 1dbe be94 f13d 4815 813d e388 a13d
00000170: dcc8 2f3d ab4c 10be e218 b23b 1af3 8b3e
00000180: 3cb5 283e 4042 d9bb aba1 3b3e 448a af3d
00000190: e235 5fbd 8b07 7abd fa3a c8bd 3a3a 113e
000001a0: 58c8 263d 6a70 513d 6c4e 453e fdac 123e
000001b0: 4e30 363d e3f1 1d3d 6a3a ccbd 3dc6 83bc
000001c0: 9768 03bc 501c 223e 8c28 683d f439 3c3e
000001d0: ccce 8ebd 81d0 dbbd c1d5 f8bd d0b0 bcbd
000001e0: 8104 47be 7209 883d a507 4abd 67a9 4abd
000001f0: 1c84 a5bd ac16 18be ef15 fabc 9b0e 5b3c
00000200: f069 d83d de80 453e 52a1 f13d f1ad 033e
00000210: fae9 1ebe 0cc2 4f3d d950 11be 765b fb3d
00000220: 7624 b33b 24c9 203e 426a 663d a459 afbd
00000230: 29ac 42be 2871 163d 5fa4 693c 0938 0d3e
00000240: 9f7c 94bd b4bc 03be 114c 96bd 29c5 abbe
00000250: eddc 2b3e 2215 dabd 3869 ec3c 36ca 35be
00000260: de97 3d3d a1f9 75be bb78 b1bc 692f dcbd
00000270: 7ff6 24be 31d2 a7bd 710c bbbd 146e 8d3d
00000280: 7a5c e9bd 633f 813d d526 993d 840e ffbd
00000290: 7018 bdbc 248d b3bd 8b09 ce3d 9a37 61be
000002a0: 5649 d53c c094 bcbc d034 5c3d 4e27 4cbc
000002b0: d7fd 643d 1c6a afbd 4a83 213e 569d 1abd
000002c0: aca8 a7be 152d 24be 9a1a ff3c cf5c 483d
000002d0: a19e a7bd 2946 06be 5066 c3bd d5ca 813d
000002e0: ace2 893c e654 02be 9b26 a5bd f187 b13c
000002f0: 2a1e cfbd 0725 013e 3321 763d 7504 6c3d
00000300: f9fc 203e dee6 fa3b 5be3 ec3c 18aa 50be
00000310: a65a 4a3d 8b17 213e 0e5f 1a3e 83fc 2ebe
00000320: eda6 76bd 4d8e c3bc da09 bdbc e9b4 37be
00000330: aece 24be cb69 9e3a fb00 dcbd aefa e4bd
00000340: 9a5c 3d3e 372a 303e c3be 253d fe2e 063e
00000350: 0209 653d f2b9 aa3d 1f77 f13c a4ba c9bc
00000360: 9ee6 44be 6dea 003e cb38 9abd 02bb 82bd
00000370: 7789 fabd 0123 123d 49ff c2bc 8506 aabd
00000380: eb38 693e 9da5 e33c ce66 54be f09a 313d
00000390: 029c 30be cb9a 1f3d 910c 32be b1bc 53bd
000003a0: 3570 d33d 779b 63bd 8764 003d 03d7 23bc
000003b0: 4e41 ca3d eb28 cabd 0a66 edbd 0eaf 62bd
000003c0: 9260 0fbd d86c 0d3e 291d ddbd 5695 963d
000003d0: 4ea0 ebbd e78c 38be b680 d4bd fe08 733c
000003e0: b138 83bc 8e8d 3c3c 8ccf 77bd 44ad 1ebe
000003f0: cccb 173d ec6f 0ebe d3b6 babc d2e2 c3ba
0.12359137 0.15786898 0.09633277 0.02033002 -0.027641812 -0.39101708 -0.0039597373 0.061788086
-0.104000695 0.0047468906 0.16355574 -0.3121983 0.18812579 0.0074095107 -0.1306905 -0.047201153
0.06632746 0.083315074 -0.07597681 0.03010463 -0.053970687 -0.018876985 0.14694217 -0.0918017
-0.07857618 -0.096332856 -0.056104038 0.14477946 0.26793778 -0.031192562 -0.010546144 0.1591917
0.08829219 0.12481031 0.00030217943 0.0638031 -0.29188985 -0.14245649 0.003806252 -0.050403837
-0.18812256 -0.12991081 0.08474732 -0.09967839 -0.025322374 0.027667854 0.17315142 -0.012660946
-0.18562777 -0.056456946 -0.13570239 0.008924656 -0.14978945 -0.09239656 -0.049435772 0.17225379
-0.037900083 0.15847996 0.1501745 -0.0047214855 -0.004408146 0.040460814 -0.008717512 0.02623065
-0.32507688 0.18371233 0.010005326 0.042018574 0.028845254 0.010237011 -0.11083498 -0.20490044
-0.08895787 0.17285576 0.047676865 -0.08570361 -0.16304111 -0.07451738 0.29350322 -0.19943146
-0.24149033 -0.15301397 0.12305659 -0.16699561 -0.09820175 -0.10076393 0.07830593 -0.10071054
-0.1539233 0.117959484 0.06302887 0.07887437 0.042916164 -0.14091747 0.005435095 0.2733391
0.16475385 -0.006630212 0.1832339 0.08571294 -0.054494746 -0.06104235 -0.09776874 0.14182368
0.040718406 0.051132597 0.19268197 0.14323802 0.04447966 0.03856076 -0.09972079 -0.016085738
-0.008020542 0.15831113 0.056679294 0.18381482 -0.06973037 -0.10733128 -0.12150145 -0.09213412
-0.19435312 0.066424266 -0.049323697 -0.04947796 -0.080818385 -0.14852399 -0.030528037 0.013370181
0.10567081 0.1928744 0.117983475 0.12859322 -0.15518942 0.050722167 -0.14190997 0.12273304
0.005466993 0.15701729 0.05625368 -0.085620195 -0.19010986 0.036729008 0.0142603805 0.13790907
-0.07250332 -0.12864953 -0.07338727 -0.3354886 0.16783495 -0.10648562 0.028858766 -0.17752919
0.04628741 -0.24021007 -0.021664014 -0.1075123 -0.16109656 -0.08194388 -0.091332324 0.06905761
-0.11394592 0.06310918 0.0747811 -0.124539405 -0.023082942 -0.08767155 0.10060414 -0.21993867
0.026035946 -0.023020148 0.053761303 -0.012460543 0.055906143 -0.08565161 0.15772739 -0.037747703
-0.32745874 -0.16032822 0.031140614 0.048916634 -0.08184553 -0.13112701 -0.09540999 0.06337515
0.016831718 -0.12727699 -0.08064004 0.021671267 -0.10113175 0.12611781 0.060090255 0.057621438
0.15721501 0.007656916 0.028917005 -0.20377386 0.049402855 0.15731637 0.15075323 -0.17088513
-0.060217787 -0.023871565 -0.023075987 -0.17940105 -0.16094467 0.0012085972 -0.107423745 -0.11180626
0.18492356 0.17203604 0.040465128 0.13103864 0.055916794 0.083362475 0.029475747 -0.02462513
-0.19228598 0.12589426 -0.07530364 -0.06383325 -0.122332506 0.035677914 -0.02380337 -0.08302025
0.22775619 0.027788932 -0.20742342 0.04336065 -0.17247012 0.03896598 -0.17387606 -0.051693622
0.10324136 -0.055568185 0.03134587 -0.009999993 0.09875737 -0.09871086 -0.11591728 -0.055342726
-0.035004206 0.13811052 -0.107965775 0.07352702 -0.11505185 -0.180225 -0.10376112 0.014833687
-0.016018244 0.011508359 -0.060500666 -0.15495783 0.03705959 -0.13909882 -0.022792256 -0.0014944917

model/conv2d_5/Conv2D f4 [32, 1, 1, 16]
00000000: 4442 edbe 7c40 14bf 67e8 f9be 7679 4b3e
00000010: bb05 fd3b 1e69 12bf b7ae d03d 18de fe3d
00000020: 938d 943e cb8f ba3a 6ec9 f13d 28f1 1bbd
00000030: 4ee0 003e 7e6c 003d 88f9 333d b3b2 53be
00000040: 07e0 01be 039b c2bd c746 fa3d 96d1 a33e
00000050: 2bee 03be 78c2 ba3e 41e6 553e 2a4f 173e
00000060: 4768 953e ab47 e13e 1579 07be ea75 4fbd
00000070: ce8e 6cbe 07bb fcbb 5476 c1bd 03d8 90be
00000080: 96a5 ac3e 1c27 c6be 38a4 87be f2a6 7b3e
00000090: 43bc 4f39 9689 7c3d 7da2 8d3d f102 d23c
000000a0: 2ba7 c7be 5418 4c3d caec bbbe 786a 1cbd
000000b0: bb16 823d a44e 913e e762 2e3c 7e61 27be
000000c0: 9d69 7bbe 7a03 1dbf f745 3abe 2d7f 66be
000000d0: 589d e8be bfb0 12bd 7e4c 61be 2c97 7b3e
000000e0: c468 773e 01ee 8abe ff22 2c3e 7a49 cebe
000000f0: 41bd c3be 536d c2be 9bbd 97be 953b 66be
00000100: f99a 31bd 0f52 6cbe 66b8 c4bd 8237 8fbe
00000110: 3b73 cb3d 2058 963c d1cc e23e 0994 01bf
00000120: 67fd 483f ebe6 e4bd 7b37 15bc b17b e4bc
00000130: d202 e4bd 1d96 21bb 118e 643d f165 923e
00000140: 190e 63be 8015 0f3e 0489 963d 6f74 8d3d
00000150: 047e ccbe 5484 b93e ba4b 0d3f 3892 9dbe
00000160: fd22 81be c699 c53d 0349 8cbe fe29 103e
00000170: 6d83 0e3d e05f e33e d4c1 83be 88df b3be
00000180: 9e53 973c 2321 a43e e263 7abd b483 cd3d
00000190: de7a 1fbe a179 a53d 9ed7 9b3d e325 b1be
000001a0: 4ea9 553d fa6e 323d ebe6 3d3d d96b 9e3e
000001b0: ce36 f43d 85d1 ebbd 1b5d a23e 1646 5a3e
000001c0: 2f4c 123e f2cd a63e 21ab 48be e7e2 e7bd
000001d0: f3f3 be3d 82ea 17bd f52c 90bc 6509 943d
000001e0: 4890 c73d 93f2 f03e bb3d e6bd ffa5 31bd
000001f0: 65ab 7b3d ce63 fbbd 821c b23e 1d9d 243d
00000200: f792 fbbd cf94 ef3e d08c 8ebe 1b9a 4fbb
00000210: 33bb d8be f8ee ddbd eaf1 b7be 0fea 8abe
00000220: c094 af3e 78b4 e2be 7912 073e 92a0 7a3e
00000230: 60b6 90be 3b36 563d be92 c13b 284e edbe
00000240: dbb0 ddbc c0c3 0d3f 9491 24be 7c39 75be
00000250: 59f0 82be 9b95 51be a159 e63d ecb0 333f
00000260: 8b24 9cbe 242f da3c 5ffc 053d a9d8 bcbd
00000270: b4bf d3bd 2669 21be 0bd5 5b3e 27d3 103e
00000280: aad0 253e 5183 da3c 517f df3c 11b9 873d
00000290: 8d88 97be af9b a43e 4389 c2bd 4090 893e
000002a0: 2cf8 413e ae89 7fbd 439d b3be 4f7a b93d
000002b0: 8624 2c3d 550b 04bf 5eae 3fbe 911c 52bd
000002c0: fb6d 0bbe 326d a1bd 9d1f a03e 84be 493e
000002d0: 55ba 3abe 2488 0a3e a335 cdbe dd2e 53be
000002e0: 47f9 96be 9bf0 adbe 98c9 ac3e 4699 c93b
000002f0: 319f c6bd cdf9 263e fcac 983d 85aa 39bd
00000300: 1146 8e3e 8ca2 16be d06b 33bd 60ec 82be
00000310: e4d7 013e f2ff 403d f511 5bbb 953c cdbd
00000320: 2a9f 97be 44f9 a1bc 1084 b3be 391c 55be
00000330: ac9f f13d f637 ff3e 3ac7 953e 939c a1be
00000340: ec6c 01be 6ba0 023e 180f 8b3b 1c73 ec3a
00000350: e79d 9d3e 51a5 243e 0276 393e 2189 febe
00000360: 0994 10bf d6ab 8a38 ef60 863e f9cc 81bd
00000370: 57ba fbbe 5521 acbe 548a 183e 77eb 7e3d
00000380: 7d5f d0bd b0dd 013f 77c8 773e 714f a9be
00000390: 0185 68be 05a0 863e ce77 bcbe e0e2 0f3d
000003a0: 23c9 4dbe b651 96bd 846f 0fbe eb97 b5be
000003b0: 0de2 bc3d 2628 153e cb56 59be 2313 0e3f
000003c0: be1c 81bb 4702 90bd 62aa 733e f5a4 b03e
000003d0: 2045 10bf 522f 233e ca66 62be e8c8 2bbe
000003e0: 9310 7f3b 74ef 733e 8d47 013d 75c0 7bbe
000003f0: e029 6dbe fc8e 833d e796 d5be a1eb 793e
-0.4633962 -0.57910895 -0.4881012 0.19870552 0.0077216304 -0.57191646 0.10189574 0.12444705
0.29014263 0.0014233527 0.11805998 -0.03807178 0.12585565 0.031353466 0.043939143 -0.20673637
-0.12683116 -0.095022224 0.12220531 0.3199584 -0.12883823 0.36476493 0.20888616 0.14776292
0.2918112 0.4399999 -0.13229783 -0.05064956 -0.2310135 -0.007712725 -0.094463974 -0.28289804
0.33720082 -0.38701713 -0.26492476 0.24575403 0.00019811191 0.06165465 0.06915758 0.025636168
-0.38994727 0.04982789 -0.36704093 -0.038187474 0.06351992 0.2838031 0.010643697 -0.16345784
-0.24552007 -0.6133343 -0.18190752 -0.22509451 -0.45432544 -0.03581309 -0.22001836 0.24569386
0.24161059 -0.27134708 0.16810225 -0.40290433 -0.38230327 -0.37974033 -0.29636845 -0.22483666
-0.043360684 -0.23078178 -0.09605484 -0.27972037 0.09934088 0.018352568 0.44296888 -0.5061651
0.7851166 -0.111768566 -0.009107466 -0.027891012 -0.111333504 -0.0024656125 0.055799548 0.285934
-0.22173347 0.13973045 0.073503524 0.069069736 -0.39939892 0.3623377 0.55193675 -0.3077562
-0.25222006 0.096484706 -0.27399454 0.14078519 0.034793306 0.44409084 -0.25733817 -0.35131478
0.018472489 0.3205653 -0.061130412 0.10034886 -0.15574214 0.080798395 0.07609485 -0.34599218
0.052163415 0.043562867 0.0463628 0.30941656 0.11924516 -0.11514572 0.3171166 0.21315798
0.14286874 0.32579 -0.1959653 -0.11322575 0.09323873 -0.03708888 -0.017599562 0.07228354
0.09744316 0.4706007 -0.11242243 -0.043371197 0.06144275 -0.122748956 0.34787375 0.040188897
-0.12283891 0.4679322 -0.27841806 -0.0031677547 -0.42330322 -0.10836595 -0.35926753 -0.27131698
0.34293175 -0.44278312 0.1319064 0.24475315 -0.2826414 0.052297812 0.0059073856 -0.4634869
-0.02706187 0.55376816 -0.16071159 -0.2394771 -0.25573996 -0.20467226 0.11247564 0.70191836
-0.3049663 0.026633807 0.032711383 -0.09221012 -0.10339299 -0.15762767 0.21467988 0.14143048
0.1619288 0.026673945 0.027282389 0.066270955 -0.29596367 0.32150027 -0.09498837 0.26867867
0.18942326 -0.06238716 -0.3508092 0.09056532 0.04202702 -0.5157979 -0.1871886 -0.051296774
-0.13616173 -0.078821555 0.3127412 0.19701582 -0.18235143 0.13528496 -0.40079984 -0.20623346
-0.2948706 -0.3397263 0.33747554 0.006152305 -0.09698332 0.16306229 0.07454869 -0.045328636
0.2778783 -0.14710444 -0.04380399 -0.25570965 0.12680012 0.04711909 -0.0033427451 -0.10021321
-0.2961362 -0.01977218 -0.35061693 -0.20811547 0.11798033 0.49847382 0.2925356 -0.3156477
-0.12639207 0.12756507 0.0042437427 0.0018039676 0.30784532 0.16078688 0.18111423 -0.49713996
-0.56475884 6.61236e-05 0.2624583 -0.063379236 -0.49165604 -0.3361918 0.14896518 0.062236276
-0.10174463 0.50728893 0.24197565 -0.3306842 -0.22706987 0.2629396 -0.36810154 0.035128474
-0.20096259 -0.07339804 -0.14007384 -0.35467467 0.09222803 0.14566097 -0.21224515 0.5549795
-0.003940194 -0.07031684 0.23795465 0.34500852 -0.56355476 0.1593602 -0.22109523 -0.16775858
0.003891979 0.23821813 0.031562377 -0.24585135 -0.23160505 0.064237565 -0.41716692 0.24406292
