models/resnet8-model-2.tflite (tflite, 95768 bytes, 10 tensors)

model/dense/MatMul i1 [10, 64] scale=0.009683522 zero_point=0
0.16461988 0.46480906 0.4744926 0.22272101 -0.16461988 -0.7262642 -1.1039215 0.07746818
0.8134159 0.12588578 -0.37765738 0.5325937 0.03873409 0.058101133 0.18398693 -0.36797386
-0.36797386 0.41639146 0.32923976 -1.2201238 0.13556932 -0.58101135 0.44544202 -0.0871517
-0.67784655 0.3486068 0.048417613 -0.28082216 -1.0361369 0.6875301 -0.3582903 -0.6003784
-0.1743034 0.5616443 0.4357585 -0.67784655 0.21303749 -0.97803575 -0.048417613 0.009683522
-0.0871517 -0.37765738 0.22272101 0.009683522 0.25177157 0.096835226 -0.16461988 0.13556932
-0.06778466 0.06778466 -1.0361369 -0.45512554 -0.12588578 -0.5325937 0.13556932 0.29050568
0.5616443 -0.48417613 0.23240453 -1.0845546 0.009683522 -0.6875301 0.58101135 -0.46480906
0.46480906 -0.32923976 -0.648796 0.33892328 0.009683522 0.23240453 0.5422773 -0.3873409
0.21303749 -0.019367045 1.2007568 -0.61974543 -0.14525284 -0.45512554 0.27113864 -0.88120055
-0.07746818 -0.7456312 -0.096835226 0.26145512 -0.40670794 0.3582903 -0.31955624 -0.058101133
-0.42607498 0.39702442 0.39702442 -0.116202265 0.03873409 0.24208806 1.1232886 0.6391125
0.15493636 0.29050568 0.03873409 -0.7843653 -0.7746818 -0.79404885 0.9005676 0.0871517
-0.019367045 -0.76499826 -0.15493636 -0.91993463 0.5616443 -0.871517 0.3873409 0.46480906
0.06778466 0.25177157 0.0 -0.42607498 -0.58101135 0.8424665 -0.75531477 -1.074871
-0.5132267 0.096835226 0.1743034 -0.12588578 0.40670794 -0.3486068 0.116202265 0.6875301
0.019367045 0.3582903 -0.4357585 0.16461988 0.23240453 0.096835226 0.9296181 -0.59069484
0.07746818 -0.39702442 -1.1232886 0.18398693 -0.009683522 0.32923976 -0.39702442 0.30987272
0.116202265 0.44544202 0.52291024 0.5616443 0.6875301 -0.88120055 -0.59069484 -0.07746818
-0.89088404 0.33892328 -0.39702442 0.45512554 -0.7843653 0.058101133 0.14525284 0.3873409
-0.5616443 -0.5422773 0.1743034 -0.13556932 0.16461988 -0.29050568 -0.59069484 -0.61974543
0.029050566 -0.21303749 -0.1743034 0.12588578 0.18398693 0.27113864 -0.3582903 -0.15493636
-0.28082216 -0.20335397 0.6972136 -0.91993463 0.1743034 0.7746818 0.31955624 0.21303749
-0.13556932 0.5422773 -0.76499826 0.3582903 0.3486068 -0.46480906 -0.16461988 -0.45512554
0.22272101 -0.49385965 0.5132267 -0.19367045 0.13556932 -0.29050568 0.096835226 0.3486068
-0.048417613 -0.31955624 -0.6584795 0.22272101 -0.59069484 0.52291024 -0.67784655 -0.096835226
0.37765738 -0.07746818 0.06778466 -0.3582903 -0.52291024 0.28082216 0.30987272 -0.21303749
0.009683522 -0.36797386 0.16461988 -0.03873409 0.52291024 0.14525284 -0.3873409 -0.23240453
0.3486068 0.14525284 -0.5325937 0.6100619 -0.45512554 0.33892328 0.20335397 -0.16461988
-0.3486068 0.6584795 0.3001892 0.21303749 -0.7843653 0.42607498 0.0 -0.13556932
-0.85214996 -0.44544202 -0.22272101 -0.16461988 0.45512554 0.18398693 -0.116202265 0.03873409
-0.14525284 0.13556932 0.28082216 0.0871517 -0.18398693 0.12588578 0.019367045 -0.6100619
00000000: 1130 3117 efb5 8e08 540d d937 0406 13da
00000010: da2b 2282 0ec4 2ef7 ba24 05e3 9547 dbc2
00000020: ee3a 2dba 169b fb01 f7d9 1701 1a0a ef0e
00000030: f907 95d1 f3c9 0e1e 3ace 1890 01b9 3cd0
00000040: 30de bd23 0118 38d8 16fe 7cc0 f1d1 1ca5
00000050: f8b3 f61b d625 dffa d429 29f4 0419 7442
00000060: 101e 04af b0ae 5d09 feb1 f0a1 3aa6 2830
00000070: 071a 00d4 c457 b291 cb0a 12f3 2adc 0c47
00000080: 0225 d311 180a 60c3 08d7 8c13 ff22 d720
00000090: 0c2e 363a 47a5 c3f8 a423 d72f af06 0f28
000000a0: c6c8 12f2 11e2 c3c0 03ea ee0d 131c dbf0
000000b0: e3eb 48a1 1250 2116 f238 b125 24d0 efd1
000000c0: 17cd 35ec 0ee2 0a24 fbdf bc17 c336 baf6
000000d0: 27f8 07db ca1d 20ea 01da 11fc 360f d8e8
000000e0: 240f c93f d123 15ef dc44 1f16 af2c 00f2
000000f0: a8d2 e9ef 2f13 f404 f10e 1d09 ed0d 02c1

model/conv2d_8/Conv2D i1 [64, 1, 1, 32]
60 18 -10 0 -73 -28 -16 15
3 23 -12 80 -56 4 8 -41
31 -5 43 20 -127 -93 36 -26
67 82 83 -21 73 49 75 106
-26 37 -44 -64 -15 48 6 24
-11 -82 34 -50 -77 127 3 -38
-54 2 -68 -85 79 41 -47 22
-18 22 -43 63 96 -38 12 76
-51 -61 -73 2 120 -14 -6 -6
-9 -6 -80 -10 -26 67 -13 -92
15 -33 25 -25 127 32 20 -95
-64 0 -9 -46 11 -67 29 29
3 -49 -74 32 127 -5 7 -13
-84 -39 -20 4 -35 -23 51 -58
-38 -42 18 -48 -31 50 -15 61
-57 -6 -55 1 62 -10 -2 34
15 -52 5 -39 -66 -31 -2 -46
-56 57 63 -37 47 -1 -92 -99
6 52 -118 57 -127 -13 15 -34
40 39 16 -2 88 34 42 -117
-30 85 -29 -12 -127 -39 43 -50
11 -26 56 40 -15 -11 26 -11
-25 -20 -96 10 83 43 -46 -35
-6 -36 -14 6 0 42 -36 -40
-20 -21 80 1 -93 0 -14 -44
59 -36 10 -20 -4 -8 -33 -127
33 20 -9 -27 52 23 2 -42
-5 -46 -31 -11 -26 -50 -85 14
14 -10 -23 15 46 -8 -46 -12
-5 -50 19 6 127 -56 -90 9
-2 24 -11 110 -63 -24 37 87
82 72 4 40 -43 -7 -87 -2
00000000: 3c12 f600 b7e4 f00f 0317 f450 c804 08d7
00000010: 1ffb 2b14 81a3 24e6 4352 53eb 4931 4b6a
00000020: e625 d4c0 f130 0618 f5ae 22ce b37f 03da
00000030: ca02 bcab 4f29 d116 ee16 d53f 60da 0c4c
00000040: cdc3 b702 78f2 fafa f7fa b0f6 e643 f3a4
00000050: 0fdf 19e7 7f20 14a1 c000 f7d2 0bbd 1d1d
00000060: 03cf b620 7ffb 07f3 acd9 ec04 dde9 33c6
00000070: dad6 12d0 e132 f13d c7fa c901 3ef6 fe22
00000080: 0fcc 05d9 bee1 fed2 c839 3fdb 2fff a49d
00000090: 0634 8a39 81f3 0fde 2827 10fe 5822 2a8b
000000a0: e255 e3f4 81d9 2bce 0be6 3828 f1f5 1af5
000000b0: e7ec a00a 532b d2dd fadc f206 002a dcd8
000000c0: eceb 5001 a300 f2d4 3bdc 0aec fcf8 df81
000000d0: 2114 f7e5 3417 02d6 fbd2 e1f5 e6ce ab0e
000000e0: 0ef6 e90f 2ef8 d2f4 fbce 1306 7fc8 a609
000000f0: fe18 f56e c1e8 2557 5248 0428 d5f9 a9fe

model/conv2d_7/Conv2D i1 [64, 3, 3, 64]
41 43 -33 1 -32 -54 16 -127
21 -18 -7 61 -26 107 18 15
-47 -38 -60 -26 -18 63 -5 15
32 11 -28 -22 27 27 19 12
69 58 16 12 -25 -28 -12 -18
27 -19 -12 -38 -69 37 -18 39
-27 -15 48 -61 79 61 31 13
41 22 61 -20 21 23 -2 53
38 7 18 8 37 -45 15 -65
14 -58 -28 30 11 49 9 28
-63 -33 -35 -10 13 48 22 -7
36 -35 -39 3 -15 32 2 10
80 21 -3 -21 4 -29 6 0
31 -15 -19 -16 -55 63 3 38
-10 12 38 -32 17 -25 7 -17
29 18 35 -6 -1 -14 -2 42
62 -25 13 -14 -3 -74 30 -98
-8 -26 -14 -11 15 27 9 41
-60 -21 -24 -33 10 44 28 27
13 -35 -31 0 27 6 10 -53
47 13 20 -24 -48 -2 13 4
5 -48 22 -53 -43 62 14 55
-14 -42 33 14 49 29 -6 1
42 15 65 -22 23 -27 -9 46
3 10 -20 2 -36 -7 -10 -49
34 -24 6 -15 0 65 33 -1
-41 26 -65 -61 -3 64 -5 -10
36 -9 -38 -34 7 62 14 -2
61 46 -12 25 2 -9 16 -8
37 15 -20 -32 -35 2 11 27
-44 35 37 -18 22 60 25 31
58 -21 34 16 28 15 -9 66
00000000: 292b df01 e0ca 1081 15ee f93d e66b 120f
00000010: d1da c4e6 ee3f fb0f 200b e4ea 1b1b 130c
00000020: 453a 100c e7e4 f4ee 1bed f4da bb25 ee27
00000030: e5f1 30c3 4f3d 1f0d 2916 3dec 1517 fe35
00000040: 2607 1208 25d3 0fbf 0ec6 e41e 0b31 091c
00000050: c1df ddf6 0d30 16f9 24dd d903 f120 020a
00000060: 5015 fdeb 04e3 0600 1ff1 edf0 c93f 0326
00000070: f60c 26e0 11e7 07ef 1d12 23fa fff2 fe2a
00000080: 3ee7 0df2 fdb6 1e9e f8e6 f2f5 0f1b 0929
00000090: c4eb e8df 0a2c 1c1b 0ddd e100 1b06 0acb
000000a0: 2f0d 14e8 d0fe 0d04 05d0 16cb d53e 0e37
000000b0: f2d6 210e 311d fa01 2a0f 41ea 17e5 f72e
000000c0: 030a ec02 dcf9 f6cf 22e8 06f1 0041 21ff
000000d0: d71a bfc3 fd40 fbf6 24f7 dade 073e 0efe
000000e0: 3d2e f419 02f7 10f8 250f ece0 dd02 0b1b
000000f0: d423 25ee 163c 191f 3aeb 2210 1c0f f742

model/conv2d_6/Conv2D i1 [64, 3, 3, 32]
2 -68 25 53 10 5 -21 35
29 9 68 -7 33 -19 -39 6
47 -54 -7 77 -24 -6 55 17
14 30 14 -16 -59 -61 -55 50
-44 -2 49 -59 -81 -57 30 -8
-19 -51 69 -47 -42 -67 -35 47
51 -23 -64 -24 -21 11 101 15
-31 -5 106 -19 -81 -13 -42 69
-35 -26 40 -69 -18 -24 -35 -30
23 -76 -45 23 -12 -67 -36 11
-15 -10 -15 7 -32 -73 -49 45
-23 -61 -16 -33 -14 98 -44 67
-26 -117 -28 -53 75 10 51 37
28 20 18 -80 -28 -59 -1 47
85 -17 46 48 7 -63 35 16
-25 -42 -58 -18 45 -52 -22 -40
40 -61 -32 -31 -36 46 46 44
2 38 -23 -15 -39 -79 38 15
66 19 38 55 -4 -8 53 -4
-31 6 3 -117 -55 -22 6 17
-63 -57 3 -22 -21 -44 6 8
-31 -54 -108 -5 -17 -11 63 27
45 -21 34 127 -11 -54 40 18
2 28 14 -105 -6 -3 100 20
59 -55 45 14 43 -35 -30 -50
-4 -83 -61 -6 -7 -27 -40 25
-48 -3 61 34 -40 -21 -60 -31
20 61 -66 65 104 -39 -14 -62
38 -48 -33 -5 -3 18 -9 57
32 46 -68 -12 1 -6 -28 -59
6 69 89 54 33 20 34 6
-64 -22 -15 25 7 10 -36 7
00000000: 02bc 1935 0a05 eb23 1d09 44f9 21ed d906
00000010: 2fca f94d e8fa 3711 0e1e 0ef0 c5c3 c932
00000020: d4fe 31c5 afc7 1ef8 edcd 45d1 d6bd dd2f
00000030: 33e9 c0e8 eb0b 650f e1fb 6aed aff3 d645
00000040: dde6 28bb eee8 dde2 17b4 d317 f4bd dc0b
00000050: f1f6 f107 e0b7 cf2d e9c3 f0df f262 d443
00000060: e68b e4cb 4b0a 3325 1c14 12b0 e4c5 ff2f
00000070: 55ef 2e30 07c1 2310 e7d6 c6ee 2dcc ead8
00000080: 28c3 e0e1 dc2e 2e2c 0226 e9f1 d9b1 260f
00000090: 4213 2637 fcf8 35fc e106 038b c9ea 0611
000000a0: c1c7 03ea ebd4 0608 e1ca 94fb eff5 3f1b
000000b0: 2deb 227f f5ca 2812 021c 0e97 fafd 6414
000000c0: 3bc9 2d0e 2bdd e2ce fcad c3fa f9e5 d819
000000d0: d0fd 3d22 d8eb c4e1 143d be41 68d9 f2c2
000000e0: 26d0 dffb fd12 f739 202e bcf4 01fa e4c5
000000f0: 0645 5936 2114 2206 c0ea f119 070a dc07

model/conv2d_5/Conv2D i1 [32, 1, 1, 16]
-49 15 -21 90 -82 40 86 -72
-127 -33 -39 64 -80 -59 76 -4
84 15 71 37 -56 -40 -127 -53
5 -103 81 37 -50 -2 34 -32
10 86 27 112 65 -29 -24 -127
-55 -74 -116 107 30 95 68 57
-23 -82 -39 28 97 -29 93 54
22 -127 -78 -32 20 -83 34 -125
24 -105 -109 105 30 -49 5 -31
127 49 -41 7 65 38 42 1
29 68 -118 -28 87 1 -70 -39
-8 22 -121 -127 23 -29 8 87
-18 -43 -57 83 -97 -37 -70 29
-78 14 5 -127 -33 -59 -9 -68
-127 -14 72 7 -34 -108 -73 -40
-41 28 29 -14 83 -12 58 -10
-91 18 -6 52 -101 68 6 57
-127 -11 -106 -6 31 72 47 -99
-93 93 -34 -1 -125 53 -63 -57
-63 -3 -35 -127 -5 44 70 -21
127 95 -16 -47 -75 -65 86 93
54 0 -30 121 37 -48 109 82
44 -38 -109 54 79 -44 -11 127
-60 -15 -9 -36 107 -49 -41 -4
-76 125 79 -25 74 -82 -81 -86
127 23 22 -43 -91 -119 73 70
-14 -64 -48 -3 -52 65 -127 -12
6 43 -49 -94 13 -72 -38 -30
127 -105 78 75 -46 28 -87 -82
-4 15 57 -9 -85 75 60 -87
-32 -50 63 49 40 24 -36 -2
-8 16 -41 -6 -5 -50 127 -59
00000000: cf0f eb5a ae28 56b8 81df d940 b0c5 4cfc
00000010: 540f 4725 c8d8 81cb 0599 5125 cefe 22e0
00000020: 0a56 1b70 41e3 e881 c9b6 8c6b 1e5f 4439
00000030: e9ae d91c 61e3 5d36 1681 b2e0 14ad 2283
00000040: 1897 9369 1ecf 05e1 7f31 d707 4126 2a01
00000050: 1d44 8ae4 5701 bad9 f816 8781 17e3 0857
00000060: eed5 c753 9fdb ba1d b20e 0581 dfc5 f7bc
00000070: 81f2 4807 de94 b7d8 d71c 1df2 53f4 3af6
00000080: a512 fa34 9b44 0639 81f5 96fa 1f48 2f9d
00000090: a35d deff 8335 c1c7 c1fd dd81 fb2c 46eb
000000a0: 7f5f f0d1 b5bf 565d 3600 e279 25d0 6d52
000000b0: 2cda 9336 4fd4 f57f c4f1 f7dc 6bcf d7fc
000000c0: b47d 4fe7 4aae afaa 7f17 16d5 a589 4946
000000d0: f2c0 d0fd cc41 81f4 062b cfa2 0db8 dae2
000000e0: 7f97 4e4b d21c a9ae fc0f 39f7 ab4b 3ca9
000000f0: e0ce 3f31 2818 dcfe f810 d7fa fbce 7fc5

model/conv2d_4/Conv2D i1 [32, 3, 3, 32]
20 -38 25 -35 44 -45 -25 21
-47 -5 -12 25 35 -8 -41 -19
-19 7 19 15 25 50 11 -70
67 31 11 -11 61 21 103 19
-57 0 1 -53 -52 63 19 -33
45 -25 -24 -36 32 -39 0 -33
15 2 -127 -52 1 27 -58 0
42 -36 -58 11 -33 -15 -44 19
-28 33 22 -75 -53 -23 42 14
20 -49 -14 -11 -28 -31 29 -16
6 -4 -48 -52 -3 -18 35 -5
48 -26 -2 -37 -109 32 37 23
-11 -51 29 25 22 4 -12 21
-8 68 -12 39 65 -30 -48 -1
11 3 18 33 24 29 -58 22
18 1 -55 43 36 -47 36 55
5 -48 0 -21 -11 31 -17 -51
12 21 -66 14 -3 -30 -22 -23
-21 42 -17 57 16 15 2 -12
-1 -14 30 5 49 -49 -17 48
-8 28 -22 -67 -15 -7 -12 -56
49 -32 1 -18 40 -5 -11 -16
-27 5 -47 -35 13 57 -1 -61
9 -26 -29 -10 -5 -10 -17 31
16 24 -2 45 27 -4 36 28
55 -49 18 -5 -47 19 -53 22
19 -19 59 28 56 41 -17 51
-60 23 48 -43 82 -14 9 -22
30 -50 10 9 29 -88 31 47
-20 -62 10 3 10 22 -21 -16
-30 -28 57 -26 36 44 38 23
-17 -40 32 -41 13 -42 5 30
00000000: 14da 19dd 2cd3 e715 d1fb f419 23f8 d7ed
00000010: ed07 130f 1932 0bba 431f 0bf5 3d15 6713
00000020: c700 01cb cc3f 13df 2de7 e8dc 20d9 00df
00000030: 0f02 81cc 011b c600 2adc c60b dff1 d413
00000040: e421 16b5 cbe9 2a0e 14cf f2f5 e4e1 1df0
00000050: 06fc d0cc fdee 23fb 30e6 fedb 9320 2517
00000060: f5cd 1d19 1604 f415 f844 f427 41e2 d0ff
00000070: 0b03 1221 181d c616 1201 c92b 24d1 2437
00000080: 05d0 00eb f51f efcd 0c15 be0e fde2 eae9
00000090: eb2a ef39 100f 02f4 fff2 1e05 31cf ef30
000000a0: f81c eabd f1f9 f4c8 31e0 01ee 28fb f5f0
000000b0: e505 d1dd 0d39 ffc3 09e6 e3f6 fbf6 ef1f
000000c0: 1018 fe2d 1bfc 241c 37cf 12fb d113 cb16
000000d0: 13ed 3b1c 3829 ef33 c417 30d5 52f2 09ea
000000e0: 1ece 0a09 1da8 1f2f ecc2 0a03 0a16 ebf0
000000f0: e2e4 39e6 242c 2617 efd8 20d7 0dd6 051e

model/conv2d_3/Conv2D i1 [32, 3, 3, 16]
-2 -3 -13 2 10 25 -33 -24
34 -34 22 -64 -23 53 41 13
-68 -31 -18 45 29 -16 23 -9
-65 77 -14 52 47 -21 -9 -28
73 -2 -17 -46 -9 -12 20 11
10 -43 -3 -38 -20 0 19 12
38 -12 -31 -24 -23 7 13 -11
53 1 27 -49 -22 26 -1 3
-79 -39 12 33 30 -52 -31 9
-127 36 -51 49 35 14 -52 18
53 6 -14 -68 -46 34 13 13
66 -44 -3 9 -2 47 5 13
25 21 18 -7 1 19 25 -9
38 8 -5 -47 -28 11 -33 -18
-36 -2 1 30 30 -24 -19 -7
-109 55 -32 17 11 -29 -29 -15
45 19 -9 -38 -9 33 6 -13
6 -44 14 15 -9 -20 51 5
-46 -14 -8 11 -13 54 -44 -5
34 91 24 -19 -126 116 76 -4
-21 44 48 -59 47 80 -94 -16
-12 12 -16 20 -7 -50 -20 36
26 54 -95 -56 40 -25 -84 -1
46 64 23 18 3 -57 36 -57
-18 -38 4 3 -46 0 -101 -4
31 43 20 -35 -70 5 4 -19
99 62 48 33 11 99 -56 -36
-28 9 12 2 78 -53 -28 -88
-14 70 -127 -76 8 -91 -88 -22
-22 18 67 -92 30 -106 6 -19
-58 4 -12 -26 -64 76 -117 -12
19 22 84 19 -14 -34 -21 -53
00000000: fefd f302 0a19 dfe8 22de 16c0 e935 290d
00000010: bce1 ee2d 1df0 17f7 bf4d f234 2feb f7e4
00000020: 49fe efd2 f7f4 140b 0ad5 fdda ec00 130c
00000030: 26f4 e1e8 e907 0df5 3501 1bcf ea1a ff03
00000040: b1d9 0c21 1ecc e109 8124 cd31 230e cc12
00000050: 3506 f2bc d222 0d0d 42d4 fd09 fe2f 050d
00000060: 1915 12f9 0113 19f7 2608 fbd1 e40b dfee
00000070: dcfe 011e 1ee8 edf9 9337 e011 0be3 e3f1
00000080: 2d13 f7da f721 06f3 06d4 0e0f f7ec 3305
00000090: d2f2 f80b f336 d4fb 225b 18ed 8274 4cfc
000000a0: eb2c 30c5 2f50 a2f0 f40c f014 f9ce ec24
000000b0: 1a36 a1c8 28e7 acff 2e40 1712 03c7 24c7
000000c0: eeda 0403 d200 9bfc 1f2b 14dd ba05 04ed
000000d0: 633e 3021 0b63 c8dc e409 0c02 4ecb e4a8
000000e0: f246 81b4 08a5 a8ea ea12 43a4 1e96 06ed
000000f0: c604 f4e6 c04c 8bf4 1316 5413 f2de ebcb

model/conv2d_2/Conv2D i1 [16, 3, 3, 16]
45 26 -79 -12 -127 -109 -14 -3
-12 -26 4 34 -37 -36 -36 -61
-27 2 88 -2 37 -43 26 41
-47 6 10 39 83 -38 -37 -81
-41 -16 -29 -41 9 -49 -54 -2
22 21 -51 -21 44 5 -74 -82
35 -17 -121 -67 -67 -26 -11 8
-5 37 22 28 -93 -55 -13 -38
-13 21 77 10 15 -12 -6 49
47 -58 67 -65 11 -71 -63 24
8 1 -43 -25 -5 -51 -114 15
36 2 10 -84 53 -22 -40 9
1 -14 -44 -19 -11 20 18 -11
18 64 29 41 -41 15 -30 -18
22 -1 19 65 4 13 56 -33
3 17 39 -27 -17 -36 -26 -49
40 -19 36 -47 31 0 -83 49
2 -50 25 -5 -13 63 -32 50
14 -54 -15 15 45 -37 -13 10
-45 -39 24 44 -22 52 55 10
112 -28 -14 -48 -46 33 -36 0
39 -17 -6 24 -93 -80 21 36
-12 -36 26 -46 36 -3 5 -9
-42 112 -15 65 -3 27 47 -19
7 -26 -27 2 13 -68 32 33
30 14 13 14 28 -11 -2 29
0 -12 34 -101 -20 -30 -78 -61
27 -50 -6 37 -20 -77 21 -31
37 -55 35 -115 -27 -26 -51 -106
-46 -35 -40 -23 -73 -46 3 -88
-45 -1 21 54 38 -23 0 12
-13 42 41 33 47 -21 -90 10
00000000: 2d1a b1f4 8193 f2fd f4e6 0422 dbdc dcc3
00000010: e502 58fe 25d5 1a29 d106 0a27 53da dbaf
00000020: d7f0 e3d7 09cf cafe 1615 cdeb 2c05 b6ae
00000030: 23ef 87bd bde6 f508 fb25 161c a3c9 f3da
00000040: f315 4d0a 0ff4 fa31 2fc6 43bf 0bb9 c118
00000050: 0801 d5e7 fbcd 8e0f 2402 0aac 35ea d809
00000060: 01f2 d4ed f514 12f5 1240 1d29 d70f e2ee
00000070: 16ff 1341 040d 38df 0311 27e5 efdc e6cf
00000080: 28ed 24d1 1f00 ad31 02ce 19fb f33f e032
00000090: 0eca f10f 2ddb f30a d3d9 182c ea34 370a
000000a0: 70e4 f2d0 d221 dc00 27ef fa18 a3b0 1524
000000b0: f4dc 1ad2 24fd 05f7 d670 f141 fd1b 2fed
000000c0: 07e6 e502 0dbc 2021 1e0e 0d0e 1cf5 fe1d
000000d0: 00f4 229b ece2 b2c3 1bce fa25 ecb3 15e1
000000e0: 25c9 238d e5e6 cd96 d2dd d8e9 b7d2 03a8
000000f0: d3ff 1536 26e9 000c f32a 2921 2feb a60a

model/conv2d_1/Conv2D i1 [16, 3, 3, 16]
26 41 85 100 124 10 -8 37
-17 80 65 14 -59 65 -84 -17
51 96 93 126 97 85 -51 26
-69 77 7 49 17 27 39 -66
72 29 50 48 1 101 3 29
-90 17 16 40 10 99 41 -97
-127 -3 11 -64 57 55 43 27
5 98 -46 -74 -55 76 -59 12
-33 45 50 20 2 -42 -29 -3
-112 4 -51 16 -18 -2 -29 -68
3 -50 31 10 -41 -24 -41 -68
-55 -81 -77 34 51 -11 -29 35
-10 -44 16 -102 -1 93 82 -82
-33 64 46 -43 29 31 -44 -31
50 -13 -3 -2 -5 34 -59 -81
18 -69 -23 -112 -34 62 -102 6
107 -56 -115 -50 -61 -2 11 -67
-46 -47 -36 -67 82 -48 -75 10
14 -39 105 -4 -38 -3 -20 26
-60 -14 -65 23 17 15 7 -32
-40 -19 -19 42 15 -6 -29 49
-10 -33 64 39 -80 -33 -53 11
-2 18 -8 -14 49 -70 -13 -31
-23 35 21 -38 51 1 19 -18
4 11 -94 -19 -70 19 20 30
7 -43 14 -14 -91 -1 -22 -22
30 81 55 -14 41 -28 58 1
14 11 37 -19 96 15 4 -2
63 37 58 -17 6 -59 -12 37
3 61 38 -39 47 32 6 -52
20 40 15 -12 6 23 -12 -40
8 -11 25 -63 53 46 10 -14
00000000: 1a29 5564 7c0a f825 ef50 410e c541 acef
00000010: 3360 5d7e 6155 cd1a bb4d 0731 111b 27be
00000020: 481d 3230 0165 031d a611 1028 0a63 299f
00000030: 81fd 0bc0 3937 2b1b 0562 d2b6 c94c c50c
00000040: df2d 3214 02d6 e3fd 9004 cd10 eefe e3bc
00000050: 03ce 1f0a d7e8 d7bc c9af b322 33f5 e323
00000060: f6d4 109a ff5d 52ae df40 2ed5 1d1f d4e1
00000070: 32f3 fdfe fb22 c5af 12bb e990 de3e 9a06
00000080: 6bc8 8dce c3fe 0bbd d2d1 dcbd 52d0 b50a
00000090: 0ed9 69fc dafd ec1a c4f2 bf17 110f 07e0
000000a0: d8ed ed2a 0ffa e331 f6df 4027 b0df cb0b
000000b0: fe12 f8f2 31ba f3e1 e923 15da 3301 13ee
000000c0: 040b a2ed ba13 141e 07d5 0ef2 a5ff eaea
000000d0: 1e51 37f2 29e4 3a01 0e0b 25ed 600f 04fe
000000e0: 3f25 3aef 06c5 f425 033d 26d9 2f20 06cc
000000f0: 1428 0ff4 0617 f4d8 08f5 19c1 352e 0af2

model/conv2d/Conv2D i1 [16, 3, 3, 3]
-2 -66 14 -36 -4 -39 17 56
18 -62 127 96 1 -103 -31 43
68 18 5 30 -12 25 -32 24
-10 -81 -107 -1 -25 -70 -108 -48
51 39 37 88 114 -62 -61 92
47 -2 32 -3 100 74 -99 -38
83 -127 40 95 -104 29 -114 -31
-7 -12 -40 -70 47 122 116 15
-67 3 92 -11 49 -57 -61 -18
24 66 85 68 51 -27 -70 -29
-127 -27 -33 59 -48 95 127 -90
11 45 6 -70 4 55 -57 -42
-45 112 -35 43 -7 -86 80 -54
40 40 -35 -107 -51 76 -118 64
-8 -30 78 127 -16 -33 -20 72
-31 -63 12 103 21 62 -46 -12
-10 -22 85 25 -28 -37 -54 -61
88 17 91 -12 -75 -42 14 4
101 23 54 61 -46 -72 9 25
-15 -127 46 21 -11 -36 -41 -48
-37 96 -74 48 1 106 -31 -63
54 -71 6 -35 45 -91 -8 -39
-120 56 57 31 18 81 31 -65
72 69 -30 -127 107 80 108 43
25 -26 -79 -9 -24 25 59 90
6 1 26 -54 -28 -35 -35 64
-92 -60 46 -46 -60 -51 54 127
57 -48 45 -20 17 -114 35 14
-22 -54 107 -19 -81 -68 42 -7
34 -42 13 -106 86 -40 -76 55
-13 109 127 93 3 -118 0 -106
59 -6 9 12 24 -48 -14 -28
00000000: febe 0edc fcd9 1138 12c2 7f60 0199 e12b
00000010: 4412 051e f419 e018 f6af 95ff e7ba 94d0
00000020: 3327 2558 72c2 c35c 2ffe 20fd 644a 9dda
00000030: 5381 285f 981d 8ee1 f9f4 d8ba 2f7a 740f
00000040: bd03 5cf5 31c7 c3ee 1842 5544 33e5 bae3
00000050: 81e5 df3b d05f 7fa6 0b2d 06ba 0437 c7d6
00000060: d370 dd2b f9aa 50ca 2828 dd95 cd4c 8a40
00000070: f8e2 4e7f f0df ec48 e1c1 0c67 153e d2f4
00000080: f6ea 5519 e4db cac3 5811 5bf4 b5d6 0e04
00000090: 6517 363d d2b8 0919 f181 2e15 f5dc d7d0
000000a0: db60 b630 016a e1c1 36b9 06dd 2da5 f8d9
000000b0: 8838 391f 1251 1fbf 4845 e281 6b50 6c2b
000000c0: 19e6 b1f7 e819 3b5a 0601 1aca e4dd dd40
000000d0: a4c4 2ed2 c4cd 367f 39d0 2dec 118e 230e
000000e0: eaca 6bed afbc 2af9 22d6 0d96 56d8 b437
000000f0: f36d 7f5d 038a 0096 3bfa 090c 18d0 f2e4
