models/resnet8-model-1.tflite (tflite, 94640 bytes, 20 tensors)

model/dense/MatMul f4 [10, 64]
000000 7f 4c 70 3f 98 11 65 3f e7 44 02 3f dc 7a 41 3e
       0.93866724 0.8947997 0.50886387 0.18894523
000010 fc 2b 08 3e be 81 e2 3f f3 ae bb 3f 93 d1 a0 3f
       0.13298029 1.7695844 1.4662765 1.2563957
000020 84 07 83 3f 65 7e 07 bf 2f f5 90 3f ef e5 bc 3e
       1.0236669 -0.5292724 1.1324824 0.36894175
000030 08 dd fd 3f 32 f6 4f 3f 5d 5b 0b c0 32 0c a7 3f
       1.9833078 0.8123504 -2.1774514 1.3050597
000040 25 86 bd be 29 38 08 c0 f5 68 ff 3e c7 0c b5 bf
       -0.37016407 -2.1284277 0.49884763 -1.4144524
000050 43 33 dd bf 68 5c c3 3f a3 bb b2 bf 13 4f bc bf
       -1.7281269 1.5262575 -1.3963512 -1.4711632
000060 b6 7f d1 3f de b7 8a be 7f 4d 22 c0 52 87 ed bf
       1.6367099 -0.27093405 -2.53598 -1.8556921
000070 6e 77 fc bf c7 85 d3 3f c2 50 8d bd 42 f3 8d 3f
       -1.9723947 1.6525201 -0.06900169 1.1089861
000080 06 88 7f 3f 68 a4 16 3f ac a9 06 bf 0a f6 1e bf
       0.9981693 0.58844614 -0.5260265 -0.62094176
000090 4c f8 15 c0 e0 55 6b 3f 35 a8 38 c0 60 62 7a 3e
       -2.3432798 0.9192791 -2.8852665 0.2445159
0000a0 8e 45 75 c0 e6 de 4a bf 8b 8a 29 3f 3a 3d fb be
       -3.8323703 -0.79246366 0.66227025 -0.4907015
0000b0 3d 42 23 c0 bf 25 e6 be ab dd 5b 3f 39 0e 93 3f
       -2.5509179 -0.44950673 0.85885113 1.1488715
0000c0 7c 33 4d 3f ad 7e 2e bf dc 6f 31 c0 74 8e 39 c0
       0.80156684 -0.6816204 -2.7724524 -2.8993196
0000d0 78 b7 f0 bf 3e 1a c9 3f 11 9f 33 3e b4 22 39 bf
       -1.880599 1.5711133 0.17541148 -0.7231858
0000e0 10 b3 27 3f cd 81 7b 3f 51 c2 45 3f 99 b6 37 bf
       0.655076 0.98244935 0.7724963 -0.71762997
0000f0 45 ee 9b 3f 71 57 52 3e eb 0c c4 3e de 7c 52 c0
       1.2182089 0.20541169 0.38291106 -3.2888713
000100 7c 4c 23 bf 0f 45 a9 3f 95 da 21 3e 4d b5 06 bf
       -0.6378858 1.32242 0.15806039 -0.52620393
000110 1d b6 d1 bf 01 bd a3 bf 6a 8e a4 3f 05 16 c6 be
       -1.6383702 -1.2792054 1.2855961 -0.38688675
000120 d4 63 f4 bf b0 fc c1 be 99 24 aa 3f e1 e9 b1 bf
       -1.9092965 -0.37888098 1.3292419 -1.3899499
000130 68 d3 06 be 8c a1 87 3e 27 ea a9 3f 04 aa 99 3f
       -0.13166583 0.26490438 1.3274583 1.200501
000140 92 e3 08 3e 09 6a d5 bf e5 2d b1 be 20 5f 3c c0
       0.13368061 -1.6672984 -0.34605327 -2.943306
000150 85 79 0f 40 38 0b a0 3f f6 b6 90 bf 61 bb a6 3e
       2.241792 1.2503424 -1.1305835 0.32564834
000160 1a 12 b6 bf 42 7b 57 3f 28 a1 23 40 c8 85 11 3f
       -1.4224274 0.8417245 2.5567112 0.5684476
000170 c7 bc ff 3f 4d 5c a6 bf 7c 66 82 3f 40 0e da bf
       1.9979485 -1.2996918 1.0187526 -1.7035599
000180 f3 b4 2f 3f 16 60 a1 3f c8 4c 93 3f 70 4d 2b c0
       0.6863548 1.2607448 1.1507807 -2.6766014
000190 95 47 34 be 91 4c 5c be e0 f3 bf 3f 31 9f 98 bf
       -0.17605431 -0.21513583 1.49963 -1.1923581
0001a0 5a 02 bb be da 06 f4 bf ac 26 30 c0 75 83 43 bf
       -0.36525232 -1.9064591 -2.7523603 -0.7637246
0001b0 e1 c5 9c 3f 3c cf 07 3f c2 25 c7 bf 7d ff 99 be
       1.2247888 0.5305059 -1.5558398 -0.30077735
0001c0 33 9f 5e 3e 8b fb f4 3f 52 88 51 3f e7 e8 d0 bf
       0.21740417 1.9139265 0.81848633 -1.6321076
0001d0 21 25 29 c0 a5 3c be 3c 4d 09 6a 3f 92 2a 1c c0
       -2.6428912 0.023222277 0.9142044 -2.4400983
0001e0 ec b1 3c bd eb 7b 48 bf 17 46 31 c0 64 00 a1 3b
       -0.046068117 -0.78314084 -2.769903 0.0049133766
0001f0 5d 49 34 3f 94 52 92 3f 11 14 1f bf 48 4d 1b bc
       0.70424443 1.1431451 -0.62139994 -0.0094788745
000200 01 3f 89 bf 8f c3 f6 3e f7 a9 1d c0 2c dd 35 c0
       -1.0722352 0.48196074 -2.4634988 -2.8416243
000210 83 b3 21 bf e6 e3 a6 bf ad bb 57 c0 b2 1c 89 3f
       -0.6316454 -1.3038299 -3.3708298 1.0711882
000220 bc 7f 25 c0 ef 15 92 be c0 a6 71 3f 86 53 ea bf
       -2.5859213 -0.2853236 0.94395065 -1.8306739
000230 df 00 83 bf 95 5c 9d 3f 78 60 b7 3f e5 57 cc 3f
       -1.0234641 1.2293879 1.4326315 1.5964323
000240 11 a1 60 bf 7e 90 da 3f 84 63 11 c0 0e f8 72 40
       -0.8774577 1.7075346 -2.271699 3.79639
000250 76 95 14 3f 32 b3 21 bf 20 9f 5b 3f 22 3b 1f 40
       0.5804056 -0.63164055 0.8578968 2.4879842
000260 6c cd a6 bf db 48 a8 3f 55 86 ef 3e 38 71 c4 3f
       -1.303144 1.3147234 0.46782175 1.5347052
000270 77 0a 1d 3f ec b1 02 c0 05 8f 43 3f 55 7a a6 3f
       0.61344093 -2.0421095 0.76390105 1.3006083
000280 8e d3 bf 3f 66 af d4 bf d1 f9 3f c0 e3 82 e9 3e
       1.4986436 -1.6616027 -2.9996226 0.4560767
000290 84 a0 3b 40 7f 1e 1c 3f ae 02 ac bf 8a 21 3a be
       2.931672 0.60984033 -1.3438318 -0.18176857
0002a0 bc ed 06 c0 ef aa f2 bc 32 f0 84 3e 0e ac 4c 3f
       -2.1082602 -0.029622523 0.25964504 0.79950035
0002b0 ec d2 7d c0 db 3e 55 3e aa f5 28 3f ab 4d e9 3e
       -3.9659986 0.20824759 0.65999854 0.45567068
0002c0 88 aa c3 bd f0 7f f2 be fc a6 80 bf b9 55 df 3e
       -0.09554011 -0.47363234 -1.005096 0.4362009
0002d0 07 53 1d 3f 7a 44 bf be a3 01 6c c0 73 d9 54 40
       0.61454815 -0.3735693 -3.6876 3.325772
0002e0 5b ae d4 bf 33 28 18 40 8a 68 93 3e 92 0a 33 bf
       -1.6615709 2.3774536 0.28790694 -0.69938004
0002f0 ab ba c6 bf b0 a8 8d 3f 38 00 64 c0 ee 3a b6 3f
       -1.5525717 1.1067104 -3.5625134 1.4236734
000300 d5 dd ca be 09 5c 41 bf 75 b3 aa 3f 61 81 2f bf
       -0.3962237 -0.7553106 1.3336016 -0.6855679
000310 14 a5 0d c0 64 d2 66 3f 4b b9 91 bf 9b e2 0f bf
       -2.2132006 0.9016478 -1.1384672 -0.5620515
000320 81 8b a2 3e e2 c8 9c bd 54 11 8f 3f 9e f4 af 3e
       0.31747058 -0.07655503 1.1177163 0.34366316
000330 fa 47 c8 bf 17 1f 19 bf 9f 91 47 c0 08 cc ec bf
       -1.5646966 -0.59813064 -3.118263 -1.8499765
000340 72 f6 90 3d a1 c8 3d bf ec 4a 30 40 59 ea 83 bf
       0.07078256 -0.7413426 2.7545729 -1.0305892
000350 e1 a2 55 3e 35 23 70 3f 19 a2 c3 bd 21 dc 59 bf
       0.20862915 0.9380372 -0.09552402 -0.85101515
000360 d7 51 4b bf 0e c4 c0 bf bd 19 d2 3f 73 a7 38 3d
       -0.7942175 -1.5059831 1.6414105 0.045081567
000370 6e b2 59 be 31 3d 05 c0 41 da 99 bc d0 10 9b 3e
       -0.21259472 -2.0818598 -0.01878083 0.30286264
000380 1e 64 58 bf 5a 21 06 c0 d1 50 a5 3e 15 43 9f 3f
       -0.84527767 -2.0957856 0.3228822 1.2442347
000390 5f e0 48 c0 9f 0c 1d 40 2a 5f e3 3f b4 9d 86 3f
       -3.1386945 2.4538953 1.7763417 1.0516877
0003a0 ea c6 43 3f ea 84 09 3e 63 14 b1 3e fd 0d 23 c0
       0.76475394 0.13429609 0.34585866 -2.5477288
0003b0 95 90 2b 3f f9 02 6f c0 6a 88 9f 3f 83 1c 40 bf
       0.6701749 -3.7345564 1.2463505 -0.75043505
0003c0 f7 8c 6e bf 6e a6 48 c0 10 d9 94 bf dd fd 55 3f
       -0.93183845 -3.135158 -1.1628742 0.8359049
0003d0 c7 39 9f bf c6 0e 0e 3f 0d a7 0d c0 4c 0a f6 3f
       -1.2439507 0.5549129 -2.213321 1.9221892
0003e0 dd dc 8b 3e 6d 4e 79 bf c3 b4 f3 3e 6a 60 a1 3f
       0.27316943 -0.97385293 0.47598848 1.2607548
0003f0 d1 40 22 3f 0e 73 9b 3e 39 10 30 40 2a 63 b0 3f
       0.6338015 0.30361217 2.7509902 1.3780262

model/dense/BiasAdd/ReadVariableOp f4 [10]
000000 6a 31 e4 3d 88 0e 1b bf e9 1f 08 bd 43 4e bb 3b
       0.111422375 -0.6056905 -0.033233557 0.0057161166
000010 3b 6d 36 3e 1a 1d 1a be 43 a3 17 bc 0e ee a6 3d
       0.17815106 -0.15050164 -0.009255233 0.08150874
000020 5a 29 78 3e 48 05 c3 3d
       0.24234524 0.09522492

model/conv2d_5/Conv2D f4 [32, 1, 1, 16]
000000 44 42 ed be 7c 40 14 bf 67 e8 f9 be 76 79 4b 3e
       -0.4633962 -0.57910895 -0.4881012 0.19870552
000010 bb 05 fd 3b 1e 69 12 bf b7 ae d0 3d 18 de fe 3d
       0.0077216304 -0.57191646 0.10189574 0.12444705
000020 93 8d 94 3e cb 8f ba 3a 6e c9 f1 3d 28 f1 1b bd
       0.29014263 0.0014233527 0.11805998 -0.03807178
000030 4e e0 00 3e 7e 6c 00 3d 88 f9 33 3d b3 b2 53 be
       0.12585565 0.031353466 0.043939143 -0.20673637
000040 07 e0 01 be 03 9b c2 bd c7 46 fa 3d 96 d1 a3 3e
       -0.12683116 -0.095022224 0.12220531 0.3199584
000050 2b ee 03 be 78 c2 ba 3e 41 e6 55 3e 2a 4f 17 3e
       -0.12883823 0.36476493 0.20888616 0.14776292
000060 47 68 95 3e ab 47 e1 3e 15 79 07 be ea 75 4f bd
       0.2918112 0.4399999 -0.13229783 -0.05064956
000070 ce 8e 6c be 07 bb fc bb 54 76 c1 bd 03 d8 90 be
       -0.2310135 -0.007712725 -0.094463974 -0.28289804
000080 96 a5 ac 3e 1c 27 c6 be 38 a4 87 be f2 a6 7b 3e
       0.33720082 -0.38701713 -0.26492476 0.24575403
000090 43 bc 4f 39 96 89 7c 3d 7d a2 8d 3d f1 02 d2 3c
       0.00019811191 0.06165465 0.06915758 0.025636168
0000a0 2b a7 c7 be 54 18 4c 3d ca ec bb be 78 6a 1c bd
       -0.38994727 0.04982789 -0.36704093 -0.038187474
0000b0 bb 16 82 3d a4 4e 91 3e e7 62 2e 3c 7e 61 27 be
       0.06351992 0.2838031 0.010643697 -0.16345784
0000c0 9d 69 7b be 7a 03 1d bf f7 45 3a be 2d 7f 66 be
       -0.24552007 -0.6133343 -0.18190752 -0.22509451
0000d0 58 9d e8 be bf b0 12 bd 7e 4c 61 be 2c 97 7b 3e
       -0.45432544 -0.03581309 -0.22001836 0.24569386
0000e0 c4 68 77 3e 01 ee 8a be ff 22 2c 3e 7a 49 ce be
       0.24161059 -0.27134708 0.16810225 -0.40290433
0000f0 41 bd c3 be 53 6d c2 be 9b bd 97 be 95 3b 66 be
       -0.38230327 -0.37974033 -0.29636845 -0.22483666
000100 f9 9a 31 bd 0f 52 6c be 66 b8 c4 bd 82 37 8f be
       -0.043360684 -0.23078178 -0.09605484 -0.27972037
000110 3b 73 cb 3d 20 58 96 3c d1 cc e2 3e 09 94 01 bf
       0.09934088 0.018352568 0.44296888 -0.5061651
000120 67 fd 48 3f eb e6 e4 bd 7b 37 15 bc b1 7b e4 bc
       0.7851166 -0.111768566 -0.009107466 -0.027891012
000130 d2 02 e4 bd 1d 96 21 bb 11 8e 64 3d f1 65 92 3e
       -0.111333504 -0.0024656125 0.055799548 0.285934
000140 19 0e 63 be 80 15 0f 3e 04 89 96 3d 6f 74 8d 3d
       -0.22173347 0.13973045 0.073503524 0.069069736
000150 04 7e cc be 54 84 b9 3e ba 4b 0d 3f 38 92 9d be
       -0.39939892 0.3623377 0.55193675 -0.3077562
000160 fd 22 81 be c6 99 c5 3d 03 49 8c be fe 29 10 3e
       -0.25222006 0.096484706 -0.27399454 0.14078519
000170 6d 83 0e 3d e0 5f e3 3e d4 c1 83 be 88 df b3 be
       0.034793306 0.44409084 -0.25733817 -0.35131478
000180 9e 53 97 3c 23 21 a4 3e e2 63 7a bd b4 83 cd 3d
       0.018472489 0.3205653 -0.061130412 0.10034886
000190 de 7a 1f be a1 79 a5 3d 9e d7 9b 3d e3 25 b1 be
       -0.15574214 0.080798395 0.07609485 -0.34599218
0001a0 4e a9 55 3d fa 6e 32 3d eb e6 3d 3d d9 6b 9e 3e
       0.052163415 0.043562867 0.0463628 0.30941656
0001b0 ce 36 f4 3d 85 d1 eb bd 1b 5d a2 3e 16 46 5a 3e
       0.11924516 -0.11514572 0.3171166 0.21315798
0001c0 2f 4c 12 3e f2 cd a6 3e 21 ab 48 be e7 e2 e7 bd
       0.14286874 0.32579 -0.1959653 -0.11322575
0001d0 f3 f3 be 3d 82 ea 17 bd f5 2c 90 bc 65 09 94 3d
       0.09323873 -0.03708888 -0.017599562 0.07228354
0001e0 48 90 c7 3d 93 f2 f0 3e bb 3d e6 bd ff a5 31 bd
       0.09744316 0.4706007 -0.11242243 -0.043371197
0001f0 65 ab 7b 3d ce 63 fb bd 82 1c b2 3e 1d 9d 24 3d
       0.06144275 -0.122748956 0.34787375 0.040188897
000200 f7 92 fb bd cf 94 ef 3e d0 8c 8e be 1b 9a 4f bb
       -0.12283891 0.4679322 -0.27841806 -0.0031677547
000210 33 bb d8 be f8 ee dd bd ea f1 b7 be 0f ea 8a be
       -0.42330322 -0.10836595 -0.35926753 -0.27131698
000220 c0 94 af 3e 78 b4 e2 be 79 12 07 3e 92 a0 7a 3e
       0.34293175 -0.44278312 0.1319064 0.24475315
000230 60 b6 90 be 3b 36 56 3d be 92 c1 3b 28 4e ed be
       -0.2826414 0.052297812 0.0059073856 -0.4634869
000240 db b0 dd bc c0 c3 0d 3f 94 91 24 be 7c 39 75 be
       -0.02706187 0.55376816 -0.16071159 -0.2394771
000250 59 f0 82 be 9b 95 51 be a1 59 e6 3d ec b0 33 3f
       -0.25573996 -0.20467226 0.11247564 0.70191836
000260 8b 24 9c be 24 2f da 3c 5f fc 05 3d a9 d8 bc bd
       -0.3049663 0.026633807 0.032711383 -0.09221012
000270 b4 bf d3 bd 26 69 21 be 0b d5 5b 3e 27 d3 10 3e
       -0.10339299 -0.15762767 0.21467988 0.14143048
000280 aa d0 25 3e 51 83 da 3c 51 7f df 3c 11 b9 87 3d
       0.1619288 0.026673945 0.027282389 0.066270955
000290 8d 88 97 be af 9b a4 3e 43 89 c2 bd 40 90 89 3e
       -0.29596367 0.32150027 -0.09498837 0.26867867
0002a0 2c f8 41 3e ae 89 7f bd 43 9d b3 be 4f 7a b9 3d
       0.18942326 -0.06238716 -0.3508092 0.09056532
0002b0 86 24 2c 3d 55 0b 04 bf 5e ae 3f be 91 1c 52 bd
       0.04202702 -0.5157979 -0.1871886 -0.051296774
0002c0 fb 6d 0b be 32 6d a1 bd 9d 1f a0 3e 84 be 49 3e
       -0.13616173 -0.078821555 0.3127412 0.19701582
0002d0 55 ba 3a be 24 88 0a 3e a3 35 cd be dd 2e 53 be
       -0.18235143 0.13528496 -0.40079984 -0.20623346
0002e0 47 f9 96 be 9b f0 ad be 98 c9 ac 3e 46 99 c9 3b
       -0.2948706 -0.3397263 0.33747554 0.006152305
0002f0 31 9f c6 bd cd f9 26 3e fc ac 98 3d 85 aa 39 bd
       -0.09698332 0.16306229 0.07454869 -0.045328636
000300 11 46 8e 3e 8c a2 16 be d0 6b 33 bd 60 ec 82 be
       0.2778783 -0.14710444 -0.04380399 -0.25570965
000310 e4 d7 01 3e f2 ff 40 3d f5 11 5b bb 95 3c cd bd
       0.12680012 0.04711909 -0.0033427451 -0.10021321
000320 2a 9f 97 be 44 f9 a1 bc 10 84 b3 be 39 1c 55 be
       -0.2961362 -0.01977218 -0.35061693 -0.20811547
000330 ac 9f f1 3d f6 37 ff 3e 3a c7 95 3e 93 9c a1 be
       0.11798033 0.49847382 0.2925356 -0.3156477
000340 ec 6c 01 be 6b a0 02 3e 18 0f 8b 3b 1c 73 ec 3a
       -0.12639207 0.12756507 0.0042437427 0.0018039676
000350 e7 9d 9d 3e 51 a5 24 3e 02 76 39 3e 21 89 fe be
       0.30784532 0.16078688 0.18111423 -0.49713996
000360 09 94 10 bf d6 ab 8a 38 ef 60 86 3e f9 cc 81 bd
       -0.56475884 6.61236e-05 0.2624583 -0.063379236
000370 57 ba fb be 55 21 ac be 54 8a 18 3e 77 eb 7e 3d
       -0.49165604 -0.3361918 0.14896518 0.062236276
000380 7d 5f d0 bd b0 dd 01 3f 77 c8 77 3e 71 4f a9 be
       -0.10174463 0.50728893 0.24197565 -0.3306842
000390 01 85 68 be 05 a0 86 3e ce 77 bc be e0 e2 0f 3d
       -0.22706987 0.2629396 -0.36810154 0.035128474
0003a0 23 c9 4d be b6 51 96 bd 84 6f 0f be eb 97 b5 be
       -0.20096259 -0.07339804 -0.14007384 -0.35467467
0003b0 0d e2 bc 3d 26 28 15 3e cb 56 59 be 23 13 0e 3f
       0.09222803 0.14566097 -0.21224515 0.5549795
0003c0 be 1c 81 bb 47 02 90 bd 62 aa 73 3e f5 a4 b0 3e
       -0.003940194 -0.07031684 0.23795465 0.34500852
0003d0 20 45 10 bf 52 2f 23 3e ca 66 62 be e8 c8 2b be
       -0.56355476 0.1593602 -0.22109523 -0.16775858
0003e0 93 10 7f 3b 74 ef 73 3e 8d 47 01 3d 75 c0 7b be
       0.003891979 0.23821813 0.031562377 -0.24585135
0003f0 e0 29 6d be fc 8e 83 3d e7 96 d5 be a1 eb 79 3e
       -0.23160505 0.064237565 -0.41716692 0.24406292

model/activation/Relu;model/batch_normalization/FusedBatchNormV3;model/conv2d/BiasAdd/ReadVariableOp;model/conv2d/BiasAdd;model/conv2d_2/Conv2D;model/conv2d/Conv2D f4 [16]
000000 1f bd 66 bf 39 1b 8f 3f 44 3e 8f 3e d0 f5 32 3e
       -0.90132326 1.1180183 0.27977192 0.17476583
000010 38 86 43 3f fc a1 ec 3e 67 dc 02 3f 10 1c 83 bf
       0.76376677 0.46217334 0.5111756 -1.0242939
000020 96 70 60 3e 30 31 31 3d c8 6c 33 3f 05 cc 1e 3f
       0.21917948 0.0432598 0.7008786 0.6203006
000030 7d 0d 18 3f 28 97 77 3f 78 fd 32 3e fe 20 98 bd
       0.5939558 0.9671502 0.17479503 -0.07428168

model/activation_1/Relu;model/batch_normalization_1/FusedBatchNormV3;model/conv2d_1/BiasAdd/ReadVariableOp;model/conv2d_1/BiasAdd;model/conv2d_2/Conv2D;model/conv2d_1/Conv2D f4 [16]
000000 e7 c3 e8 3f 98 66 f0 bd 31 f5 c8 3d 2b 08 04 be
       1.8184785 -0.11738318 0.098123915 -0.12893741
000010 53 21 7b be fc 5c c9 bf ff 35 bb 3e 77 54 21 3f
       -0.24524431 -1.5731502 0.36564633 0.6301951
000020 18 3b 20 3f 89 fd f7 3e b1 d5 50 3f 0f 33 a6 3e
       0.6259017 0.4843562 0.8157607 0.3246083
000030 28 24 c8 bd 3a 5b 4d 40 4d ce a5 3f a1 ce f3 3f
       -0.09772521 3.208693 1.2953583 1.9047433

model/batch_normalization_2/FusedBatchNormV3;model/conv2d_2/BiasAdd/ReadVariableOp;model/conv2d_2/BiasAdd f4 [16]
000000 98 65 17 3f 48 3c 16 3f 3a 1f 0d 3f 16 40 7f 3e
       0.59139395 0.5868573 0.5512577 0.2492679
000010 a8 44 f7 be b0 de 9e 3f 6c 0b 4b 3f 4c 4d a4 bf
       -0.48294568 1.2411709 0.79314303 -1.2836089
000020 c1 14 23 3f 0e 72 84 bc 1f ff 21 3f 10 86 a0 3d
       0.6370354 -0.016167667 0.6327991 0.078380704
000030 9f 82 82 be 6f ee 3c be 0a 55 e4 be c8 fc 82 3f
       -0.2549028 -0.1845033 -0.4459613 1.0233393

model/activation_3/Relu;model/batch_normalization_3/FusedBatchNormV3;model/conv2d_3/BiasAdd/ReadVariableOp;model/conv2d_3/BiasAdd;model/conv2d_5/Conv2D;model/conv2d_3/Conv2D f4 [32]
000000 dd 2e 0b 3f 6e c2 5d 3d 87 20 aa 3f ff 4d 63 3f
       0.5436838 0.0541405 1.3291177 0.8879089
000010 0b f2 0c be 32 09 1b bf 41 53 77 3f 6f d7 a2 3f
       -0.13764207 -0.60560906 0.9661141 1.2721995
000020 44 4e 2f 3f 67 8f a6 3f b0 61 3d 3f b5 bc 81 3e
       0.684788 1.3012513 0.73977184 0.25339285
000030 99 0c 34 bf 70 ac e6 3e f2 36 5b bd e1 75 6b 3f
       -0.7033172 0.45053434 -0.053519197 0.91976744
000040 34 fb a6 3f 21 d4 95 be 50 05 16 3f 5a f9 6b be
       1.3045411 -0.29263404 0.58601856 -0.23044339
000050 ce 77 f8 be 3d d4 42 c0 e7 9a 50 3f 68 c8 3f 3e
       -0.48528904 -3.044204 0.8148636 0.18728793
000060 5d 8f 12 3f 00 96 6c be e8 c8 60 3f a7 82 1e bf
       0.57250005 -0.23104095 0.8780656 -0.6191811
000070 77 09 6b 3f fe e9 ce 3e 5f b0 84 bd 9a 1a db 3e
       0.9181132 0.40412897 -0.064789526 0.42793733

model/batch_normalization_4/FusedBatchNormV3;model/conv2d_4/BiasAdd/ReadVariableOp;model/conv2d_4/BiasAdd f4 [32]
000000 14 1d bb 3f 58 71 8b 3f a4 14 b6 be db 01 f0 3f
       1.4618249 1.0893965 -0.35562623 1.8750566
000010 0a f0 1b 3e 0a 6a f5 3f 17 14 2a 3e a7 b6 64 3f
       0.15228286 1.9172986 0.16609226 0.89341205
000020 33 a9 48 40 c0 53 6b 3e af 62 3e 3e 12 55 cf 3f
       3.135327 0.22981167 0.18592332 1.6197836
000030 6c 2b 1a 3e 30 b6 d3 3f ee 5b 1e 40 db 3d 83 3e
       0.15055627 1.6539974 2.474361 0.2563313
000040 75 b3 0a 40 4f 7a 6d 3f 81 d2 a4 be 3a 04 0f 40
       2.1672032 0.92764753 -0.32191852 2.234633
000050 d0 a1 cb 3b 2a d9 e8 3e bd 4c 3b be ec bb 24 be
       0.006214358 0.45478183 -0.18290992 -0.16087312
000060 1b 3c 89 3f cb 07 8c bf 8b 4d 48 3f 98 be ad be
       1.0721468 -1.0939878 0.7824332 -0.33934474
000070 ec 60 2a 40 47 e6 8d be a6 e8 ab 3d 21 77 a1 3f
       2.6621656 -0.2771475 0.083939835 1.261448

model/activation_5/Relu;model/batch_normalization_5/FusedBatchNormV3;model/conv2d_6/BiasAdd/ReadVariableOp;model/conv2d_6/BiasAdd;model/conv2d_8/Conv2D;model/conv2d_6/Conv2D f4 [64]
000000 1e bc 2e bd 24 b3 43 3f 9e 32 c1 3e bc cf 2c be
       -0.04265987 0.7644522 0.3773393 -0.1687612
000010 cb 65 b4 3d a2 bf 7b 3f 01 d2 6a bf 7b cf af bf
       0.08808478 0.98339283 -0.9172669 -1.3735193
000020 bb 68 b6 bf 29 d0 ca 3e d6 9e f1 3e 0c 23 58 bf
       -1.4250711 0.3961194 0.47191495 -0.8442848
000030 02 29 00 bf 4e ed 75 bf f2 5d b0 bd 1c c0 fc be
       -0.5006257 -0.96065223 -0.08611669 -0.49365318
000040 d0 a2 22 3e c6 46 ab be be e9 79 3e c9 e0 85 be
       0.1588242 -0.33452433 0.24405572 -0.2614806
000050 a5 4c 2d 3e d2 5b 15 be 69 7e 93 bc 2b ed d1 bf
       0.16923769 -0.14585808 -0.018004613 -1.6400503
000060 fb 5a 4d bf dc 50 26 3e ef 2b 09 bf 00 9d 28 bf
       -0.8021695 0.16241783 -0.5358266 -0.65864563
000070 85 c5 30 be f3 3e 80 bf b7 63 95 bf b0 78 a4 bd
       -0.17262848 -1.001921 -1.1671056 -0.08030832
000080 42 7d fb be 30 12 87 3e 90 ba ca bd 9a 3a cd bf
       -0.49119002 0.26381063 -0.09898865 -1.6033509
000090 ec 29 ea 3d 71 10 25 3e b7 a2 0b be ce 4f 4a bf
       0.11433777 0.16119553 -0.1363629 -0.7902802
0000a0 ae b5 fb bc b0 b3 d4 be 5b a8 af 3d a1 76 1d be
       -0.03072628 -0.4154334 0.08577033 -0.15377285
0000b0 56 6a 0f 3f 60 22 56 3e c2 d0 af be ce b4 46 be
       0.5602163 0.2091155 -0.34338957 -0.19404909
0000c0 66 ba 7d be 36 2d f5 3d dd d4 e2 3d 6d 8c b2 be
       -0.24778137 0.11971514 0.11075757 -0.3487276
0000d0 8c 48 64 be 75 50 32 3e 96 3e 00 3f d3 df 6c bf
       -0.222933 0.17413504 0.500955 -0.9252903
0000e0 59 40 7f be 8f 13 2f bf 95 e2 e9 3e 87 16 4a 3f
       -0.2492689 -0.6838922 0.4568068 0.78940624
0000f0 98 cb 93 3f b5 fd 42 3f 86 97 0c bf 27 1d c4 be
       1.1546507 0.76168376 -0.54918706 -0.3830349

model/batch_normalization_6/FusedBatchNormV3;model/conv2d_7/BiasAdd/ReadVariableOp;model/conv2d_7/BiasAdd f4 [64]
000000 eb 75 e9 3f fa 92 a6 3f 50 0d cb 3f 0b e6 eb 3e
       1.8239111 1.3013604 1.5863438 0.46073946
000010 b8 52 b0 be 7a 88 ac 3f b3 ec a2 bf 7a d7 33 40
       -0.3443811 1.3479149 -1.2728485 2.8100266
000020 ee 82 bd 3f ea ca d8 bd 60 49 b6 be e9 fd b1 3f
       1.4805582 -0.10585578 -0.35602856 1.3905612
000030 64 be bd 3f cc fe fb 3f 8b 44 25 40 40 23 9e bf
       1.4823728 1.9687133 2.5823085 -1.2354507
000040 ad 17 3a c0 89 32 df bd 71 09 db 3f 74 6b 0a c0
       -2.907695 -0.10898311 1.7112256 -2.1628084
000050 6e ec 09 be 93 66 a2 bf 90 bb 06 40 65 cc 9e bf
       -0.13469097 -1.2687553 2.105198 -1.2406126
000060 7c 9b 78 be 30 c1 09 bf 3c 56 02 40 4a 98 0b 40
       -0.24278063 -0.53810406 2.0365133 2.18117
000070 46 be 7b bf 77 52 ba be e3 eb 3a bf 78 a4 a4 3f
       -0.9833721 -0.3639104 -0.73016185 1.2862692
000080 6e d3 aa 3e 04 10 e1 3f 94 e8 26 40 20 d4 e9 3f
       0.33364433 1.7583013 2.6079454 1.826786
000090 e0 a5 71 3f 6e 25 0a bf 2b d1 64 40 d8 45 f7 bf
       0.9439373 -0.53963363 3.5752666 -1.931819
0000a0 10 26 a9 3f 3a 59 10 40 d8 81 30 bd 30 85 d2 3f
       1.3214741 2.255446 -0.04309258 1.6446896
0000b0 3a d3 1a 40 83 73 62 3f 43 fa 3b 3e 2b 71 68 bf
       2.4191422 0.88457507 0.18357186 -0.9079768
0000c0 c2 dd 85 3f 7f a3 81 40 32 da 12 c0 64 94 e5 3f
       1.04583 4.051208 -2.2945676 1.793591
0000d0 7c 64 d8 3f dc f6 75 3f 71 13 bb be 2b 33 db 3f
       1.6905665 0.960798 -0.3653827 1.712499
0000e0 82 16 81 40 fd 53 0a bf a9 f8 98 3f ce 4b 69 40
       4.0339975 -0.54034406 1.1950885 3.6452518
0000f0 26 15 43 40 20 2b 65 bf d8 91 2b 40 95 e6 a1 bf
       3.0481658 -0.8951893 2.6807766 -1.2648493

model/conv2d_5/BiasAdd/ReadVariableOp f4 [32]
000000 2d c0 9b 3e e2 31 0c 3e 50 27 30 be 1d 70 ab 3d
       0.30420056 0.13690904 -0.17202497 0.08370993
000010 48 5b d3 be ee c6 0a be 57 05 57 bd f7 6c 7b be
       -0.4128058 -0.13552448 -0.052495327 -0.24553286
000020 96 53 40 be df e0 f2 be b4 6b 7a bd 6d 85 9e be
       -0.18781886 -0.47437188 -0.06113787 -0.3096117
000030 78 21 e2 bc 8f ac a7 3c e8 36 4b 3d ab 0b 2f be
       -0.02760385 0.020468025 0.04961291 -0.17094295
000040 15 6f 8c bd da d5 20 3d 11 7d 17 bf 79 a8 c0 bc
       -0.06857125 0.039266445 -0.5917521 -0.023517834
000050 df b7 9a be c5 91 01 be 50 3b dd be 91 7b 5b 3d
       -0.30218408 -0.12653263 -0.43209314 0.05358464
000060 79 0f b9 be 48 4a fb be bd 7e 8f be 34 a6 b2 3d
       -0.36144617 -0.4908011 -0.2802638 0.08723107
000070 62 10 85 be 17 a4 ba bc d8 d3 cd be 6e 97 5a be
       -0.25989062 -0.022783322 -0.40200686 -0.21346828

model/conv2d_8/BiasAdd/ReadVariableOp f4 [64]
000000 73 bc eb be c3 70 1f bf 48 80 0b bf f3 18 2e bf
       -0.46042213 -0.62281436 -0.54492617 -0.6800682
000010 5e ae d7 be 2d 0a 15 bf 79 aa f3 be 0d 3e db be
       -0.4212522 -0.5821865 -0.47590998 -0.42820778
000020 ef 97 a5 be 1a 32 36 bf 8d d3 32 bf 8a 09 27 bf
       -0.3234248 -0.711702 -0.6985405 -0.6524893
000030 b0 3b 38 bf 49 6d e2 be 8d a3 2e bf cc 24 c9 be
       -0.71966076 -0.44224003 -0.6821831 -0.39285886
000040 20 42 1b bf ac 9b 00 bf 9d dc 26 bf 8c 72 52 bf
       -0.60647774 -0.50237536 -0.6518038 -0.82206035
000050 4b a0 1a bf 6b e0 08 bf 8c 2c b1 be c0 7e 46 bf
       -0.6040084 -0.53467435 -0.346043 -0.77537155
000060 f3 40 e9 be 82 c2 0a bf 4b 4b 23 bf 8b 58 97 be
       -0.45557365 -0.54203045 -0.6378676 -0.2955974
000070 90 86 38 bf 58 93 57 bf 86 e6 b1 be 7d a4 b5 be
       -0.72080326 -0.84209204 -0.34746188 -0.35477057
000080 53 40 39 bf 28 e6 31 bf f0 cc e1 be 11 23 10 bf
       -0.72363776 -0.69491816 -0.44101667 -0.5630351
000090 e2 83 50 bf f3 45 3b bf fd d0 41 bf 92 bd 47 bf
       -0.8145124 -0.7315361 -0.75709516 -0.78023636
0000a0 b7 8a d7 be 87 18 51 be 24 fe 87 be 38 69 ea be
       -0.4209802 -0.20419513 -0.2656108 -0.457834
0000b0 5f 39 01 bf ef 49 1c bf 34 b1 3f bf 95 a7 35 bf
       -0.50478166 -0.61050314 -0.74879766 -0.70958835
0000c0 3c c3 c2 be 6c c0 0a bf 97 f5 40 bf 6c a2 00 be
       -0.38039577 -0.5419986 -0.7537474 -0.12561959
0000d0 f3 b2 e8 be ca 0e 15 bf 9a aa 13 bf 83 1a 25 bf
       -0.45449027 -0.5822569 -0.5768219 -0.6449358
0000e0 fa 16 07 bf c8 40 f8 be f6 07 12 bf f9 63 2c bf
       -0.52769434 -0.48486924 -0.570434 -0.67340046
0000f0 7d e2 02 bf 4f f3 2c bf 47 81 2a bf 94 b7 1f bf
       -0.51126844 -0.6755876 -0.6660351 -0.62389493

model/conv2d/Conv2D f4 [16, 3, 3, 3]
000000 8a 40 24 3f a9 41 87 3f 7c 37 77 3f 36 95 20 bf
       0.6416098 1.0566913 0.9656904 -0.6272768
000010 d4 62 d8 3d fc 09 d0 3e 59 b9 3c bf d5 10 88 be
       0.10565725 0.40632617 -0.7372032 -0.26575342
000020 64 50 21 be 52 bd 0c 3e 23 c3 4f 3f 88 1c 5f 3f
       -0.15753323 0.13744095 0.8115713 0.8715291
000030 08 ec cf be dd d1 63 3e b6 02 0e 3f d9 ef 86 be
       -0.40609765 0.22248025 0.55472887 -0.26354864
000040 69 35 90 be 7b 18 2b 3e 92 7f 0b be a6 59 9e 3e
       -0.2816575 0.16708557 -0.13622883 0.3092777
000050 9f 5d 76 3e 46 de c8 be 16 8a bb 3d 21 5a f6 be
       0.24059151 -0.3923208 0.09157197 -0.48115638
000060 f9 fb 6a 3d d2 45 05 bf 30 db 04 bf b7 1f 93 be
       0.057369206 -0.5205966 -0.51896954 -0.28735134
000070 46 71 58 bf 12 c7 b0 bd 94 36 22 bd 83 ee 2a bf
       -0.8454784 -0.0863172 -0.03960283 -0.6677019
000080 01 aa 24 be 87 1c 4b 3e c2 f0 b5 be 78 6f 82 be
       -0.16080476 0.19835101 -0.35535246 -0.2547567
000090 30 61 79 be 22 39 bf be 65 70 de 3d c7 23 21 bc
       -0.2435348 -0.37348276 0.10861281 -0.00983519
0000a0 51 ee d8 bd 70 4f b9 3d 8f cf a2 3e 24 47 d6 3d
       -0.1059233 0.090483546 0.3179898 0.10462788
0000b0 63 43 8a 3e 40 3d 00 be 69 b9 10 be c5 a7 e5 3d
       0.27004537 -0.12523365 -0.14133228 0.1121364
0000c0 82 2e c7 bd fe 54 83 bc f4 a8 dc 3d e3 b8 63 be
       -0.097256675 -0.016031738 0.10774413 -0.22238497
0000d0 25 2d dd bd a1 62 38 bd 7c a5 a1 3f a2 e9 c0 be
       -0.10799626 -0.045015935 1.2628627 -0.37678248
0000e0 06 e6 23 3e dd 33 d7 3c 0d ae 29 bf 88 ab fe 3c
       0.16005716 0.026269848 -0.66281205 0.031087652
0000f0 9e 8d 91 bf 43 e9 a9 bf 90 b1 9e bd b2 30 d4 3f
       -1.1371343 -1.3274311 -0.07748711 1.6577361
000100 65 b3 4d 3f 81 df 39 3e e3 28 ed be 4a 40 04 3f
       0.8035186 0.18151666 -0.46320257 0.516606
000110 b9 ea 0f 3d 78 76 b1 bf ec 6e ee be a3 84 c1 be
       0.03513596 -1.3864279 -0.46569002 -0.37796506
000120 c0 c4 09 3f ba 90 4b 3f 04 53 ff be b0 71 c4 be
       0.5381584 0.7951771 -0.49868023 -0.38367987
000130 fb 28 5b 3d ee c0 b9 be 49 08 2d bf f0 f8 77 3f
       0.05350588 -0.36280006 -0.6759077 0.96864223
000140 02 9d 3b 3f 43 09 e1 3f c9 80 1e c0 16 10 0a c0
       0.7328645 1.7580951 -2.4766104 -2.1572318
000150 2b 39 3e 40 b1 19 51 3e 83 f7 cc be d1 d1 36 bf
       2.9722393 0.20419957 -0.40032586 -0.71413904
000160 df 9a a1 bd c6 d6 94 3d 86 26 53 40 c1 3a 2e 3f
       -0.078908674 0.07267527 3.2992263 0.680584
000170 3f d4 4e 3f d0 4a c3 bd 39 77 58 c0 e9 2a a1 bf
       0.8079261 -0.09535754 -3.3822768 -1.259122
000180 c3 bf 4b 3f 8d 35 79 3f 0f 61 1b 40 d8 94 2f bf
       0.7958948 0.97347337 2.427799 -0.6858649
000190 89 a8 03 bf e9 86 f5 3c f9 01 5f c0 6d f6 8e bf
       -0.5142904 0.029971557 -3.4844954 -1.1168953
0001a0 8f 19 ea 3a 15 ee d2 bf 31 ec 51 40 b4 92 c0 3f
       0.00178604 -1.6478907 3.280041 1.504477
0001b0 36 a1 91 bf a1 aa 3a c0 87 a4 8d bf 65 68 16 c0
       -1.1377323 -2.9166644 -1.1065835 -2.3501217
0001c0 f7 f7 84 3d 73 88 a3 bf 76 5b c5 3e 2e d4 11 40
       0.06492608 -1.2776016 0.38546342 2.2785754
0001d0 a0 de 83 3e df 67 09 40 c8 54 cf 3e e0 25 0f 40
       0.25755787 2.1469648 0.4049437 2.2366867
0001e0 08 83 ff bf 5f 31 be bf f4 b8 42 c0 31 12 6a 3f
       -1.9961863 -1.4858817 -3.0425386 0.9143401
0001f0 e8 ae 71 40 5d a3 fd 3f 93 c6 a6 3f 0b ee 61 bf
       3.7763004 1.981548 1.302935 -0.8825385
000200 bf f9 53 3f 16 9f a6 bf d3 9c df 3f da 42 28 bf
       0.8280296 -1.3017299 1.7469734 -0.6572701
000210 00 c3 ef bf 47 a3 2a 40 0c 70 9c bf 14 0d fd be
       -1.8731384 2.6662157 -1.2221694 -0.4942404
000220 8a 42 90 3e 60 8d ca 3e 27 85 a7 3f b4 d7 c0 bd
       0.28175765 0.39560986 1.308751 -0.09416142
000230 95 e7 c7 3f 89 d7 0d 3e cd 6f 6f bf 2a 21 0d 40
       1.5617548 0.13851751 -0.9352997 2.2051492
000240 e5 9a 1f c0 e8 4e e3 bf 2b 05 6d bf c8 2d 03 c0
       -2.493829 -1.7758455 -0.9258601 -2.0496693
000250 e1 88 0f c0 52 85 8f bf dc 95 c8 3f 6e cb 5e bf
       -2.2427294 -1.1212561 1.5670733 -0.8702916
000260 6d 56 cf 3f c2 43 41 3f b4 1c ab 3d ba d9 09 bd
       1.619825 0.75494015 0.08355084 -0.033654906
000270 4f dd e1 3f ff 5f 07 40 80 17 9c 3f d7 42 7c 3f
       1.7645663 2.1152341 1.2194672 0.9853949
000280 1f c1 a1 bf b3 37 cf bf 9b d0 fc be 0e 38 c9 3e
       -1.2637061 -1.6188873 -0.49377903 0.3930058
000290 ac 18 d7 3f 03 d6 ac bf 46 5e 41 bf 03 89 59 bf
       1.6804404 -1.3502811 -0.75534475 -0.8497469
0002a0 e3 03 08 3f e8 f9 f7 3e a1 36 76 3e 53 55 a0 be
       0.5313093 0.4843285 0.24044277 -0.31315097
0002b0 82 43 5a bc ac bc 03 3f 7c 51 b0 be 61 85 9b 3e
       -0.013321759 0.51459765 -0.34437168 0.30375198
0002c0 a6 55 1b bf 00 22 6e 3f 92 c5 d3 3f 9b 85 1f 3f
       -0.60677564 0.9302063 1.6544669 0.6231324
0002d0 0f 5c 88 3e be 7f 88 bf 8e 84 5d bf 01 05 ff be
       0.26632735 -1.0663984 -0.8653039 -0.49808505
0002e0 85 8f 57 bf 73 6b 12 c0 8a 39 6d 3f 2f 53 aa 3f
       -0.8420337 -2.2878082 0.9266592 1.3306636
0002f0 8d 39 21 bf 92 94 fa be 38 8f 3a bf e0 d7 9f bf
       -0.6297844 -0.48941475 -0.72874784 -1.2487755
000300 e5 be 33 3e f4 8a 5a 3e 05 18 3b be 61 5f b8 bd
       0.17553289 0.21342069 -0.18270881 -0.09002567
000310 b9 d2 0f be 2a 3e 9c 3f 8d 5c 25 3f d3 23 02 3f
       -0.14045228 1.2206471 0.64594346 0.50835913
000320 76 fb 0c 40 57 9b 1f 3d 97 bb 9f bd 0a 00 e4 3f
       2.202848 0.038966503 -0.07799452 1.7812512
000330 2d bf 29 c0 5b b5 12 c0 ae 98 d9 3f ea 93 57 3f
       -2.6522934 -2.292319 1.6999719 0.84210074
000340 61 f2 6b bf f3 cd 05 c0 cc 2f 98 3f 0a af 65 bf
       -0.92166716 -2.0906951 1.1889586 -0.89720213
000350 84 e5 25 bf 92 da 4f 3f d0 6c 95 3f 2c 99 a9 3f
       -0.6480334 0.81192887 1.1673832 1.3249869
000360 9f 11 62 bf 15 54 98 3f 73 71 aa bf 3c 93 86 bf
       -0.8830814 1.190066 -1.3315872 -1.0513682
000370 f4 3a f5 3d 03 f8 43 bf 0b 0f 2b 3f ed 07 9f 3e
       0.11974135 -0.7655031 0.6681983 0.31060734
000380 77 c2 80 bd 07 71 5a bf 81 f0 ed 3f 55 b5 d6 3f
       -0.06287091 -0.85328716 1.8589021 1.6774088
000390 69 d7 fe bf c9 72 e8 bc 27 9e 37 3f eb fb e0 be
       -1.9909488 -0.028375046 0.71725696 -0.43942198
0003a0 83 23 3a 3f 13 40 bb 3f f6 3c 08 be 48 80 fb 3f
       0.72710437 1.4628929 -0.13304505 1.9648523
0003b0 a2 10 6f 3e de 50 a8 bf 7a 1b a4 bf 27 9f 8b bf
       0.23346189 -1.3149679 -1.2820885 -1.0907944
0003c0 e6 03 85 3e 2b 9d b5 be 11 9d 1b 3f 5b 76 d5 bf
       0.25979537 -0.35471472 0.6078654 -1.6676744
0003d0 bf 85 73 bf de aa 36 bf a4 14 bf be cd 8c 7d 3f
       -0.95125955 -0.7135447 -0.37320435 0.9904297
0003e0 0b 92 36 bf 4a 30 cd bf b7 1e 5a 40 0f fd 83 3f
       -0.71316594 -1.6030362 3.4081247 1.0311602
0003f0 b1 36 cb bd 05 cb 20 c0 db 41 8e 3d 4f 7a e2 3f
       -0.09922541 -2.5123913 0.06946155 1.7693576

model/conv2d_1/Conv2D i1 [16, 3, 3, 16]
000000 f0 06 e0 42 81 09 30 f8 0d de e2 e9 1e 14 e1 16
       -16 6 -32 66 -127 9 48 -8 13 -34 -30 -23 30 20 -31 22
000010 d0 04 cd ea e5 e2 fd 01 ee f5 1e ca d8 e9 fa 39
       -48 4 -51 -22 -27 -30 -3 1 -18 -11 30 -54 -40 -23 -6 57
000020 cb f5 ca fb 0a 08 a9 f2 e6 00 07 1c 05 1b a2 d7
       -53 -11 -54 -5 10 8 -87 -14 -26 0 7 28 5 27 -94 -41
000030 04 23 d6 3a 08 14 18 0a fe cf f1 f0 ca 21 9e fa
       4 35 -42 58 8 20 24 10 -2 -49 -15 -16 -54 33 -98 -6
000040 e5 0b de e9 b8 03 fa e5 e4 04 0b f6 e5 0a b2 0f
       -27 11 -34 -23 -72 3 -6 -27 -28 4 11 -10 -27 10 -78 15
000050 cc 05 cd 15 e4 9f 23 ea 0d 20 28 f1 11 e8 2e 13
       -52 5 -51 21 -28 -97 35 -22 13 32 40 -15 17 -24 46 19
000060 1a 28 ed be db e0 06 2b 05 cd 54 de c8 e4 e6 04
       26 40 -19 -66 -37 -32 6 43 5 -51 84 -34 -56 -28 -26 4
000070 01 25 e8 e4 69 0d 9b 16 19 f5 b1 f4 d6 0e f2 b6
       1 37 -24 -28 105 13 -101 22 25 -11 -79 -12 -42 14 -14 -74
000080 f3 15 b9 f8 09 4b ee f9 fc 52 58 0b 05 e1 d9 f0
       -13 21 -71 -8 9 75 -18 -7 -4 82 88 11 5 -31 -39 -16
000090 fb f1 b8 e8 20 61 47 f6 4b 1a ec 01 0a ea f2 29
       -5 -15 -72 -24 32 97 71 -10 75 26 -20 1 10 -22 -14 41
0000a0 13 fe fb f9 2b 0e 44 1f f7 3a c2 d5 d7 fe 1e 20
       19 -2 -5 -7 43 14 68 31 -9 58 -62 -43 -41 -2 30 32
0000b0 50 06 cb e8 06 2a 15 0f 35 41 bd 9e 03 26 c3 13
       80 6 -53 -24 6 42 21 15 53 65 -67 -98 3 38 -61 19
0000c0 ae f1 b8 f4 5a 7f 0c de 24 b7 1e 30 13 08 c5 11
       -82 -15 -72 -12 90 127 12 -34 36 -73 30 48 19 8 -59 17
0000d0 05 09 d3 1a de ff e9 25 f9 18 ec f5 d1 44 11 02
       5 9 -45 26 -34 -1 -23 37 -7 24 -20 -11 -47 68 17 2
0000e0 56 06 ff 48 f7 a2 f1 52 a4 dd d8 1b 03 17 25 13
       86 6 -1 72 -9 -94 -15 82 -92 -35 -40 27 3 23 37 19
0000f0 c5 f8 d8 e1 ad 22 e3 03 e1 9d 23 25 3c b9 e2 eb
       -59 -8 -40 -31 -83 34 -29 3 -31 -99 35 37 60 -71 -30 -21

model/conv2d_2/Conv2D i1 [16, 3, 3, 16]
000000 b1 19 24 d5 d9 f5 30 19 17 1c 32 15 e4 08 ff 49
       -79 25 36 -43 -39 -11 48 25 23 28 50 21 -28 8 -1 73
000010 fd 5f 45 d8 d3 f0 35 03 1e 0b 18 17 d7 02 e8 ee
       -3 95 69 -40 -45 -16 53 3 30 11 24 23 -41 2 -24 -18
000020 36 0e 0c 01 bf ea 10 f1 0d 88 e5 dc e3 06 20 d8
       54 14 12 1 -65 -22 16 -15 13 -120 -27 -36 -29 6 32 -40
000030 e1 23 2c 17 c0 38 db ef 1b fb 0a 18 bb bb 0a 02
       -31 35 44 23 -64 56 -37 -17 27 -5 10 24 -69 -69 10 2
000040 0a 0c e7 1d 06 27 d5 e5 1b 1b ff 1e cb fe f4 c5
       10 12 -25 29 6 39 -43 -27 27 27 -1 30 -53 -2 -12 -59
000050 22 c1 e3 10 1c ee 42 dd 2d a8 f3 f7 f2 19 2b bb
       34 -63 -29 16 28 -18 66 -35 45 -88 -13 -9 -14 25 43 -69
000060 1d e1 3d 1b bd f7 07 e8 2e bb fc 0d 98 f9 fd fe
       29 -31 61 27 -67 -9 7 -24 46 -69 -4 13 -104 -7 -3 -2
000070 ec 01 fd f8 a7 f8 e5 c3 f3 0d 11 e9 ac 0f fa cf
       -20 1 -3 -8 -89 -8 -27 -61 -13 13 17 -23 -84 15 -6 -49
000080 da 81 12 b9 e9 f6 19 a8 08 de fb fe 07 e0 4a e9
       -38 -127 18 -71 -23 -10 25 -88 8 -34 -5 -2 7 -32 74 -23
000090 1f e9 35 3b 22 2e 97 0f 0f 9a cc 60 ed de 11 c6
       31 -23 53 59 34 46 -105 15 15 -102 -52 96 -19 -34 17 -58
0000a0 cf 9c 06 ed 06 e1 d0 2e fc 2d cc f1 d6 0f e2 35
       -49 -100 6 -19 6 -31 -48 46 -4 45 -52 -15 -42 15 -30 53
0000b0 01 0d 9c e3 f6 0a ca 00 f1 be 0a c4 f2 1e bc f6
       1 13 -100 -29 -10 10 -54 0 -15 -66 10 -60 -14 30 -68 -10
0000c0 c4 38 e9 59 14 fc 1b f5 5c 4e bb fc fc a1 da 1d
       -60 56 -23 89 20 -4 27 -11 92 78 -69 -4 -4 -95 -38 29
0000d0 35 ca 04 df 0b da 2b f1 7f 4b f6 f6 b2 dd 26 46
       53 -54 4 -33 11 -38 43 -15 127 75 -10 -10 -78 -35 38 70
0000e0 0a ed df c5 45 c8 04 e3 7d 28 11 f8 c9 43 e1 37
       10 -19 -33 -59 69 -56 4 -29 125 40 17 -8 -55 67 -31 55
0000f0 f6 0f c8 0c f0 1f 24 d3 fc 03 cb 17 38 95 f3 24
       -10 15 -56 12 -16 31 36 -45 -4 3 -53 23 56 -107 -13 36

model/conv2d_3/Conv2D i1 [32, 3, 3, 16]
000000 18 08 b1 00 c6 05 cb 06 cd bd 3c de 25 43 a7 11
       24 8 -79 0 -58 5 -53 6 -51 -67 60 -34 37 67 -89 17
000010 f1 c9 b7 2d ca 03 db 30 cf 03 f9 f5 e0 d5 d3 d0
       -15 -55 -73 45 -54 3 -37 48 -49 3 -7 -11 -32 -43 -45 -48
000020 07 d7 e8 db cc ff 2c 01 fc e1 0e 16 34 1f e1 f9
       7 -41 -24 -37 -52 -1 44 1 -4 -31 14 22 52 31 -31 -7
000030 21 f2 d6 36 01 32 e6 e3 0a b5 36 ef fc 2d da c5
       33 -14 -42 54 1 50 -26 -29 10 -75 54 -17 -4 45 -38 -59
000040 fd bd c1 55 c2 df d8 58 21 1b 30 e3 0d 7f 0f f8
       -3 -67 -63 85 -62 -33 -40 88 33 27 48 -29 13 127 15 -8
000050 df ce f2 0f a8 dc 2f 36 04 23 25 1a 23 f5 07 21
       -33 -50 -14 15 -88 -36 47 54 4 35 37 26 35 -11 7 33
000060 f1 09 dd a9 3d 38 c2 ff 17 e3 11 18 05 f1 77 e4
       -15 9 -35 -87 61 56 -62 -1 23 -29 17 24 5 -15 119 -28
000070 08 eb 1a db f0 f0 f9 f1 e6 f7 f8 02 ef c0 44 d2
       8 -21 26 -37 -16 -16 -7 -15 -26 -9 -8 2 -17 -64 68 -46
000080 e1 18 f2 ea 19 25 4d c1 03 ee dd c3 39 e6 31 cf
       -31 24 -14 -22 25 37 77 -63 3 -18 -35 -61 57 -26 49 -49
000090 30 d1 2b 23 c8 01 c1 00 e7 3a fd 1f 34 e0 04 a8
       48 -47 43 35 -56 1 -63 0 -25 58 -3 31 52 -32 4 -88
0000a0 d6 2e 31 50 f9 01 34 10 23 f1 e9 ee 9e 06 f4 23
       -42 46 49 80 -7 1 52 16 35 -15 -23 -18 -98 6 -12 35
0000b0 15 15 a3 83 f8 1d f2 22 13 f4 d0 f5 eb 02 d1 02
       21 21 -93 -125 -8 29 -14 34 19 -12 -48 -11 -21 2 -47 2
0000c0 3a f2 fa d9 09 01 c9 f2 f6 29 14 25 31 24 31 ac
       58 -14 -6 -39 9 1 -55 -14 -10 41 20 37 49 36 49 -84
0000d0 b4 fd 1b 79 12 06 22 14 22 81 b8 9d c6 ef 36 72
       -76 -3 27 121 18 6 34 20 34 -127 -72 -99 -58 -17 54 114
0000e0 2a 1f f5 aa fa e7 1c e8 fe 4d f3 f5 09 12 bc de
       42 31 -11 -86 -6 -25 28 -24 -2 77 -13 -11 9 18 -68 -34
0000f0 2f 0f 0c 0a d1 0a e4 e4 1f 4d ce e1 47 df 32 99
       47 15 12 10 -47 10 -28 -28 31 77 -50 -31 71 -33 50 -103

model/conv2d_4/Conv2D i1 [32, 3, 3, 32]
000000 28 33 1f 07 f7 81 ff 14 de 02 35 9b 3d 02 d6 f1
       40 51 31 7 -9 -127 -1 20 -34 2 53 -101 61 2 -42 -15
000010 16 1b e7 0a ee fa 30 e2 e6 e1 ee 2f 57 f6 fd 34
       22 27 -25 10 -18 -6 48 -30 -26 -31 -18 47 87 -10 -3 52
000020 1d 29 00 15 a1 d2 01 f0 c3 d6 1c e0 f8 09 38 fc
       29 41 0 21 -95 -46 1 -16 -61 -42 28 -32 -8 9 56 -4
000030 c4 ee d4 03 cf e2 f0 38 f4 33 31 fe ff 0d fd 09
       -60 -18 -44 3 -49 -30 -16 56 -12 51 49 -2 -1 13 -3 9
000040 96 3c 03 0e 09 03 dc bd e3 38 0f e4 cb e8 5f bf
       -106 60 3 14 9 3 -36 -67 -29 56 15 -28 -53 -24 95 -65
000050 b2 ce 28 ca e0 df 19 df ce 26 14 1a 0e d2 02 59
       -78 -50 40 -54 -32 -33 25 -33 -50 38 20 26 14 -46 2 89
000060 36 fe 3c 1c ee ec e0 2e 0d 11 3f 2f 0e 0d e0 fb
       54 -2 60 28 -18 -20 -32 46 13 17 63 47 14 13 -32 -5
000070 fd 33 12 3c e9 dd d9 e2 c1 16 f0 f0 e6 d0 f6 04
       -3 51 18 60 -23 -35 -39 -30 -63 22 -16 -16 -26 -48 -10 4
000080 22 3f 26 2a ce 10 d2 28 02 33 12 e4 c2 0c 05 2d
       34 63 38 42 -50 16 -46 40 2 51 18 -28 -62 12 5 45
000090 e8 d6 e8 93 37 dd 09 c6 0f b2 f9 dd cc e5 e2 16
       -24 -42 -24 -109 55 -35 9 -58 15 -78 -7 -35 -52 -27 -30 22
0000a0 db 14 18 d8 f9 e4 21 b9 08 f9 11 fc 12 e4 33 f4
       -37 20 24 -40 -7 -28 33 -71 8 -7 17 -4 18 -28 51 -12
0000b0 96 cc 0a 10 e5 d5 e1 15 05 d7 e6 07 df 29 14 13
       -106 -52 10 16 -27 -43 -31 21 5 -41 -26 7 -33 41 20 19
0000c0 33 02 09 be 10 33 31 c8 ec f8 f9 c6 cc 00 dd dc
       51 2 9 -66 16 51 49 -56 -20 -8 -7 -58 -52 0 -35 -36
0000d0 3c 38 0d 2b 12 1b 0a f8 c2 29 e8 eb d8 0c f8 e5
       60 56 13 43 18 27 10 -8 -62 41 -24 -21 -40 12 -8 -27
0000e0 4a 09 bd 0e c8 0d c8 ef 22 ee 0a fd 20 e0 da ee
       74 9 -67 14 -56 13 -56 -17 34 -18 10 -3 32 -32 -38 -18
0000f0 f5 2d dd 18 db c5 de 05 fb 04 ec ce 0c d3 f9 00
       -11 45 -35 24 -37 -59 -34 5 -5 4 -20 -50 12 -45 -7 0

model/conv2d_6/Conv2D i1 [64, 3, 3, 32]
000000 aa 0e 14 3c 11 0f 04 c6 bc f9 bf 17 35 c7 06 bc
       -86 14 20 60 17 15 4 -58 -68 -7 -65 23 53 -57 6 -68
000010 a9 d1 bf b8 2a ea e8 2f f5 37 20 fe 2d 09 ef ee
       -87 -47 -65 -72 42 -22 -24 47 -11 55 32 -2 45 9 -17 -18
000020 05 e8 e0 c7 14 e7 fb c3 ef dc ce f3 cb ba e2 fb
       5 -24 -32 -57 20 -25 -5 -61 -17 -36 -50 -13 -53 -70 -30 -5
000030 df ed 15 ba f9 87 13 1e 14 e9 ec 16 d7 62 fa 44
       -33 -19 21 -70 -7 -121 19 30 20 -23 -20 22 -41 98 -6 68
000040 15 04 04 1d 3a c3 2d e1 07 05 d2 10 c6 41 f8 1c
       21 4 4 29 58 -61 45 -31 7 5 -46 16 -58 65 -8 28
000050 16 40 2c ce 07 f5 d5 17 c9 ba 4a 4e ce 16 20 2b
       22 64 44 -50 7 -11 -43 23 -55 -70 74 78 -50 22 32 43
000060 c2 f2 23 c6 dc eb f6 34 eb 08 96 00 04 a1 f7 eb
       -62 -14 35 -58 -36 -21 -10 52 -21 8 -106 0 4 -95 -9 -21
000070 bc d4 f6 d4 f6 db 0d 36 d7 35 c2 4d 23 d6 16 16
       -68 -44 -10 -44 -10 -37 13 54 -41 53 -62 77 35 -42 22 22
000080 c7 d2 e1 a6 ff 10 2e 21 16 0b f2 d6 0f dc 4b a0
       -57 -46 -31 -90 -1 16 46 33 22 11 -14 -42 15 -36 75 -96
000090 c8 e7 29 f3 33 31 f4 f0 f4 22 30 03 01 d3 28 39
       -56 -25 41 -13 51 49 -12 -16 -12 34 48 3 1 -45 40 57
0000a0 c6 5a d5 fb 56 c7 4a 58 31 0d d9 06 81 15 1e d6
       -58 90 -43 -5 86 -57 74 88 49 13 -39 6 -127 21 30 -42
0000b0 1f fb 2c 83 0d 39 cd f6 0c a8 f4 cd 1b 15 ef 3e
       31 -5 44 -125 13 57 -51 -10 12 -88 -12 -51 27 21 -17 62
0000c0 3a 2a 42 ad f3 60 bb 0f d4 28 e6 e1 cd e2 fa fc
       58 42 66 -83 -13 96 -69 15 -44 40 -26 -31 -51 -30 -6 -4
0000d0 58 e6 f6 d4 cd 18 d9 13 f2 51 fa e5 48 03 18 18
       88 -26 -10 -44 -51 24 -39 19 -14 81 -6 -27 72 3 24 24
0000e0 ed 49 4e c5 21 25 00 fb 26 34 00 c7 fe e3 37 b2
       -19 73 78 -59 33 37 0 -5 38 52 0 -57 -2 -29 55 -78
0000f0 e1 da 3a db 1e 42 f5 2a 02 3f c7 06 51 d5 20 d4
       -31 -38 58 -37 30 66 -11 42 2 63 -57 6 81 -43 32 -44

model/conv2d_7/Conv2D i1 [64, 3, 3, 64]
000000 a1 17 e7 61 d6 2b f3 da 2e 52 47 12 02 0f 3c 3b
       -95 23 -25 97 -42 43 -13 -38 46 82 71 18 2 15 60 59
000010 d4 10 19 2f 46 26 dd 0e e8 c4 e6 d6 ee 4f e5 f5
       -44 16 25 47 70 38 -35 14 -24 -60 -26 -42 -18 79 -27 -11
000020 e7 24 b9 c3 d3 eb d0 a7 06 3d e3 0e e7 e3 0c ed
       -25 36 -71 -61 -45 -21 -48 -89 6 61 -29 14 -25 -29 12 -19
000030 44 c6 0b b0 18 e4 e2 fd 7f 10 ff df 13 b1 0a d6
       68 -58 11 -80 24 -28 -30 -3 127 16 -1 -33 19 -79 10 -42
000040 09 16 12 54 e0 10 ad cf 0f 10 05 fe 03 15 16 e5
       9 22 18 84 -32 16 -83 -49 15 16 5 -2 3 21 22 -27
000050 b1 12 f2 06 50 1c ed c2 ed ff ea e3 bc 37 12 2a
       -79 18 -14 6 80 28 -19 -62 -19 -1 -22 -29 -68 55 18 42
000060 13 0d e5 b4 d5 ae 0b 27 19 19 f5 e7 b4 c2 c3 0d
       19 13 -27 -76 -43 -82 11 39 25 25 -11 -25 -76 -62 -61 13
000070 fe 04 eb c4 12 03 0e e4 26 ec f0 17 fb b0 07 e4
       -2 4 -21 -60 18 3 14 -28 38 -20 -16 23 -5 -80 7 -28
000080 f0 e6 44 5d fe 06 0b 0b fd 44 21 04 45 df fd e4
       -16 -26 68 93 -2 6 11 11 -3 68 33 4 69 -33 -3 -28
000090 ad f5 f4 25 6f f8 fb f3 eb f5 fe e4 de 12 d9 2f
       -83 -11 -12 37 111 -8 -5 -13 -21 -11 -2 -28 -34 18 -39 47
0000a0 fd f5 ce e9 09 21 f5 07 02 0a c4 eb f8 12 9b 06
       -3 -11 -50 -23 9 33 -11 7 2 10 -60 -21 -8 18 -101 6
0000b0 16 de 01 cb 02 0f cc e9 de 3b 2a 19 27 de 10 fd
       22 -34 1 -53 2 15 -52 -23 -34 59 42 25 39 -34 16 -3
0000c0 ef 20 15 15 c8 f9 0b e4 27 fc 3d 24 2d ed 3c e0
       -17 32 21 21 -56 -7 11 -28 39 -4 61 36 45 -19 60 -32
0000d0 ec 3f 0b 30 de ff ff 43 00 de d2 f3 f3 33 27 e6
       -20 63 11 48 -34 -1 -1 67 0 -34 -46 -13 -13 51 39 -26
0000e0 d5 0a d6 43 cb e1 1d c3 17 0e f1 c5 10 f0 22 e4
       -43 10 -42 67 -53 -31 29 -61 23 14 -15 -59 16 -16 34 -28
0000f0 16 cf f2 20 e9 56 ec ee e9 25 fa 13 bb 1d 0c e8
       22 -49 -14 32 -23 86 -20 -18 -23 37 -6 19 -69 29 12 -24

model/conv2d_8/Conv2D i1 [64, 1, 1, 32]
000000 17 d7 d5 f5 dd b4 c3 d6 31 31 fe fe e0 00 ea 81
       23 -41 -43 -11 -35 -76 -61 -42 49 49 -2 -2 -32 0 -22 -127
000010 f8 f0 c1 d4 f5 13 02 d0 c2 07 b1 c2 13 db 19 c7
       -8 -16 -63 -44 -11 19 2 -48 -62 7 -79 -62 19 -37 25 -57
000020 11 f9 1b 0b fb 00 c6 d0 dd c5 e7 1c f9 d7 81 22
       17 -7 27 11 -5 0 -58 -48 -35 -59 -25 28 -7 -41 -127 34
000030 e9 e7 24 f9 ec d7 f5 ef 1e 09 19 f0 29 ed 01 e1
       -23 -25 36 -7 -20 -41 -11 -17 30 9 25 -16 41 -19 1 -31
000040 19 8c fe 44 cc 07 f2 81 6c d7 f1 e4 fb 93 c4 91
       25 -116 -2 68 -52 7 -14 -127 108 -41 -15 -28 -5 -109 -60 -111
000050 da 32 eb ef e0 e5 f7 e4 f7 e5 de b4 ff fe ca c5
       -38 50 -21 -17 -32 -27 -9 -28 -9 -27 -34 -76 -1 -2 -54 -59
000060 d6 c3 f4 06 06 f2 ce 81 f8 d1 de 0c f5 de 08 d7
       -42 -61 -12 6 6 -14 -50 -127 -8 -47 -34 12 -11 -34 8 -41
000070 c6 b4 c3 f1 ee a3 ec e3 fe b6 c3 e5 93 85 2c e9
       -58 -76 -61 -15 -18 -93 -20 -29 -2 -74 -61 -27 -109 -123 44 -23
000080 d9 cb e6 a4 bb 81 c0 cf 3a ed fa d8 63 de ce ed
       -39 -53 -26 -92 -69 -127 -64 -49 58 -19 -6 -40 99 -34 -50 -19
000090 8b 9d ff ec c3 96 01 a7 cf ec e2 fd f2 04 cb f4
       -117 -99 -1 -20 -61 -106 1 -89 -49 -20 -30 -3 -14 4 -53 -12
0000a0 98 a9 e5 d6 cc ce be 03 07 de be ca 89 ff ea c5
       -104 -87 -27 -42 -52 -50 -66 3 7 -34 -66 -54 -119 -1 -22 -59
0000b0 d6 fb b3 0f e1 7e f5 aa 06 11 f7 ad fb 81 bd a2
       -42 -5 -77 15 -31 126 -11 -86 6 17 -9 -83 -5 -127 -67 -94
0000c0 09 08 1f 2e 39 e5 c8 eb e1 02 cd 42 24 cd 81 e3
       9 8 31 46 57 -27 -56 -21 -31 2 -51 66 36 -51 -127 -29
0000d0 eb d3 3f b7 08 eb 0e 26 ec 11 14 f7 08 d4 35 05
       -21 -45 63 -73 8 -21 14 38 -20 17 20 -9 8 -44 53 5
0000e0 ec e4 08 ec b0 29 cd c4 1a 0c d3 be 26 ed 0d cd
       -20 -28 8 -20 -80 41 -51 -60 26 12 -45 -66 38 -19 13 -51
0000f0 ce 3a f5 81 d2 27 db 3d ca ee dd f1 e3 cc 0b d4
       -50 58 -11 -127 -46 39 -37 61 -54 -18 -35 -15 -29 -52 11 -44
